bank/model.pt (torch, 82835 bytes, 10 tensors)

layers.0.bias f4 [124]
00000000: e848 74be 2053 3fbe 6e5f c5be c7de 3abe
00000010: b077 a4be 3a3a d1be 8195 b9be d181 57be
00000020: 62db 1abe a782 c3be 5f8a 3ebe 01d6 d6be
00000030: 16fd babe 2aa2 67be be14 3fbe bd8d 8bbe
00000040: edbe dbbd 57ed 16be 72a9 c2be 3e89 15be
00000050: f49f 8bbe 8d3b 33be 546c a7be 3945 4abe
00000060: fd4b 6ebe 29b5 a5be 833b f4be 1bc0 01bf
00000070: 2f6d 21be ac42 8bbe 30a7 02be 4d42 c5be
00000080: 4efc 65be 2742 b3be 65fd bbbe 117e e6be
00000090: a69d 44be 5397 54be 76ad 283d 75ff 14bd
000000a0: 4354 f4be cb00 c4be 7f26 9dbe 4307 eabe
000000b0: c91c 2dbd 7096 66be 6820 f7be 24bd f4bd
000000c0: 36b7 cbbe 4015 d8bd 8f5d 08bf 163c 00bf
000000d0: d4a2 46bd 99ad 22be 57ad fbbd 0179 4c3d
000000e0: 5046 b1be 9ae0 d7bd c2a3 9dbe 42c2 493d
000000f0: 7968 cbbe 6b7d f4be 6e69 b2be 6f99 61bc
00000100: 9b91 62be f9e4 84be 90d2 01bf 8822 bfbd
00000110: ab5e 77be d60f 11be c8ce 9dbe d5cb 503d
00000120: 48a0 79be 2506 76be 1884 5abe aa24 0cbe
00000130: c1e3 97be cd13 abbe 0d8a 7fbe 2f29 28be
00000140: 67af c7be 6286 38be b46a e3bd ba3a 03bf
00000150: 8cca acbd bfb5 f5be 4a10 9abd 16dc 75be
00000160: a49f 3fbe bf23 cdbe 139d 4cbf 2668 75be
00000170: 63a3 edbe 8d2a 58be a321 0ebe 2182 a0be
00000180: e4a4 9abe 6406 71be 63ee bdbe 678d 2ebe
00000190: 1241 b9be b4af bc3d 3b4c adbe 2faa eebd
000001a0: b214 a3be c104 53be 7413 1fbe 5c82 0e3c
000001b0: 144b 79be 2914 19be 70ce 1bbf 7f01 153d
000001c0: 1d20 e7be 8be9 debe 6c77 46be 8f18 a9bd
000001d0: 4728 593d c337 debe 249e b2bd 5f32 bfbe
000001e0: 9e43 1bbe 8c94 82be 82e6 4dbd b811 6cbe
-0.23855937 -0.18684053 -0.3854937 -0.18249045 -0.32122564 -0.40864736 -0.36246875 -0.21045615
-0.1512275 -0.38185617 -0.18607472 -0.41960147 -0.36521214 -0.22620454 -0.18660256 -0.27256575
-0.107297756 -0.14738975 -0.38019902 -0.14603135 -0.27270472 -0.17503186 -0.32699835 -0.19752969
-0.23271175 -0.32364777 -0.47701654 -0.50683755 -0.15764306 -0.27199304 -0.1275909 -0.38527146
-0.22459528 -0.35011408 -0.36716762 -0.45018056 -0.19200763 -0.2076085 0.04118105 -0.036376435
-0.47720537 -0.38281855 -0.30693433 -0.45708665 -0.04226378 -0.22518325 -0.48266912 -0.11950138
-0.39788216 -0.10550928 -0.5326776 -0.50091684 -0.04849513 -0.15886535 -0.12288921 0.049920086
-0.34623957 -0.10540886 -0.30789 0.049257524 -0.39728144 -0.47751936 -0.3484606 -0.013769492
-0.22125857 -0.25955942 -0.5071192 -0.09332758 -0.24157207 -0.14166197 -0.30821824 0.05097564
-0.24377549 -0.24025781 -0.21339452 -0.13685861 -0.2966595 -0.33413544 -0.24955006 -0.1642196
-0.3900101 -0.18020013 -0.111043364 -0.51261485 -0.0843707 -0.47990224 -0.07522638 -0.24009737
-0.18713242 -0.40066335 -0.79927176 -0.2396551 -0.46413717 -0.21109982 -0.13880019 -0.3134928
-0.30203927 -0.23537594 -0.37095937 -0.17046128 -0.36182457 0.092132 -0.33847222 -0.11653554
-0.31851727 -0.20607282 -0.15534765 0.008698072 -0.24345046 -0.14949097 -0.60861874 0.03637838
-0.45141688 -0.43537554 -0.19381493 -0.08256637 0.053016927 -0.43401918 -0.08721569 -0.37343118
-0.15162513 -0.25503957 -0.050268658 -0.23053634

layers.0.fc_pool.weight f4 [14, 14]
00000000: 5546 24bd e447 a63c c31c bbbc 2eec 3b3c
00000010: fa62 84bf a919 e5bc e639 213c 1110 7cbc
00000020: 0e9d 5bbc c734 9e3c dc6b 2bbc 5595 66bd
00000030: 2750 fdbe a5e9 253c 7872 433c d323 efbb
00000040: 5b93 b939 467e 883c 2e15 52bf e7a4 bdbc
00000050: 64e3 cd3c 760f 56bf 8c53 a53b ff76 07bc
00000060: 1edd 07bd 96d9 703f a64f 79bc 0eaa a3bc
00000070: 67b6 b23c 5642 a7bb 1b32 38bc a23a acbc
00000080: 0f21 91bd 7aed 88bb cdfa 833a f157 edbe
00000090: 4b2f 1dbc 1891 903b 9bb3 03bc c55d 273d
000000a0: b056 febb c56a f53b ac92 2c3a 9f7c bdba
000000b0: c5cf dd3c bd32 97bc e5e0 07be 0fbb ebbb
000000c0: 23eb b7bb 0804 d53c 5a78 823c 76ea c73c
000000d0: 9e40 b8bc 8cbd 553e 61bc b5bc 4f61 b83e
000000e0: 242b 7d3b f28a 11bc 9931 16bc 54fa a53b
000000f0: 6d3b 5dbe c38f 63bc 7dc5 86bc e292 37bf
00000100: 7fa5 acbc 75db 4bbb 4f2f 3e3c a16c 6a3c
00000110: e86d 92bd 4196 263f 101a a8bd aaa2 4fbd
00000120: 42fd b83d 342d 033d cc9c 90bc ae08 8ebc
00000130: 4663 a8bc 135a ebba 56db 6c3d 599c 87bc
00000140: 4a5f e8bc b7fa 823c 8900 bb3b d51b 1a3c
00000150: b514 553d 08e2 b6bc 2496 c1bd 44cb 3abd
00000160: 8c6d e7bb 2667 fdba 81d7 4f3d eb6d ce3c
00000170: c67e 043d 2839 82bc 0ef3 9dbb 4023 adbc
00000180: 67ed 1ebd a39b 563c 49a8 9fbc 4216 1dbc
00000190: a76a c83c 6c34 423c 9615 20bd ad93 32bc
000001a0: b8ca ab3c 52c5 e5bc 21dc 98bb da7e 23bc
000001b0: 4f06 a3bc 48ea 413c a409 04bd 0a76 5c3e
000001c0: 78e4 c6bb 485e 15bc 8711 65bb 6d89 493c
000001d0: 735f aebc c1c0 42be 7f1d 913c 3740 a1bc
000001e0: 33e6 553d bc6b 5e3b d539 bcbc edaa 34bb
000001f0: 0ba0 6abe f68e 91bd 9c82 ab3b 72aa ebbc
00000200: 2d42 49ba e400 15bd 08e9 933c 4c15 2d3c
00000210: 5540 27bd 5a4b 513b 3b47 a43d 3242 843c
00000220: e189 4c3c bc24 cc3c 9f3b 98be 3146 ffbd
00000230: fc5f b4bc c564 b1bb 2c97 103c 4a4e c6bc
00000240: dd22 b9bc 115c 2cbb 8402 2e3c 692f 00bb
00000250: a89a 553b a4f0 29bc 0e51 333c 8e96 2a3c
00000260: 29d3 3bbd 95c9 723e cce0 093c 0e54 a5bc
00000270: f223 7d3c 302e 47bc 674c acbd 74ba 37bd
00000280: bdb7 16bc 2580 283c 9c3c 2a39 93d3 38bd
00000290: 94e3 3f3a 46db cf3e 12c4 68bc 83b2 ea3c
000002a0: 8898 03bd 2425 263c c5db 05ba dfec 2bbb
000002b0: bcfb 52bb 9590 e93a 86f8 41bc 88d0 6fbe
000002c0: 8b55 d03b 36ec ebb8 9a49 debc db37 2dbb
000002d0: bacc 59bb 8d19 873c b8e7 75bc 4f7f 2f3d
000002e0: 8c0f eeba 6d8f 803d 72ec 8e3c cb46 b3bd
000002f0: 645f c3bd f770 81bd 2d8a 0b3e 11b9 563c
00000300: d102 dcbc 96be 183d 9c6d 173d 9854 4bbd
-0.040106136 0.020297952 -0.022840863 0.011469884 -1.0342705 -0.027966337 0.009840464 -0.01538469
-0.013404144 0.019312276 -0.010462727 -0.056294758 -0.49475214 0.010126506 0.011929147 -0.0072979718
0.00035395738 0.016661774 -0.8206357 -0.02314992 0.025132842 -0.8361734 0.00504536 -0.008268117
-0.03316986 0.9408201 -0.015216744 -0.01997855 0.021815492 -0.0051043434 -0.011242415 -0.021024052
-0.070863836 -0.0041787 0.0010069251 -0.46356156 -0.009593795 0.004411828 -0.008038427 0.04086091
-0.007761799 0.0074895346 0.0006583135 -0.0014456696 0.027076611 -0.018456811 -0.13269384 -0.00719393
-0.0056127473 0.026002899 0.015926529 0.024403792 -0.02249175 0.20873088 -0.022184553 0.3601174
0.003863045 -0.008883225 -0.009167098 0.005065242 -0.216047 -0.013889256 -0.016451592 -0.717085
-0.021075008 -0.0031106148 0.011607959 0.014308126 -0.07149869 0.6507302 -0.08208096 -0.050692238
0.0903268 0.03202553 -0.017652892 -0.017338123 -0.02055515 -0.0017955921 0.057826363 -0.016554045
-0.02836575 0.01598869 0.005706851 0.00940605 0.0520217 -0.022324577 -0.09452465 -0.045604005
-0.0070626196 -0.0019333109 0.05074263 0.025198897 0.032347463 -0.015896395 -0.004820234 -0.021134973
-0.038800623 0.01309863 -0.019489424 -0.009587826 0.024464918 0.011853319 -0.039083086 -0.010899466
0.020970687 -0.028048191 -0.0046649133 -0.009978974 -0.01990047 0.011835642 -0.032235757 0.21529403
-0.006069716 -0.009116717 -0.0034953074 0.012300831 -0.021285748 -0.19018842 0.01771426 -0.01968394
0.05222149 0.0033938726 -0.022976795 -0.00275677 -0.22912614 -0.07107346 0.0052340757 -0.028767798
-0.00076774025 -0.036377802 0.018055454 0.01056416 -0.040832836 0.0031935782 0.08021399 0.016144846
0.012484045 0.02491986 -0.29732987 -0.1246456 -0.022018425 -0.005413624 0.008825105 -0.024207253
-0.022599632 -0.0026299993 0.010620717 -0.0019559509 0.0032593403 -0.010372315 0.010944618 0.010411872
-0.045855675 0.2370971 0.008415412 -0.020181682 0.015450465 -0.012157008 -0.0841301 -0.04485555
-0.00919908 0.010284458 0.00016235042 -0.045123648 0.00073199836 0.4059698 -0.014206903 0.028649574
-0.032127887 0.010140691 -0.00051062956 -0.0026233715 -0.0032193502 0.0017819578 -0.011839038 -0.23419392
0.0063578538 -0.00011249671 -0.027134705 -0.0026430998 -0.0033233599 0.016491676 -0.015008859 0.04284602
-0.0018162592 0.06277356 0.01744673 -0.08753737 -0.09539679 -0.063203745 0.13626929 0.013105647
-0.026856812 0.037291132 0.036969766 -0.04964122

layers.0.fc_pool.bias f4 [14]
00000000: 1dbf ba3e 7fb0 193f 8de5 d4bc f9cb b73e
00000010: 460e 04bd 0ca0 ebbe faf2 cfbe ce09 0d3f
00000020: 3bbd cdbe 3adc 07bf a7dc a63d e63f fb3e
00000030: 6c14 7fbe b54d 50bf
0.36473933 0.60034937 -0.025988365 0.35897806 -0.032240175 -0.46020544 -0.40615064 0.55093086
-0.40183434 -0.53070414 0.08147555 0.49072188 -0.24910134 -0.8136857

layers.0.fc_self.weight f4 [124, 14]
00000000: e4a8 44be a14d 20be 7999 483b b112 2dbf
00000010: 1962 523d 279f dbbe 2e37 003f 4e4b e13b
00000020: 062d 2c3e 7d8e 4fbf 8b79 60bf 23c6 ff3e
00000030: 2e01 1c3e cea5 16be 2167 9e3d a899 84bd
00000040: e28b 473e e3f5 be3e 38ab ad3c 9a5b da3c
00000050: 1629 a2bc e5e3 67be 82ad afbd 468b 643e
00000060: c5a8 e53d cb63 bdbd d010 6f3c a2d0 5c3e
00000070: 02f6 06bf c2c0 a93e b693 a7bc d81c 1f3e
00000080: 0c3f 2c3d 390c ffbd 8ee1 93be ab70 d63e
00000090: e503 233d 1721 da3e 110b 57be c586 88be
000000a0: baf9 7b3d 1689 bb3e 7d9e e23e ffc3 40be
000000b0: 95e7 c0bd c458 693d 3b78 ac3c 1cc7 8b3e
000000c0: e394 02be 7b69 573e 860d f13e 3405 983d
000000d0: ab7a 99bc 3152 d83e 2c45 a6be 2eac 473d
000000e0: 2bdd ac3d 37d1 293f 01c5 cebd 388b f53e
000000f0: e1ed d0bd 0716 c63e e9dc ce3e 5feb 05bd
00000100: 0b7c 093f 6651 4cbe 2aa8 2f3f 025b ebbe
00000110: cef9 adbe b388 953f 0cfd 2d3e 212a c33d
00000120: e4dd 30bf 4418 54bf 7827 783d 012b 8cbe
00000130: 9195 113e 60aa 7ebe 04ed 313e bd2e 043f
00000140: 319b b6be 529e 093e e32c 0abf 256d 85be
00000150: 34e1 20be bae9 d2be eac3 f7be 2e34 cdbe
00000160: f28b cdbd d04b d93c d209 a63d f03e dabd
00000170: 07ed 2c3f ada1 013d 723b c53e 02bc 49be
00000180: 0a48 bebe 074b 85be 572b 01bf 947e 933e
00000190: a584 9f3d 68c5 f63d 5cb9 8e3b b04a e2be
000001a0: 92e1 aebe d110 46be 0d27 7e3e eb03 3f3e
000001b0: 8328 19be 8935 293e ea78 26be 5609 52bd
000001c0: e8b0 1abe 3fce 3fbd e002 ca3d d859 b8bb
000001d0: cb10 d8bb d0c4 d4be 4191 40bd f7a6 09be
000001e0: 5e43 abbd 45a4 993e 0149 4abf fe2d b3bd
000001f0: 5307 303d 102c 233e d9ee 8abe 494a 15be
00000200: e82e e93e 0695 1dbd feb4 ed3a dfc0 31bf
00000210: be7c 45be d617 f33d a18a 68bf e264 11bf
00000220: 2e35 2d3f 6f1f 1bbe 246f 223e 56ec 1c3f
00000230: 2d11 debe 0524 c2bc 9f4a 67bc 7024 12be
00000240: 2c57 bf3d a497 5a3d 9b8f 85be 5110 fd3c
00000250: d840 973d c347 af3e 198e a23e ae80 a0bd
00000260: 4c1d 81bd a5bf d6bb f1c6 0b3e ade2 b13e
00000270: b3e7 303e 5d19 d33e 8ed0 7abd f1d2 0fbf
00000280: 9235 923f a9fc 273e 355b 443f edea af3d
00000290: e08d 89bd c3df c4ba 0699 ffbe dce8 eabe
000002a0: de72 babd a938 10bc 38c3 f33e 45e1 c6be
000002b0: a883 013e d503 34bd b132 83be d2d9 d03c
000002c0: 44de 0f3f bb5c 5fbe 4da8 0e3f fa6f 35be
000002d0: 6e93 ec3c 212c 09bf a692 70be 2f4d 08bd
000002e0: 17cc 82be be6b f63d b62d 07be f198 a7be
000002f0: 1b04 9a3e d645 91be cba2 1cbe 4893 b93e
00000300: 9f59 8c3e 8293 d0bd f4ea 013e 6deb 013f
00000310: eef2 303f 115c 84bd beeb dbbc a34d 753e
00000320: bf96 95bd 83f2 193e 925c 983e 0bf2 413e
00000330: 4b7a a93e e7da f6bd e2ad 21bf 9324 af3d
00000340: e0fa 3e3d 604e 31be 4799 cf3e cda0 3bbe
00000350: 8325 71bd b103 0c3d e92a 22bd a80f 9cbc
00000360: 2856 15be f9bf 28bd 544a 093f 522c 4c3e
00000370: 5bf7 45be bcdb 2abe 941e a1be 2dd6 63be
00000380: a578 b5be 3999 efbd a394 7d3e 8994 87be
00000390: b7bb c3b9 d489 8cbe 3f12 a9bd d468 81bb
000003a0: ddeb d7be 1163 cebe f8fa 433e 8a58 99bc
000003b0: d818 45be 26c0 acbd 6c38 29be 65c8 e5be
000003c0: 1e07 783d eb13 f8be 2304 52bd 6228 74bf
000003d0: 9aba 733f 5f3b 97bd b298 2dbd fe4e e5be
000003e0: 4bbd 473f 4599 3f3e 7818 e93c 8c3e 273e
000003f0: fc42 b4be c491 6e3d 1bbd 7f3e b9bb dfbe
-0.19205052 -0.15654613 0.0030609055 -0.67606646 0.051363084 -0.4289486 0.500842 0.006875432
0.1681405 -0.81076795 -0.8768546 0.49955854 0.15234825 -0.14711687 0.07734514 -0.0647462
0.19486955 0.37296972 0.021199808 0.026655007 -0.019794982 -0.22645529 -0.08578016 0.22318754
0.11213831 -0.092475496 0.014591411 0.21563962 -0.5271913 0.33154875 -0.020456176 0.15538347
0.042052314 -0.12453503 -0.28883022 0.41882834 0.039798636 0.4260337 -0.21000315 -0.2666532
0.061517455 0.36628026 0.44261542 -0.18824767 -0.09419171 0.05696942 0.021053424 0.27300346
-0.12752108 0.21036331 0.4708063 0.074228674 -0.01873525 0.42250207 -0.3247465 0.048748188
0.08440622 0.6633486 -0.10096169 0.47957778 -0.10201622 0.3868868 0.40402916 -0.03269517
0.537049 -0.19952926 0.68615973 -0.4596787 -0.33979648 1.1682342 0.16991061 0.0952952
-0.6908858 -0.82849526 0.060584515 -0.2737656 0.14217211 -0.2486968 0.1737557 0.51633817
-0.35665277 0.134393 -0.5397474 -0.26059833 -0.15710908 -0.41193944 -0.48391658 -0.40078872
-0.10036458 0.026525408 0.08107342 -0.106565356 0.67549175 0.031648327 0.38521916 -0.19700626
-0.37164336 -0.26033804 -0.50456756 0.2880751 0.07788972 0.12049371 0.0043555927 -0.44197607
-0.34156471 -0.19342352 0.24819584 0.18653838 -0.1495686 0.16524328 -0.16257063 -0.051278435
-0.15106547 -0.04682755 0.098638296 -0.0056259446 -0.0065937988 -0.41556406 -0.047013525 -0.13442598
-0.08362459 0.3000814 -0.79017645 -0.08749007 0.042975735 0.15934777 -0.2713535 -0.14579119
0.455436 -0.038472198 0.0018135605 -0.6943492 -0.19285867 0.11869781 -0.9083653 -0.5679456
0.6765927 -0.1514871 0.1586271 0.6129812 -0.4337248 -0.023698816 -0.014116912 -0.14271712
0.093427986 0.053367272 -0.26086125 0.03089157 0.07385415 0.34234437 0.31749037 -0.07837044
-0.06304416 -0.0065536075 0.13650109 0.34743252 0.17275886 0.41230288 -0.06123405 -0.56181246
1.1422598 0.16404976 0.7670167 0.085897304 -0.06716514 -0.00150203 -0.49921435 -0.45880783
-0.091039404 -0.008802571 0.47609878 -0.38843742 0.12647879 -0.043948967 -0.25624612 0.02549449
0.56198525 -0.21812718 0.55725557 -0.17718497 0.028878894 -0.5358296 -0.23493442 -0.033276733
-0.25546333 0.12032269 -0.13201031 -0.32733873 0.30081257 -0.28373593 -0.15296476 0.3624518
0.27412125 -0.10184385 0.12687284 0.50749856 0.6912068 -0.06462873 -0.02684581 0.23955397
-0.07304143 0.15033917 0.29758126 0.18939988 0.33101115 -0.12053471 -0.6315595 0.08551898
0.04662597 -0.17315054 0.4054663 -0.1832306 -0.058873665 0.034183208 -0.039591704 -0.019050434
-0.14583647 -0.041198704 0.5362904 0.19938782 -0.1933264 -0.16685385 -0.31468642 -0.2224967
-0.35443607 -0.11699147 0.24763732 -0.2648051 -0.00037333157 -0.27448905 -0.08255433 -0.003949264
-0.42172137 -0.40309957 0.19138706 -0.018718977 -0.19247758 -0.08435087 -0.1652543 -0.4487945
0.060553662 -0.48452696 -0.051273476 -0.9537412 0.95206606 -0.07384371 -0.04238195 -0.4478683
0.78023213 0.18710811 0.02845405 0.16332453 -0.35207355 0.05824448 0.24974482 -0.4369791

layers.0.fc_neigh.weight f4 [124, 14]
00000000: 70bc 73bd 4c36 f3bd 209a 04bd fee7 81be
00000010: 01cd 11be 6004 a03b 6122 c9bd dcfc 3bbc
00000020: 0a7d 1abe 612a 38bd 7840 5abe 1f4e 6cbe
00000030: c88f 1ebd a421 11bc ec18 eabb 55e9 fdbd
00000040: f3f2 5cbe 0281 f33c b0e5 56be 4198 1dbe
00000050: 64db 8b3b b1a3 5bbe 319e 47bd c115 89bd
00000060: fb55 b0bd 31ed 6abd 990b 23be 2609 13bc
00000070: 2828 4cbe a42b 1abe c971 7dbe 0cc9 7fbe
00000080: 8698 9fbe f363 49be 48f4 40be bc56 b4be
00000090: 732e e7be ff7b fabd 9291 0fbe 5491 d7be
000000a0: 7fae 3ebe 74cc 523d 0a64 45be 43df 54be
000000b0: 6e3c 17be c651 31bd 6963 39be e802 88be
000000c0: 40f6 853b 3e3e cdbd ee1a 4d3c 64be 96be
000000d0: 31d2 d63c 6af8 9bbe 8077 5b3d 0132 e4bd
000000e0: 7294 b0be 6b1c a1be 6d12 56be 30c4 61be
000000f0: d939 e8bd 16e6 28be 2310 04be 3c48 a7be
00000100: 278c e7bd 5b7a 863b c9f1 03be 477b 22be
00000110: 515f 54be 2f23 8f3d 0ec2 a8be daa3 a0be
00000120: e68e e2bd 0fd7 9abe 7286 a0be 2d69 613d
00000130: 9c46 d2bd e510 91be 5391 c2bd 2fbb 03be
00000140: 19aa 67be 2ab0 91be 685e 3dbe 4add 233e
00000150: 002a 953b 08ca e9bc 9ae7 0dbe aba3 9cbd
00000160: 454d 38be 3da5 93bd 4e11 023d 09b9 61bd
00000170: 2f90 62bd e17f 933d 878b 5fbe 9b36 83be
00000180: 9ebc a13c 459c 503d c82e 92bd c5dc 2fbe
00000190: b465 80bd 711c 96bd 3eb9 d8bd 590f 22be
000001a0: d28e 5abd 63de 77bd 0cff 22be c179 9f3b
000001b0: d0ef 55bd a75d 0cbe 66af 84bc 68ed 9bbd
000001c0: 7f0e 7dbe 98b2 49be 6eb2 3fbe 32dd a3b9
000001d0: 43dc 03bc 429d 22bd c6b9 493d c109 4fbe
000001e0: 2185 58bd cf31 0abd c9f9 c53d b11e 983c
000001f0: cfaf a7bd 2eb8 58bd 3cd3 1cbe 1152 5bbe
00000200: 3b4b 6fbe 62a8 83be e4ae 41be 663a 9abd
00000210: 97c7 703d 951e c8be 509e 96be 293b a03c
00000220: 939b 5ebd 9640 a5bd 06fa b6bd fb3a d93d
00000230: 17cc 25be c22b 36be e84d 1abe bffb 89be
00000240: ed7d c5bd e273 13bd 90eb 33bd 0b37 c8bd
00000250: a6a1 623d eecb 6bbe 05b4 22be c376 1ebe
00000260: 9c24 afbd 748d 823e a30e cdbe 3432 dcbe
00000270: b9f9 3cbe c2b5 31be 0109 c0be d78d fb3c
00000280: 33e2 1bbe d35a 4fbd 97d2 a5bb 6ea5 b33d
00000290: b5b4 78be cf9f d4be c7a3 4fbe 2a45 1dbd
000002a0: fa5c 78be 5dc3 9cbe e6fb b0bd 11af a4bd
000002b0: 65c9 a0be 37af 1ebe e22a d03c 15c1 84bd
000002c0: f28f bdbe 737a be3c 7154 193d 52ec edbd
000002d0: f36a bdbc cbb4 123e 3880 95be 5c8f d93c
000002e0: 6d1a aabd 3305 c8bd 8184 afbe 658c 453d
000002f0: 7516 163d 871a a1be c14d d93d 9485 58be
00000300: a68d cf3c 79dd 65be 4e03 5dbd e08a f8bb
00000310: ea5b 42be e24d 9bbe bc0f 47be 1f37 76be
00000320: 6c6c f4bd a394 a8bd f97e aa3b 7977 53bd
00000330: a348 4bbe a5ee 3abc a770 2cbd 3137 13be
00000340: f222 42bc 5673 bc3c 1e7c aabe 03d3 febd
00000350: d222 41be 9287 74be 2286 2fbd fa3c c2bd
00000360: 8caa 3ebe 7b0c c4bd c43e 78be 43c8 0ebe
00000370: e894 d3bd ea30 62be 4cb5 433d d2dc 5bbe
00000380: e2e0 f03c 136c d0bd 3535 3fbe 1b44 52bd
00000390: 4e4b f5bd 703b 32bc 5703 753c 6cf3 f6bd
000003a0: a905 3cbd 5770 843d 7147 a4bd 809d d63b
000003b0: 0def 26bd 5de3 9cbd 436e e5bd 0d81 0bbe
000003c0: e6c4 95bc 5823 36bd 52c8 65be d6f6 823d
000003d0: 495e a83d a382 1fbe d49d fdba 3755 d63d
000003e0: a841 9d3c f8ce 10be 5b6e 46be 513d 953e
000003f0: 29d0 5cbe e196 9cbd 2425 93be 3ff1 93be
-0.05950588 -0.11875591 -0.032373548 -0.25372308 -0.14238359 0.004883334 -0.098210104 -0.011473861
-0.15086761 -0.04496229 -0.21313655 -0.23076676 -0.03871134 -0.008858118 -0.007144084 -0.1239802
-0.21577053 0.029724602 -0.20986056 -0.15390112 0.0042680968 -0.21449162 -0.048734847 -0.06693602
-0.086101495 -0.05735511 -0.15922393 -0.008974349 -0.19937193 -0.1505571 -0.24750437 -0.24979037
-0.31171054 -0.19667034 -0.18843186 -0.35222423 -0.45152625 -0.12230682 -0.14020374 -0.42103064
-0.18621252 0.051464513 -0.19276443 -0.20788293 -0.14769146 -0.043290876 -0.18104328 -0.26564717
0.004088193 -0.100216374 0.012518628 -0.29442132 0.026223274 -0.30462962 0.05358076 -0.1114235
-0.34488255 -0.31466994 -0.20905466 -0.22047496 -0.113391586 -0.16494021 -0.1289678 -0.32672298
-0.11306029 0.0041039414 -0.12885202 -0.15867339 -0.20739485 0.069891326 -0.32960552 -0.3137501
-0.11062412 -0.30242202 -0.31352574 0.055031944 -0.10267374 -0.28333202 -0.09500375 -0.12864374
-0.22623481 -0.28454715 -0.18493044 0.16002384 0.004552126 -0.028538719 -0.1385788 -0.07648405
-0.17998226 -0.07209251 0.031754784 -0.055108104 -0.055313285 0.07202125 -0.21830569 -0.25627598
0.01974326 0.05093028 -0.07137829 -0.1717406 -0.06269398 -0.073296435 -0.10582207 -0.15826167
-0.05335886 -0.06051482 -0.15917605 0.004866809 -0.052230656 -0.137076 -0.016196918 -0.07613641
-0.24712561 -0.19697034 -0.1872041 -0.00031254586 -0.00804812 -0.039700754 0.049249433 -0.20218565
-0.052861337 -0.033738907 0.09666783 0.018569322 -0.0818783 -0.052910022 -0.15314955 -0.21418025
-0.23368542 -0.25714403 -0.18914372 -0.0753067 0.058784094 -0.39085832 -0.29417658 0.01955946
-0.054347586 -0.080689594 -0.08934407 0.10606953 -0.16191135 -0.1779013 -0.15068781 -0.2694988
-0.09643159 -0.035999186 -0.04392582 -0.097761236 0.05532994 -0.23027012 -0.15888985 -0.15474992
-0.085519046 0.25498545 -0.4005023 -0.43007052 -0.18454637 -0.17354491 -0.3750687 0.030707283
-0.15223007 -0.050623726 -0.0050605047 0.087717876 -0.24287684 -0.41528174 -0.2027732 -0.038396038
-0.24254218 -0.306178 -0.08641796 -0.08041204 -0.31403652 -0.15496527 0.025411073 -0.0648214
-0.37023884 0.023251748 0.037434045 -0.1161734 -0.023122286 0.1432678 -0.29199386 0.026557617
-0.083058216 -0.09766617 -0.3428078 0.048229594 0.03664251 -0.3146555 0.106105335 -0.21144706
0.025336098 -0.22447766 -0.05395823 -0.0075849146 -0.18980375 -0.30332857 -0.19439596 -0.24044465
-0.11934742 -0.08231475 0.0052031246 -0.05162761 -0.19851927 -0.011409436 -0.04209962 -0.14376523
-0.011849152 0.023004215 -0.3329782 -0.12442591 -0.18860939 -0.23879841 -0.04285253 -0.094842866
-0.18619746 -0.09572693 -0.24242693 -0.13943581 -0.10331136 -0.22088972 0.04778032 -0.21470955
0.029404107 -0.101768635 -0.1867264 -0.05133448 -0.11977254 -0.010878429 0.01495441 -0.12058148
-0.045903835 0.064667396 -0.08021439 0.006549537 -0.04075532 -0.076605536 -0.112026714 -0.13623448
-0.018282365 -0.0444673 -0.22439697 0.063947365 0.082211085 -0.15577178 -0.0019349405 0.10465472
0.019196346 -0.14141452 -0.19378035 0.29148343 -0.21563782 -0.07645965 -0.28739274 -0.28894994

layers.1.bias f4 [2]
00000000: 3559 ab3c 6e58 abbc
0.02091656 -0.02091619

layers.1.fc_pool.weight f4 [124, 124]
00000000: 1b4e 103e 9821 b9be 97c2 5abe 060f 85be
00000010: b7a9 a83d a027 f0be 86dc 1bbe 5adb 04bf
00000020: 1a62 d7bd 0a2a 363d 73ba 813d c45b 3b3e
00000030: 32a6 3c3b 255a 533c eca4 2b3e d6f3 ba3e
00000040: 9330 55bd 6572 803c a37a 2ebd 607b 3abe
00000050: a70b 233e fab2 a6be 43ed 25be a9c5 5e3d
00000060: 6e83 513e d439 183e 2773 7a3e 57fd 193f
00000070: 0dd5 47bd df1e 333e cb7d 3ebe c3cf 913d
00000080: 785f 05be 33e1 83bd f48f 29bc 2387 433e
00000090: 9891 3d3e f5a3 9fbe 7117 d6bd 69c4 b2bd
000000a0: 2e51 aa3d a3ff 57be f880 1a3d fa67 a53e
000000b0: af6b 9e3d 3eb4 43bd 768f 363e 4477 713e
000000c0: 0694 203e 9124 e03e 13e8 e03d 5b30 94bd
000000d0: e771 3dbe e82b 1dbe e2f3 acbe e653 65be
000000e0: fa5e 4f3e a5a9 ecbd b67c 36bc 0117 7bbe
000000f0: 370c 873d 88b9 96be 7ba4 94be 5bae 153e
00000100: b4b4 0fbc 4dd2 95be cbd5 d6be 8d3a c8be
00000110: 71a6 c5bd 11d7 eebe 28ee 013d 374c cf3b
00000120: 6239 f3bd 3e90 043e 798f 40bd cd40 113e
00000130: 11f4 373e 65e0 5b3e 5557 233c a041 89bd
00000140: 7c3b 65be 8d93 16be 89cd 093d b8b5 94bd
00000150: 90bd a5bd 5363 f33c 207f e1bc 20d7 28be
00000160: 0f97 9b3d ed90 6abe 7ec8 093e 0003 bc3c
00000170: 85ab f33c 3e65 0fbe 42d3 fcbd 2760 8cbe
00000180: 03c3 c8be 29b3 4cbd ba41 5dbe fe97 98bd
00000190: c04a 07bb f4f3 5ebe 69bc 6f3d b5ff 37be
000001a0: 40a3 f2bd 4aa8 fc3d daee 183d bd0f 523d
000001b0: 7cb3 583e f85e 0abf 8f40 d53e cac3 4abe
000001c0: 5ffa d3bd 15b2 bf3c 9ed6 07be c669 51bb
000001d0: e4e8 0cbe cdf6 02bd 160b 88be 02f8 7ebd
000001e0: 859b 6ebe 5890 9e3e 0ff5 f0bd c34c 92bd
000001f0: e3a2 9e3d e9d6 e13e ff8f 25be 93cf 59bd
00000200: f0bf 8dbe 9926 cbbd d679 b1bd fe9c aa3d
00000210: 8ef5 6bbe 0386 cebe 13c7 46be 39e5 a43e
00000220: 698f 3f3e 09f1 8bbe 5576 87be fe65 66bd
00000230: 7273 11bc 5255 76be ec1e 0a3e 8d47 ed3d
00000240: b768 30bd d229 96bd 2788 f1bc 1aed adbe
00000250: 9f7d 673e 1d0b d0be e386 abbd 335e 21be
00000260: 8710 0e3d 0e85 893e 0682 07be bd69 c33c
00000270: 8690 3c3e a027 03bc 3ae2 fe3d 91dc 8dbb
00000280: 3650 183e e200 923e 625c 7c3e 5dd7 3fbe
00000290: 1417 aebe 0312 2f3e be87 22be 1d40 503e
000002a0: 0a29 fb3d a2cf b1bb f472 79be 99b6 61be
000002b0: 3141 963c 8127 ecbd 6cc1 07be 342d 87bd
000002c0: 16a0 543d e161 8c3e 3c50 9c3e 42dd 233e
000002d0: 4557 abbe a2b7 e3be 321a 8bbd f4ee d53c
000002e0: 32f0 243e cf83 5bbc 8129 b73e a855 64be
000002f0: f8bf 553e f9bc 27be c10a 983e 41a6 f1be
00000300: 4944 a6be ce9e a9bd a6e9 363d 4229 1abd
00000310: fa87 dcbd 5783 8fbc 1f64 593d 4b8b 513d
00000320: 7e67 8b3e 09dc de3c 64c1 b63d 5d76 593d
00000330: fec6 a13d 7ad3 11be 00cf dfbe 0ae7 873e
00000340: 7e4c 5abe 31b9 0c3e 749f bfbe 0532 5e3c
00000350: 695e debe 1aa1 993c c9a2 d9bd d123 3a3e
00000360: a891 d13c 47a9 003e 9676 a7bc ae53 51bc
00000370: b0b5 8dbe 017d 2ebe cf9c 84be d1d2 923d
00000380: 0ba1 17bd 8809 5a3e e009 29be f39a 733b
00000390: c8f9 c63d a8fd a1bc ba1e 743d de51 b2be
000003a0: fa10 043e ec22 e7be 0df2 0c3f e4aa 56be
000003b0: 50b0 42be 3be5 f6bc 3f76 00be 7570 35be
000003c0: 3969 4e3e a190 7f3e cb2f cdbe 6b78 38be
000003d0: 8e63 603d 8052 893d 19ef 25bd 4a2b f43d
000003e0: 4dca 833e ec7b c4be 3dab e6be 263d 12be
000003f0: e2e8 11bf edaf f3be 34a6 4c3e c113 1bbf
0.14092295 -0.36158442 -0.21363293 -0.25988024 0.082354955 -0.4690523 -0.15220842 -0.51897204
-0.10516758 0.044473685 0.063343905 0.18296725 0.0028785584 0.01289991 0.16762131 0.36514157
-0.052048277 0.015679548 -0.042597424 -0.18211126 0.15922414 -0.32558423 -0.1620379 0.054387722
0.20460293 0.1486581 0.2445799 0.6015219 -0.048787165 0.17492245 -0.18602674 0.071197055
-0.130247 -0.06439438 -0.0103492625 0.1909452 0.18512571 -0.31179777 -0.1045369 -0.087288685
0.08316265 -0.21093611 0.03772065 0.3230589 0.07735383 -0.047779314 0.17828164 0.23580652
0.15681466 0.43777898 0.10981765 -0.072357856 -0.18500482 -0.1534878 -0.33779818 -0.22395286
0.20251074 -0.115557946 -0.011138132 -0.24520494 0.06594127 -0.29438424 -0.2903174 0.14617293
-0.00877111 -0.2926201 -0.41959986 -0.3910717 -0.09650887 -0.46648458 0.031721264 0.006326224
-0.11876179 0.12945649 -0.047011826 0.14184876 0.17964198 0.21472318 0.009969552 -0.0670197
-0.22385973 -0.14704724 0.03364328 -0.072612226 -0.08092797 0.029710447 -0.027526438 -0.16488314
0.075971715 -0.22906847 0.13455388 0.02295065 0.029744873 -0.14003465 -0.12344982 -0.27417108
-0.39211282 -0.049975548 -0.21607104 -0.07450865 -0.002064392 -0.21772748 0.05852929 -0.17968638
-0.11847544 0.12336786 0.03733716 0.05128454 0.21162218 -0.5405116 0.41650817 -0.1980125
-0.10350489 0.023400346 -0.13265464 -0.0031953915 -0.13760716 -0.03197365 -0.26570958 -0.062248237
-0.23301513 0.309695 -0.11765491 -0.071435474 0.07745912 0.44109276 -0.16168211 -0.053176474
-0.276855 -0.09919471 -0.086658165 0.08330725 -0.2304289 -0.40336618 -0.19411878 0.32206133
0.1870705 -0.27332333 -0.26457468 -0.05624961 -0.008877622 -0.24055985 0.13488358 0.11585913
-0.043068614 -0.07332195 -0.029483868 -0.33969957 0.22606514 -0.4063348 -0.08375337 -0.1575859
0.03468373 0.26859325 -0.13233194 0.02385413 0.18414506 -0.008005053 0.12445493 -0.004329272
0.14874348 0.285163 0.24644616 -0.18734498 -0.34001982 0.17096715 -0.15872094 0.20336957
0.12263687 -0.005426363 -0.24360257 -0.22042312 0.018341633 -0.11530972 -0.13257378 -0.06600419
0.051910482 0.27418426 0.30529964 0.16002372 -0.3346502 -0.44476038 -0.06792106 0.026114918
0.16107252 -0.013398125 0.35773852 -0.222983 0.20874012 -0.16380681 0.29695705 -0.47197154
-0.32473972 -0.08282243 0.04465642 -0.037637003 -0.10768123 -0.017518682 0.053074 0.05115823
0.27227396 0.02720453 0.08923605 0.053091396 0.07899283 -0.14240828 -0.43712616 0.26543456
-0.21318242 0.1374252 -0.3742634 0.01356173 -0.43431404 0.018753577 -0.10626752 0.18177725
0.02558215 0.12564574 -0.020442288 -0.012776298 -0.2767768 -0.17039873 -0.25900885 0.07169116
-0.037018817 0.21292698 -0.16507673 0.0037171214 0.09715611 -0.019774273 0.059599616 -0.34828085
0.12897101 -0.4514383 0.5505684 -0.20963627 -0.1901257 -0.030138602 -0.12545107 -0.1771868
0.20157327 0.24957515 -0.40075526 -0.18014686 0.054782443 0.06705189 -0.040511224 0.11922319
0.2574028 -0.38375795 -0.4505252 -0.14281139 -0.56995976 -0.47595158 0.19985276 -0.6057702

layers.1.fc_pool.bias f4 [124]
00000000: f3d9 81be 2c09 90be 53d5 f9bc 7b08 8bbe
00000010: 77ed f6bd 803f 32be a806 36be 33b8 90be
00000020: 61de 78be 34c8 0abe 65ca 9cbe bdbc 12be
00000030: 2d15 48be 0dea a5be 7cab c2be de9a 7fbe
00000040: 6a62 80be b21f 92be 7e43 89be 7406 a6be
00000050: d33f 64be 3848 9bbe f4c3 a0be d9d4 d0bd
00000060: bdc7 2bbe b3eb 82be a3c0 8ebe 73e0 10be
00000070: 6fe1 5fbe dbfd aebe aba5 94be b956 a1be
00000080: 7b81 31be 6a93 63be acef 6dbe 2f13 99be
00000090: bd2a 2abe 03b1 8dbe a40a 2fbe 3281 5bbe
000000a0: 8cdd 86be d55b 32be 4823 a3be ce75 54be
000000b0: ea44 50be 7f2a 57bd 7932 b7be 9b6e 86be
000000c0: cc5c 8fbe 29ab 8dbe aa2f 86be 1523 89be
000000d0: a78a 8dbd 9257 a7be 1d95 f0bd 22c6 98be
000000e0: d9ef 69be 90a9 70be f7ad 4dbe 6c76 51be
000000f0: d785 5cbe a191 83be 4521 84be a9ce 0abe
00000100: bbe3 23bd 0a67 78be 3dab 98be 1951 9cbe
00000110: d213 8bbe 775e 94be 3e89 bcbe 5a67 a6be
00000120: de2e 41bd 9b65 b0be 8488 02be f74f cebe
00000130: 83b7 e2bd 0662 b0be 42d4 00be 7241 eebd
00000140: 22d4 c0bd 10a5 aebe 6d68 f3bd 0287 6bbe
00000150: 35ac cdbd 18e6 52be e833 7ebe e28b 25be
00000160: ec99 96be 70e1 5fbe 3d4e 8bbe 81a2 adbe
00000170: 1476 a8be cf1c 18bd 8818 94be ac7f 11be
00000180: 1a7d 3cbe bcbb 93be 4ee5 96be a04d 8cbd
00000190: a480 a3be 716a 9ebe 662c 9bbe b449 3dbe
000001a0: aa2c 9bbd 5698 7bbe 17f0 5cbe c2d6 84be
000001b0: ed69 b8be 6286 2abe 5e34 2cbe e3cd 8abe
000001c0: ae33 23be da47 34be c038 3abe e6c4 19be
000001d0: dcf0 4ebe c9bf 74be 3eaa 2abe a127 64be
000001e0: a0fe b0be 810a 6dbe 8310 5abe 6984 18be
-0.25361595 -0.28131998 -0.030497229 -0.27154908 -0.120570116 -0.17407036 -0.17775977 -0.28265533
-0.24303581 -0.13552934 -0.30623165 -0.1432981 -0.19539328 -0.3240513 -0.38021457 -0.24961421
-0.25075084 -0.28539807 -0.26809305 -0.32426798 -0.22289972 -0.30328536 -0.313995 -0.101968475
-0.16775413 -0.2557045 -0.27881345 -0.1414812 -0.2186334 -0.3417805 -0.29032645 -0.31511477
-0.17334549 -0.22224203 -0.23235959 -0.29897448 -0.16617866 -0.27674112 -0.17093903 -0.21436003
-0.26340902 -0.17417844 -0.31862855 -0.20748064 -0.20338789 -0.05253076 -0.35780695 -0.2625626
-0.28000486 -0.27669647 -0.2620824 -0.26784578 -0.069112115 -0.32683998 -0.11747191 -0.29838663
-0.22845401 -0.23502183 -0.20085894 -0.2045533 -0.21535431 -0.25697044 -0.25806633 -0.13555397
-0.040012103 -0.24258056 -0.29818144 -0.30530623 -0.2716356 -0.2897832 -0.36823457 -0.32500726
-0.047163837 -0.3445252 -0.12747389 -0.40295383 -0.11070158 -0.34449786 -0.1258097 -0.116335765
-0.09415461 -0.34110308 -0.11885152 -0.2300072 -0.100426115 -0.20595586 -0.24824488 -0.16166642
-0.29414308 -0.21863341 -0.2720813 -0.33913043 -0.32902586 -0.03713685 -0.28924966 -0.14208859
-0.18407097 -0.28854167 -0.2947182 -0.06850743 -0.31934083 -0.30940583 -0.3030731 -0.18485147
-0.07576878 -0.2456983 -0.21575962 -0.25945097 -0.36018315 -0.16652825 -0.16816851 -0.27110204
-0.15937683 -0.17605534 -0.18185711 -0.15016517 -0.20209068 -0.23901285 -0.16666505 -0.22280742
-0.34569263 -0.23148538 -0.21295361 -0.1489426

layers.1.fc_self.weight f4 [2, 124]
00000000: 5c85 d43f 862e 76bf e7e9 e93f e5a2 513f
00000010: 3b70 3a40 097c 26c0 6a9a 9f3f 2036 7bbf
00000020: d48a 8dbf cbab 1440 6bfe cebf 8f49 1c40
00000030: 8828 ad3f 3bf9 dcbe f525 ecbf 2838 d5be
00000040: 7eb8 afbf 0fbd 5f3f b769 0f40 39c9 9fbf
00000050: 38de c7bf 5a0a fdbf bdd3 7b3f 462f dabf
00000060: 9a3a cebf 556e 683f e19c 1ec0 98dd 1040
00000070: 93b1 babf 361a ef3f bcdb f73f 458f 3e40
00000080: 714a acbf d438 e5bf 5c54 fe3f 06c8 2ec0
00000090: d548 723d d068 d03f 9c8e 433f b0eb f3bf
000000a0: 398e d43f 2aac 2a40 075e ea3f 006f 2540
000000b0: 27e8 94bf a7e0 b7bf f9b4 26c0 b244 2540
000000c0: c871 2740 0a81 4fbf 879b 1740 f347 2840
000000d0: 5666 6b3f cbea 7bbf c427 96bf e30f cabf
000000e0: d62c f8bf 3e56 a03f fa9b 12c0 2b28 be3f
000000f0: 1cae ff3f 98b7 3840 bdcc 02c0 9b21 aebf
00000100: fa25 833f d76f 053f 9655 8540 3396 9c3f
00000110: 39df 483f d67f 893f c269 4240 9888 fe3e
00000120: 8943 d83f 5de7 b1bf 1626 f3bf e003 02bf
00000130: 4ce3 4a40 377e bc3f af82 e7bf a51d e2bf
00000140: d731 0f40 dd63 2a3f a375 c93f daeb 4f40
00000150: 3923 883f 10e7 45c0 f433 383f 2d3b b33f
00000160: f0eb 6cbf 7657 2240 acde 69c0 d88e 6fbf
00000170: bda5 993f 6532 33bf f242 473f 3c57 c93f
00000180: 4ecb d7bf e0eb bc3f 6468 803f eeb9 82bf
00000190: 5161 f8bf e4c9 173f dc46 703f 3e04 1e3f
000001a0: 517b 8a3f 6ab2 973f d106 97bf 9d01 3d3f
000001b0: bd9a cf3f 795f 1a3f 0486 19c0 3f22 453f
000001c0: c7cb fe3f 5cef 2040 3b3c e9bf b83f f83e
000001d0: 8bc3 f4be 41da a13f 7488 523f 659f 2140
000001e0: c7cc 6c3f 1b26 c1bf eab3 5fbf 1cfb 1ac0
000001f0: 5732 e3bf 524b 933f ac6e e7bf cc41 92bf
00000200: b537 3dc0 3c94 2440 ee3f b1bf 3799 9c3f
00000210: 67b9 883f b35f 02c0 3bda b83f e2ab 1ec0
00000220: c06c 86bf e926 193f ad5c d53f 6d45 163f
00000230: 8d2d af3f b7ff e5be 5211 07c0 36be aa3f
00000240: 6a41 0140 c365 0240 d67c a8bf b648 d13f
00000250: d1af ce3f 9e40 9bbf 6b73 3340 3305 f5bf
00000260: 20b2 eb3f b128 f2bf 0b14 c2bf a775 30c0
00000270: 8211 c13f bb40 fe3f 051d 0bc0 ca7d 3040
00000280: 8007 9b3b 3ef2 f1bf 3b2f 88bf 74d5 d83f
00000290: d1a4 dcbf 9e12 16c0 42b9 15c0 7a4b 25c0
000002a0: 9920 1e3f b3a6 c93f 6b3d 1b40 1bc7 31c0
000002b0: 7a22 1ec0 828b 923f fe10 fdbf 910d 1fc0
000002c0: 9f22 62bf be00 643f d2b4 5f3f 7ef6 b13f
000002d0: 0890 e13f 9c9c 6cbf 4b9f fb3f 7c0b 92bf
000002e0: 7e2b d3bf 1c92 45c0 2f1b 2540 b46b b63f
000002f0: 67bf 88bf 9904 75bf d59f 86c0 1b6c 67bf
00000300: 899b 0cbf 73d4 b2bf 6be0 35c0 f854 c9be
00000310: 103d a1bf 73cd a73f 4703 d93f 0e47 653f
00000320: 0ab3 5ec0 17c4 e8bf 8cd1 e23f 9086 bb3f
00000330: 0587 0fc0 7179 41bf cbe2 c1bf e625 55c0
00000340: bae8 8dbf 6e68 4040 825d 98bf 717c c8bf
00000350: 195f 873f 6549 20c0 f566 5440 57da 843f
00000360: f4a6 7cbf f0bd 5f3f dc3d 4fbf 1443 cabf
00000370: e083 e23f 46b3 b6bf 963a b8bf 5365 563f
00000380: a389 0440 db7c 24bf 3c7d 9bbf b6ab 8ebf
00000390: 8dd5 98bf 5d98 cabf c6ea 7a3f c4df 96bf
000003a0: 5856 a9bf e1a0 23bf 0bf0 1440 5c1c 6ebf
000003b0: ad72 c4bf 6a05 16c0 36e1 db3f 7914 1cbe
000003c0: 9aac d93e 89f5 a9bf a718 debe fac6 08c0
000003d0: ee5f 2fbf ab31 903f 90ee 363f d24b 1340
1.6603198 -0.9616474 1.8274506 0.8188918 2.9131 -2.6013205 1.2468998 -0.98129463
-1.1057992 2.3229854 -1.6171392 2.4419897 1.3527994 -0.43158898 -1.8449084 -0.41644406
-1.3728178 0.87397856 2.2408273 -1.2483283 -1.5614691 -1.9768784 0.9836996 -1.7045677
-1.6111634 0.90793353 -2.4783251 2.263525 -1.4585441 1.8679874 1.9363933 2.9774945
-1.3460218 -1.7907968 1.9869494 -2.7309585 0.05915149 1.6281986 0.7638948 -1.9056301
1.6605903 2.666758 1.8309945 2.5849 -1.1633347 -1.4365433 -2.6047957 2.5823178
2.6163197 -0.81056273 2.3688676 2.6293914 0.9195303 -0.9840514 -1.1730886 -1.5786098
-1.9388683 1.2526319 -2.29077 1.4856008 1.9975009 2.8862057 -2.0437462 -1.3604006
1.0245965 0.5212378 4.1666975 1.2233337 0.7846561 1.0742137 3.037705 0.49713588
1.689561 -1.3898731 -1.8995998 -0.5078716 3.170123 1.4726018 -1.8086756 -1.7665297
2.237417 0.6655863 1.5739025 3.2487702 1.0635749 -3.092228 0.71954274 1.4002434
-0.9254751 2.5365882 -3.6542158 -0.9357734 1.2003704 -0.6999877 0.77836525 1.5729747
-1.6858919 1.4759483 1.0031857 -1.0212991 -1.9404699 0.59292436 0.9385812 0.61725223
1.0818883 1.1851323 -1.1798955 0.73830587 1.6219097 0.6030193 -2.3988047 0.7700538
1.9905938 2.5146093 -1.8221506 0.48486114 -0.47805437 1.2644731 0.8223946 2.5253537
0.92499965 -1.5089754 -0.873839 -2.4215765 -1.7749738 1.1507361 -1.8080649 -1.142633
-2.956525 2.5715475 -1.3847635 1.2234257 1.068158 -2.037091 1.4441599 -2.479241
-1.0501938 0.59825 1.6668907 0.58699685 1.3685776 -0.44921657 -2.1104321 1.3339298
2.0196176 2.037461 -1.3163097 1.6350315 1.6147405 -1.2129095 2.8039196 -1.9142212
1.8413734 -1.8918668 -1.5162367 -2.757181 1.5083468 1.9863504 -2.1736462 2.7576776
0.0047311187 -1.8902051 -1.0639414 1.6940141 -1.7237798 -2.3448863 -2.3394322 -2.5827317
0.6176849 1.5753998 2.4256237 -2.7777774 -2.4708543 1.1448824 -1.9770811 -2.485203
-0.8833408 0.8906363 0.87385285 1.3903348 1.762208 -0.92426467 1.9657987 -1.1409755
-1.6497648 -3.0870428 2.5797842 1.4251618 -1.0683411 -0.9571014 -4.2070107 -0.9039933
-0.5492483 -1.3971084 -2.8418224 -0.3932264 -1.259676 1.3109573 1.6954125 0.89561546
-3.4796777 -1.8184842 1.7720199 1.465044 -2.242616 -0.7557593 -1.5147337 -3.3304381
-1.1086648 3.006374 -1.1903536 -1.5662977 1.0575897 -2.5044796 3.318784 1.0379132
-0.9869225 0.87399197 -0.80953765 -1.5801721 1.7696495 -1.427346 -1.4392879 0.8374836
2.0709007 -0.64253014 -1.2147593 -1.1146152 -1.194017 -1.5827748 0.98014486 -1.1787038
-1.3229475 -0.63917357 2.327151 -0.9301202 -1.5347496 -2.3440804 1.7178104 -0.15242185
0.42514497 -1.3278056 -0.43378183 -2.1371446 -0.6850575 1.1265157 0.7145777 2.3015027

layers.1.fc_neigh.weight f4 [2, 124]
00000000: 60e1 22be 35d2 ff3c 24b2 adbe d8ce 29be
00000010: 2521 b6bd 85bb 22be db5a 41be ae2a 4c3e
00000020: d85c c4bc e7fb b9be fb55 6d3e 9976 96bd
00000030: ade7 78be 8b02 31be 34c8 c2bd 1896 31be
00000040: 1273 18be 1a18 8d3e 2266 76be b1f7 823e
00000050: c3e0 91bd 2455 3d3d d154 9bbd 31ce 33be
00000060: 02e9 673d ce13 14be ac8e 463d 0677 01be
00000070: c761 cd3d 3701 bb3e 3af6 b13e 9edb b33a
00000080: fe35 253e 688c 0e3c 5955 c1bd 0b20 703e
00000090: 99bf c5bd 61c3 43be ff00 5f3d dc87 9bbd
000000a0: fa9a 313d 6548 e23d 7c28 aebd 0f4a ce3d
000000b0: 6d3a 3bbe 4d3b 433c 35d0 63bd 322a d33d
000000c0: e43c a43c 80de 12bd 5536 eabd 9129 89be
000000d0: 03eb a03c 61c2 c63d 6aa9 a83b 3b38 853c
000000e0: 3a16 f6bd 8763 323d 1b47 c9bc 09e2 393e
000000f0: 5a73 243d 3629 b9bd bf35 6e3d 9f08 97be
00000100: 9d4d 90be 2bdc cfbd 6516 82be efeb 9dbc
00000110: a510 3f3e 7458 babd 952b 37bd 2aa8 42be
00000120: 2baa a2be abf0 9dbc ae38 d8bc 2be0 1f3e
00000130: e224 8dbe f0e2 0f3c fba3 b23d 8bb1 69bd
00000140: 030d a03d 5211 823e 1cba 363e 530f 26be
00000150: d8b3 0ebe 5dda 203b 9823 fa3d d6fd 2dbe
00000160: 69e6 71be 8e0a 203e 6168 87be 2b72 a5bd
00000170: 46a3 253d f07e 72bd 35d7 92be 900c 003d
00000180: 052f bebd 5b80 273d 2982 13be ad44 ffbd
00000190: 4765 14ba 4041 233d f1d8 413e f703 a03e
000001a0: 0b3e 41be ffda 7fbd 8977 2b3e dfae 9ebd
000001b0: 2ccd 74bd 9609 82be 5dbc c73c a5ec d8bd
000001c0: ec0e 2f3e 3b77 c7bd f113 283e 3a67 1cbd
000001d0: 022d 4b3e 81fc 1ebe 238e 4abe 39ac c4bd
000001e0: 7c5f 5ebd 2db0 013e 595b 913e dfe2 cdbd
000001f0: 22d9 82be d74b 16be 761b d7bd dd38 5abe
00000200: 019b f03d 3d4c 0abe 2c2c ee3d 522f 4e3e
00000210: 20b3 533c 9694 07be a2b9 813e 2ceb 23be
00000220: a2d3 1cbe f69f b9be 8ac0 adbc 1588 6a3e
00000230: 69b2 21be 99cf 823e 6d2e 90be cfcb 653e
00000240: 0ec7 83be d4a8 7d3b 14e7 acbd 49b0 d0bd
00000250: e916 8e3e f50f 17bd 15e4 43bd f5f1 18bd
00000260: 3ebd 1bbe a220 edbc 84a0 1b3e 06f3 8abc
00000270: 7d17 d93d c49a 4b3e 72f5 86bd 48a0 433e
00000280: f1e4 ccbc d2f4 4cbe f5a9 9b3d 4b98 7b3d
00000290: da6b 363d 5e3a 153e e503 30be 75d9 99bc
000002a0: f19e 3fbe 3760 0dbd 5ad3 f6bc 8916 2c3e
000002b0: 422b 803d 52dc 0dbd d041 08be c426 98be
000002c0: e1e7 17bd a06b e73d 1954 353e ee62 8cba
000002d0: 9a4c 2e3e a8d0 233d 8b42 66be 3671 9ebd
000002e0: f0f0 bf3c 646d 8fbd 573e d13c 3877 68bd
000002f0: 649e afbd c5f1 8cbd fae1 9bbe 6f27 27be
00000300: b43e 0a3e 9e2a d1bd 5d98 e2bd 32b2 74be
00000310: d8ad 793b c374 183d 1523 d73d 1290 e23d
00000320: 5a89 bebd 2a99 c73b 2a90 253d 3b1e 84bd
00000330: a863 e63e e3cc 273e 7fde f93c 2a00 02be
00000340: a97a 4b3d d1d8 e6bd c7a8 f53d 53df f73d
00000350: 7b93 4fbe e037 503e 873b 0cbe 156d 87bd
00000360: bc8c 48bd 28a4 923e 00da 55bd 7c84 47bd
00000370: bc11 cdbe ba20 af3c c60c 23be 4029 48bc
00000380: 5a57 1a3b b56c 263d 7963 7fbd 21c7 c23d
00000390: d767 e2bd 4159 92be e632 263e 5e74 273d
000003a0: 8968 39be a051 323e 8820 8d3d 843c b4bd
000003b0: ca3f aa3e c4d4 b4be 7270 4e3e 83bf a6bd
000003c0: 9210 cbbc 027b f4bd 7710 6fbe b0ac 4cbe
000003d0: d3a7 74bd 7fc3 123e ef35 df3d 021c e03d
-0.15906286 0.031228164 -0.33924973 -0.16582811 -0.088930406 -0.15891846 -0.18882315 0.19938156
-0.023970053 -0.36325 0.2317733 -0.073468395 -0.24307127 -0.17286126 -0.09510842 -0.17342412
-0.14887646 0.2755745 -0.24062398 0.255796 -0.07122948 0.046223775 -0.07584537 -0.17559125
0.056618698 -0.1446068 0.048475906 -0.1264306 0.10028415 0.36524364 0.34758168 0.0013722067
0.16133878 0.008700468 -0.09440107 0.23449723 -0.09655685 -0.191175 0.05444431 -0.075942725
0.043360688 0.110489644 -0.085038155 0.10072719 -0.18284006 0.011915994 -0.055618484 0.103107825
0.020048566 -0.035856724 -0.11436144 -0.26789525 0.019643312 0.097050436 0.005147149 0.016262164
-0.12015958 0.043551948 -0.024570039 0.18152632 0.04014907 -0.090410635 0.058156725 -0.29498765
-0.28184214 -0.101494156 -0.2540771 -0.019277541 0.18658693 -0.09098902 -0.044719297 -0.19009462
-0.31770453 -0.019279798 -0.026394214 0.15612857 -0.27567202 0.008782133 0.08722683 -0.057054084
0.07814982 0.2540384 0.17844433 -0.16216783 -0.13935792 0.0024544217 0.1221382 -0.16991362
-0.23623051 0.15629026 -0.26446822 -0.080784164 0.040438913 -0.05920309 -0.28679815 0.03126198
-0.09286312 0.040893894 -0.14405121 -0.12464271 -0.00056608435 0.03985715 0.18930413 0.31253025
-0.18871324 -0.06246471 0.16744818 -0.07748198 -0.05976598 -0.25397938 0.02438181 -0.10592011
0.17095536 -0.09739538 0.16413857 -0.038184382 0.19841388 -0.1552601 -0.19780783 -0.09603161
-0.05429028 0.12664862 0.28390005 -0.10053038 -0.25556284 -0.14677368 -0.10503285 -0.21310754
0.11748315 -0.13505645 0.11629519 0.20135239 0.012921125 -0.13240275 0.2533694 -0.1600768
-0.15315107 -0.36254853 -0.021209974 0.22903474 -0.15790714 0.2554901 -0.2816042 0.22441028
-0.25737804 0.0038705366 -0.08442512 -0.10189874 0.27751854 -0.036880452 -0.047824938 -0.037340123
-0.15208909 -0.028946225 0.1519795 -0.016961586 0.10600183 0.19883257 -0.06589784 0.19104111
-0.025011512 -0.20015267 0.07600776 0.061424535 0.04453645 0.14573047 -0.17188986 -0.01878045
-0.18712975 -0.034515586 -0.030130077 0.16805471 0.06258251 -0.034633942 -0.13306355 -0.29717076
-0.03708637 0.11299825 0.17707862 -0.0010710636 0.17021409 0.039993912 -0.22486322 -0.07736437
0.023430318 -0.070032865 0.025542421 -0.05675432 -0.085751325 -0.068820514 -0.30445844 -0.16323636
0.13500482 -0.10213207 -0.11064217 -0.23896101 0.0038098004 0.037220728 0.10504738 0.110626355
-0.093035415 0.0060912566 0.04042069 -0.064510785 0.44997907 0.16386752 0.030501602 -0.12695375
0.049677525 -0.11271823 0.11995082 0.121031426 -0.20271103 0.20333815 -0.13694583 -0.066126026
-0.04896234 0.28640866 -0.052209854 -0.04871033 -0.40052593 0.02137791 -0.15922841 -0.012216866
0.00235506 0.040631015 -0.062350724 0.09510637 -0.11054962 -0.2858372 0.16230354 0.04088246
-0.18106283 0.1741395 0.068909705 -0.08800605 0.33251792 -0.35318577 0.20160082 -0.08141997
-0.024788175 -0.119375244 -0.23346125 -0.1998775 -0.059730362 0.14332388 0.10898959 0.10942842
