bank/model.pt (torch, 86547 bytes, 10 tensors)

layers.0.bias f4 [128]
00000000: 0f47 84bc 6bf1 1abc ff7a 013c fc1c 32bc
00000010: 1778 31bc ce07 4c3c 2253 053c 7f2f c33c
00000020: ffc5 433c aaf1 03ba 1188 65bc fbba 27bb
00000030: e755 1bbc cc6c 2ebc b0a5 5a3c e88f 81bc
00000040: affa 34bc f137 8abc a678 6bbc ed96 97bc
00000050: a285 ab3c a8bb bebb 4175 4ebc 7d88 8f3c
00000060: 2e64 89bc ac8c 88bc 173c f1bb a8f1 b13c
00000070: add1 ac3c de28 56bc 4f39 f5bc 4d75 d33c
00000080: add5 29bc 560a 973c 96c7 a93c 4032 a73c
00000090: 6d77 bdbb 01df a43c 2032 9f3c 039b 7cbc
000000a0: b3cc 913c cbdf 8bbc b3b5 a73c 18f2 7abc
000000b0: a17c 80bc 4f6e 81bc 5b4c 663d 0552 acbc
000000c0: d9f2 0d38 6e1c 603c ae2a c03c 203b 8c3c
000000d0: 9c59 90bc d1b2 63bc d7eb b13c f115 053d
000000e0: ed7c cb3c b9c0 6bbc 1906 973c 9138 89bc
000000f0: ef05 213d 77a8 c83c 5803 89bc d935 9d3c
00000100: a6a2 343c 298f 71bc db06 b43c cc04 913c
00000110: f613 8c3c c81a 003d b20a 5fbc 7c4e fcbc
00000120: 149a 133d 38d5 7d3c 8f06 b13c 1a97 89bc
00000130: 4355 563c a5cc c53a ecfd 913c 0f6d 2cbc
00000140: 7561 8bbc a555 42ba c771 9e3c 86d4 a43c
00000150: 5d4d 93bc 2cc3 f13c e273 2c3c db7a a43c
00000160: 5e16 2c3d 7a6c 963c d7b2 17bd 288b 963c
00000170: cc7f a53c 58b9 c73a 991e 263c c881 74bc
00000180: a865 5e3c 679b 48bc 32e5 af3c bd05 9f3c
00000190: 7f08 893c 04f1 5ebc d0e8 abbc bd35 1bbc
000001a0: ff0f 45bc 08c6 b73c e4af a63c e915 123c
000001b0: 6d5f b73c d9f9 263d 1e24 5bbc 32d8 ae3c
000001c0: 7795 903c 728d 35bc b90e 46bc 6698 46bc
000001d0: b8e2 dbbc 88aa 84bc 9922 ebba 1da7 d1bc
000001e0: fb40 0e3d e649 1a3c 1ff5 ba3b aa2b 93bc
000001f0: 00a5 49bb 5f21 ad3c 3790 8e3c f44f c63c
-0.016147165 -0.009456973 0.00790286 -0.010871168 -0.010831854 0.012453033 0.008137496 0.023826359
0.011949061 -0.0005033264 -0.014009492 -0.0025593627 -0.00948093 -0.010646056 0.013345167 -0.01581569
-0.011046096 -0.016872378 -0.014372027 -0.018504584 0.020937745 -0.00582071 -0.012601198 0.017521137
-0.016771402 -0.01666864 -0.0073618996 0.021721676 0.021096075 -0.013071267 -0.029934553 0.02581277
-0.010365886 0.018437546 0.020725053 0.020409703 -0.005782059 0.020125868 0.019433081 -0.015417817
0.017797804 -0.017074486 0.020472383 -0.015316509 -0.015684428 -0.01579967 0.056225162 -0.021035204
3.384319e-05 0.013678653 0.023457851 0.017118037 -0.017620854 -0.013897614 0.021718903 0.032491628
0.024839843 -0.01438921 0.018435525 -0.016750606 0.0393123 0.024494393 -0.016725227 0.019190716
0.011025107 -0.014743605 0.021975925 0.017702483 0.017099362 0.03127554 -0.01361339 -0.030799143
0.036035612 0.01549273 0.021609573 -0.016795684 0.013081851 0.0015090896 0.017821275 -0.0105240485
-0.017014245 -0.0007413275 0.019341363 0.02012087 -0.017981226 0.02951201 0.0105256755 0.020078113
0.04201352 0.018362273 -0.03703579 0.018376902 0.02020254 0.0015237732 0.010139131 -0.01492352
0.013574041 -0.012244082 0.021471594 0.019411916 0.016727684 -0.013607267 -0.020985037 -0.009473261
-0.01202774 0.022433296 0.020347543 0.008916357 0.02238437 0.040765617 -0.01337531 0.021343324
0.017649395 -0.0110810865 -0.012088471 -0.012121296 -0.026841506 -0.016194597 -0.0017939388 -0.025592381
0.03472994 0.009417033 0.0057054902 -0.017965157 -0.0030768514 0.021134077 0.017402751 0.024208046

layers.0.fc_pool.weight f4 [13, 13]
00000000: 35c3 d73e 5aa4 26be 0210 f2be d6a3 29bf
00000010: bcea fb3e f205 ab3e b298 bd3e 4704 183f
00000020: 8921 d1be f566 09be 9a1e e5be 1d0c 7f3e
00000030: 3426 3e3e 8d4c 0d3f 85ab 69be 61d1 d4be
00000040: 4e28 02bd 9171 893d b9c0 d0be 188c d0bd
00000050: 7e50 01bf c6fc debe f124 22bf 9aad 81be
00000060: 424d 363d d25e 5dbe e96b b03e beff bbbe
00000070: 22b1 5ebd 7848 b1be be4f 24bf 4ee5 f23e
00000080: 2b57 423e 62c1 ebbe 2ec6 1cbf 06e6 8dbe
00000090: 4913 b9be b97d b2be 0dff 24bf 2553 8dbd
000000a0: a76b 263f e38f 10bf 95b3 1abe 410b 2abf
000000b0: 0078 9b3e 5d14 083f 937b 83bd 768f 6cbe
000000c0: ca7c 1e3f 3c2c aa3e fdfa 27bf 208d e53e
000000d0: 4718 2c3e e7f9 eabe 31e7 a83e 4a63 973e
000000e0: 707d 19be 5fb3 a03e 8867 88be dcda 52bd
000000f0: 72a3 8e3e a8e1 813e 14a0 e33e c971 a63e
00000100: 106a c7be 56bc 01be b824 e9bd 2adc d4be
00000110: dc7e a53e 1f75 febe f88f 763e 731d 223e
00000120: 763e 91be 847a 3dbe 9140 ff3e 6d1a 193f
00000130: 210e 913e 4513 913e 9ba7 093f 83b2 0e3f
00000140: c4b0 06be 2cd3 edbe dd72 12bf 0a69 10bf
00000150: f632 7abe 258a 9cbd 0889 193f afe5 303f
00000160: 1db2 7abe 51fa 02bf 9e56 83bd 3e86 b13e
00000170: 0873 6b3e 7074 353e 3451 1abf 84c0 083f
00000180: e4c1 fcbe ce66 62be 70ae fe3e e44b e93e
00000190: e151 26bf d76b 903e c8a3 c73e 4169 03bf
000001a0: e289 a5be bf1c 0e3f 71dd cf3e f4fa 82be
000001b0: 4905 e63e cc94 003f 7bbd 20be dae5 b63b
000001c0: 6870 ee3e a9e5 143f b94c 9dbe ff20 7d3d
000001d0: 6d2c 29be 9fa9 0abf 2018 053d 1dc1 643e
000001e0: d3d5 9ebe 467b 1c3d 732c d33e 6ae9 cdbe
000001f0: 26ef b43e 68d6 b23d 5395 303f bf56 00bf
00000200: 3595 7b3e 13e3 22bf 3f46 09bd 0f30 09bf
00000210: 60b9 9a3e cfff dbbe fe8f 21bf d764 d1be
00000220: 9dfb b6bc 7906 9e3e 9b0e f73e e73f a8bc
00000230: 9f87 8ebe 85bf c5be 49db d1bd 4714 a43d
00000240: 9108 1c3f d188 9abe 498f 05bf aaea cfbd
00000250: 61a9 23bc 392d 2bbf 3c90 86be 2c59 16bf
00000260: 87a6 d3be 0248 173f 7064 e53e 9199 d93e
00000270: 58c3 f13c d8b3 21bf c473 053f e6a7 b2be
00000280: 3d6d 603e a998 6d3e 9f18 c2be ca3c e63e
00000290: ab36 a33e 1ea1 e23d 9d56 1ebf f2a2 23be
000002a0: 5544 273f
0.4214112 -0.16273633 -0.47277838 -0.6626562 0.49202526 0.33402973 0.3703056 0.59381527
-0.40845898 -0.13418181 -0.4474991 0.24906965 0.18569261 0.5519493 -0.22819336 -0.41565993
-0.03177672 0.06711114 -0.40772036 -0.10182971 -0.50513446 -0.43552226 -0.6333762 -0.2532776
0.044507273 -0.21618202 0.3445733 -0.36718553 -0.054368146 -0.34625602 -0.64184177 0.4744057
0.18978564 -0.46045977 -0.612399 -0.27714556 -0.36147526 -0.34861544 -0.64451677 -0.06900624
0.65008014 -0.56469554 -0.15107568 -0.6642342 0.3036499 0.5315607 -0.06420054 -0.23101601
0.61909163 0.33236873 -0.6561735 0.44834232 0.16806136 -0.45893785 0.32988885 0.2956794
-0.14989257 0.3138685 -0.26641488 -0.05147825 0.27859074 0.25367475 0.44458067 0.32508686
-0.38948107 -0.126695 -0.11383957 -0.41574222 0.3232335 -0.4969873 0.24078357 0.15831546
-0.28367966 -0.18503767 0.49853948 0.5980595 0.28331092 0.28335014 0.5377137 0.5574114
-0.13153368 -0.46450174 -0.5720652 -0.56410277 -0.24433503 -0.076435365 0.5997472 0.6910047
-0.24482007 -0.511632 -0.06413005 0.3467273 0.229931 0.17720199 -0.60280156 0.53418756
-0.49366677 -0.2210953 0.4974246 0.45565712 -0.6496869 0.28207275 0.38992143 -0.5133248
-0.3233176 0.55512613 0.40598634 -0.25582087 0.44925907 0.50227046 -0.15697281 0.0055815997
0.46570134 0.58162934 -0.30722597 0.061799046 -0.16520853 -0.5416507 0.03249371 0.22339292
-0.3102251 0.0382035 0.4124485 -0.40217143 0.35338706 0.08732301 0.6897785 -0.50132364
0.24568637 -0.6362774 -0.033514258 -0.53588957 0.30219555 -0.42968604 -0.6311034 -0.40897247
-0.022336775 0.30864313 0.4825333 -0.020538284 -0.27837846 -0.3862268 -0.102469034 0.0801168
0.6095057 -0.30182508 -0.5217176 -0.101521805 -0.009989114 -0.6686588 -0.26281917 -0.58729815
-0.41337988 0.5909425 0.4480319 0.42499974 0.029512092 -0.63165045 0.5212977 -0.3489372
0.21916671 0.23202766 -0.3790941 0.44968253 0.31877646 0.11065887 -0.6185091 -0.15980127
0.6533864

layers.0.fc_pool.bias f4 [13]
00000000: cce6 053e edb3 afbb 750e ca3d 1f04 063e
00000010: ffea 7bbe 822b 503e 80f7 8c3e f1f9 0ebe
00000020: 7e7a 0cbc 513c dbbd 2862 c73c 601a 363e
00000030: ccc5 383e
0.13076323 -0.005362025 0.09866039 0.1308751 -0.24601363 0.20329097 0.27532578 -0.13962533
-0.008574126 -0.10704864 0.024338797 0.17783499 0.18044204

layers.0.fc_self.weight f4 [128, 13]
00000000: 6440 52be e82d 4f3e d37a 75be 6693 8ebe
00000010: 9bfb 80be bdda 42be 07b8 d6bd 4f89 99bd
00000020: ad06 1dbe 0824 f3bb ec20 883e 830d 003e
00000030: 02d0 52be 1c86 d3bd 126b e33d 0895 1b3e
00000040: 04e7 873d f425 73be e56e d63b 4617 c53d
00000050: e18e 59bd a975 203e 29ad 64be 84b8 f73d
00000060: 0f12 cd3d 7c9f b53d ccd4 6a3e 2eac a43c
00000070: 7637 803e 653d 393d 63bf ffbd fa01 713d
00000080: 7db3 20be b4ec f1bc c8c0 35be 853d ea3d
00000090: d4af 673e 1760 15be 51ef 81be 1f6c c43d
000000a0: 05ea a73c d267 4ebe ebd7 673c 7e7b 5d3e
000000b0: fa05 bd3c 194f 3d3e a88d 86be c9e7 28be
000000c0: 5923 1e3e 5bbd 183e 57f2 acbc 5643 5fbc
000000d0: bf01 cabd 252c 81be 3826 22be e0c5 8a3e
000000e0: a443 db3d 0067 92bd 468a 5bbc c338 30be
000000f0: 0510 ecbc 4000 393e 1465 f7bd 799d 813e
00000100: 95e3 213d 04c3 c93d e640 8a3e 1a17 813e
00000110: 4cad 02be d2ab 133b 8591 e93c da25 4b3e
00000120: 5ec0 d73d 1dcf 943e cfef eabd 54a2 04be
00000130: 8689 1bbe 3e88 483e 1293 23be 8b0a a83d
00000140: 07be 09be 5a16 813d 6df5 833e a75d 93be
00000150: 9722 97be 71ef 37bd 7010 a3bd 1bad 3f3e
00000160: f972 41be ee21 263e f992 0b3e a0f4 b8bc
00000170: 7b48 79be f62d 3abe 158f 663d c567 1d3b
00000180: 4c51 313e c616 1b3e ec5a 97bd 4d9c 843d
00000190: 1be6 243e 5e26 4ebe 40de 50be e795 48be
000001a0: db97 9c3b e637 13be ff7d 80bd ebc4 ee3d
000001b0: 168d 73be 4964 f9bd ff04 6abe 18b2 2bbe
000001c0: 2c4f fbbd 4401 1bbe a2b1 883e dc16 eebc
000001d0: d1c1 773d 4512 e4bd f70a 5b3d fc12 51bd
000001e0: f2b3 3e3d bdc0 7f3e 7fd8 57be 2ece ae3d
000001f0: 1fb7 503e 6c60 fabd 062e bcbd 31c3 a9bd
00000200: 7dff 71be 6f9a 7c3e bdd8 a6bd 2941 23be
00000210: 6f2f 4d3d d653 1bbe e98a 123d bef1 0e3d
00000220: 0fb3 7b3e 0fe6 ea3d 23d7 72be e994 e7bd
00000230: 2621 81be 28be 473e 809f 1ebe 4bbb 6dbe
00000240: 7d2c e03c a70e f73d ba2a 59bd dc1e d8bb
00000250: 8f7b b8bd e569 91be acff e4bd a98f 13be
00000260: 3001 713e f29c dc3d 4d22 92be e9e9 f0bd
00000270: e407 573e 1dd3 b33d 3938 08be b936 013e
00000280: df3c 683e 6339 42bd 93df 64be 559a 63be
00000290: db34 893e 255e 8abc e661 fcbb b917 34be
000002a0: b0fe 783d 6d10 d6bd 91e9 51be 7340 a13d
000002b0: 0d9a 86bd 67c3 c3bd 90bd 65be 71fd 10be
000002c0: 5f7c fe3c dc23 ce3d 9459 6f3e 23f5 3e3e
000002d0: 312f 3ebe 9b43 853e 9e0e 4f3e eee6 913e
000002e0: 0882 263e 339d 9dbe 8df4 65bd aefd 873d
000002f0: a08d 9b3e f2c7 34be f9f9 b7bc 2ef2 93bd
00000300: c41a 5dbe 594a 043e 6de6 20be 86f6 1cbd
00000310: dcb6 5c3e 75f1 26b9 162d 68be 4012 48be
00000320: 1e85 84be 5ce7 8bbe dba5 503e 0b34 50be
00000330: 4491 543e 44ec 283e d763 0f3d 22b6 493e
00000340: edef 983c e41f 6cbe 670c 653d c395 1dbe
00000350: 1f7f 003d 2b4e 74be a167 5e3d 9f80 ec3c
00000360: ca3d 2cbd 0461 8ebd ca9a 1a3e 7bb1 c83d
00000370: d866 8abe 51e5 12bb f2c1 58be 72a9 443d
00000380: 31b6 98be c995 8c3e 09df 8bbd fe21 3a3e
00000390: 29fb 7abe 1e26 82be 83aa 4d3e 5f89 bb3d
000003a0: f972 84bd caf5 a73c e1da b9bc ebfd 66be
000003b0: c346 1cbe d2be c6bc 4e12 7dbb 1b23 723e
000003c0: eeb0 103c 2982 03be 32a1 11be b9e1 873d
000003d0: 8ff8 6ebe 5c6b 84bd 3959 cdbd 6736 6f3e
000003e0: baaa 82bd 8f90 09be ea08 5ebe 9f9e a7bd
000003f0: 2343 47be 5ab3 ecbd e678 ef3d 1a31 743e
-0.20532376 0.20232356 -0.23972635 -0.2784683 -0.2519196 -0.19028755 -0.10484319 -0.07496893
-0.15334578 -0.0074200667 0.26587617 0.12505154 -0.20587161 -0.10328314 0.111044064 0.1519357
0.066358596 -0.23744947 0.0065439814 0.0962358 -0.053114776 0.15669884 -0.2233168 0.120957404
0.1001321 0.0886831 0.22932738 0.020101633 0.25042313 0.045224566 -0.12487676 0.058839776
-0.1569347 -0.029531814 -0.17749321 0.11437515 0.22625667 -0.14587437 -0.25377896 0.09590935
0.020497331 -0.20156792 0.0141506 0.2162914 0.023074139 0.18487205 -0.2627995 -0.16494669
0.15443172 0.14915983 -0.02111165 -0.013626894 -0.09863614 -0.25228992 -0.15834892 0.27104092
0.10706261 -0.07148552 -0.013399666 -0.17209153 -0.028816232 0.18066502 -0.12079826 0.25315455
0.03952368 0.098516494 0.2700264 0.25212938 -0.1276142 0.0022532833 0.028511772 0.19838658
0.10534738 0.29064265 -0.11471521 -0.12952548 -0.1518918 0.19583222 -0.15974072 0.08205136
-0.13451396 0.06303091 0.25773183 -0.2878239 -0.29518577 -0.044906083 -0.079621196 0.18718378
-0.18891515 0.1622388 0.13630284 -0.022577584 -0.24344055 -0.18181595 0.056288797 0.002401815
0.17316169 0.15145406 -0.07390389 0.064751245 0.16103403 -0.20131823 -0.20397282 -0.19588433
0.004778845 -0.14376792 -0.06274032 0.11658653 -0.23784289 -0.12177331 -0.22853468 -0.16767156
-0.1227096 -0.15137202 0.26698023 -0.029063635 0.060487572 -0.11136297 0.053477254 -0.051043496
0.046558328 0.24975868 -0.2107868 0.085354194 0.20382355 -0.12225422 -0.09188466 -0.08289183
-0.23632617 0.24668287 -0.08146808 -0.15942825 0.050094064 -0.151687 0.035777006 0.034898512
0.24580024 0.114696614 -0.2371488 -0.11307699 -0.25220603 0.19506133 -0.15490532 -0.23215978
0.027364964 0.120633416 -0.053019263 -0.0065954756 -0.09007942 -0.28401104 -0.11181578 -0.14410271
0.23535609 0.107721224 -0.28541794 -0.11763365 0.20999104 0.08780501 -0.13302697 0.12618531
0.2267947 -0.04741801 -0.22350912 -0.22226842 0.26798138 -0.016890595 -0.0077021 -0.17587174
0.060789764 -0.10452352 -0.20499255 0.07873621 -0.065723516 -0.095587544 -0.22435594 -0.1415918
0.031065164 0.100654334 0.23374015 0.186482 -0.1857269 0.2602814 0.2022042 0.28496498
0.1626054 -0.30783996 -0.056141425 0.066401824 0.3038149 -0.17654398 -0.022458063 -0.072239265
-0.21592242 0.12918986 -0.157129 -0.03832104 0.2155413 -0.00015920943 -0.22673449 -0.19538212
-0.2588281 -0.2732495 0.20375769 -0.20332353 0.2075854 0.16496378 0.035007324 0.19698384
0.018669093 -0.2305904 0.05592003 -0.15389161 0.031371232 -0.23857944 0.054298047 0.028869925
-0.042051114 -0.06952098 0.1509811 0.09799477 -0.2703159 -0.0022414515 -0.21167734 0.04801316
-0.298265 0.27458027 -0.0682965 0.1817703 -0.24509872 -0.25419706 0.20084576 0.09157061
-0.06467242 0.020502944 -0.022687377 -0.225578 -0.15261368 -0.024260912 -0.0038615647 0.23646204
0.008831246 -0.12842621 -0.14221647 0.0663485 -0.23337005 -0.0646579 -0.100267835 0.23360597
-0.0638022 -0.13434051 -0.21683088 -0.081845514 -0.19459204 -0.11557646 0.116929814 0.23846856

layers.0.fc_neigh.weight f4 [128, 13]
00000000: 8bc7 913e c0be 3ebe 3616 083e c9dd 99be
00000010: afc9 0bbe 32b0 093e 15ad 36be 04cb 253a
00000020: 4aba 363e 9c5e 7f3e 0c3b 97bc 5858 e93c
00000030: deeb d13d c255 823d 09e6 9dbd c17f bbbd
00000040: 0e32 57be e3fb 103e 399a 3b3e cb55 4dbe
00000050: d9be d23d 3d38 ddbc ca8f 19be 7f8f 553e
00000060: 623d 4e3d e97d 6ebe cd62 0d3e d464 55be
00000070: 33eb f33c 7eb8 053e 058b 48bd 2d4e 8d3e
00000080: ada6 07bd bad1 87be 81ba a93d d148 8fbe
00000090: cd39 f2bc d0df 33be a41f 943e da00 35be
000000a0: 3bfd aabd 5b58 95be af32 2abe ea16 9a3d
000000b0: a735 a4bd f36d 26be 1bd5 95be e2a6 503d
000000c0: fdc5 1fbe 22e4 f53d 1d5e 82be 0188 5a3e
000000d0: a72a 61be a37c 98be 77df 863d 6014 fe3d
000000e0: 1e1c 22be b99a 223d e27d 053e 44fd 0f3e
000000f0: 0fad 67be 1032 8fbe cd47 263c 5203 85bd
00000100: 56b3 22be 25e3 093e d464 fc3b b67d 873e
00000110: 3136 6a3d 7dc1 e4bd 2b02 ddbd 126b 093e
00000120: 9463 503e e81e 023e aa9c d03d a3a1 6e3e
00000130: 2c2a da3d df37 82be de4d 10be 65c2 e3bc
00000140: a54c 903e 6a1c e5bd 5602 72be 1263 babd
00000150: d5b4 5cbc be0a 1abd 412c 01be 92c2 50be
00000160: 3909 5fbe 9059 64bd 6b00 fa3d 6797 b5bd
00000170: fc2b 0fbe ccc1 923e 10ee 2d3e fbf0 89be
00000180: 009c 13be 3099 44bd 8c73 f7bd 4e71 a73c
00000190: 744d d53d 6f9a 7d3e 5c3d 59be 425b 123e
000001a0: 115f 8c3e 5a2b 483c a1df 1a3e 03ae 703e
000001b0: 0d77 4cbe dba9 203e 9eb7 5ebe 0ed6 8c3d
000001c0: 0cb5 343e cbfe 613c 1e0f 8cbe 6e7f a83d
000001d0: 4692 8ebe b02e 8b3e dc51 87be 81f6 0abe
000001e0: 4760 4bbe a2cb 13be 3176 2d3e 3f90 5abe
000001f0: 9f6e 34be 171b 1c3e 8b72 8ebe ec23 38bd
00000200: 79cd 8fbe a8b3 28bd e999 633e 7a3f 8ebd
00000210: f120 8b3e bb78 d6bd c083 96be fea4 98bd
00000220: f70f 47bd 59f8 8ebe 2b4c 72be c4e9 d5bd
00000230: 0d70 aa3b b03f c43d 090f 30be 2c70 83bd
00000240: b1e1 85be 0714 3bbd 33b9 1dbd de00 66be
00000250: 24e8 6cbe d538 0d3e 1656 06bd 512c 67be
00000260: 9f76 f23d 8eb9 413d de2b 4a3e f672 7dbe
00000270: 24bf 1abd dc22 07be f682 68be cef4 8ebe
00000280: 21a6 02be aa71 873e b2c7 863d 81b5 88be
00000290: 21fd 1d3e 537a 113c 6133 a43d 2c4d 493e
000002a0: 751d 613c 7e69 46bb bc8d d23d f164 5ebe
000002b0: 2b34 23be 0742 91bc 5725 713d e1a8 94be
000002c0: 956a 333e 4d68 b3bc d902 7abe 489b 0abe
000002d0: eb35 923c 419a 78bd 6977 2dbd bd34 82be
000002e0: 04f4 da3d de62 913e ec1c 8f3e 7e59 a1bd
000002f0: e368 993d b4ce f43d b0e1 923e e4d9 c43d
00000300: fd1b 26bd aa86 7cbe ebb8 e43d a96a 66be
00000310: 9cfb 333e f6c4 59be 7356 9fbd 22d0 9fbd
00000320: d16c 383e d9d8 cf3d 99bc 453e 7ac8 4c3e
00000330: 5762 823d ade7 9abe 23c4 f33b 8aa2 773e
00000340: d9e9 adbd caae a53d 083b 503d 9903 d33d
00000350: cded 123d 4752 0d3e 8c0a 59bd 1c46 94be
00000360: 03a4 b03d f35f 263e 1d4f 7a3e 89f8 523d
00000370: 3246 22bb bf6f 17bd 4c4a 37be d286 3b3e
00000380: 2184 473e 9766 023e c5d6 cbbc 356f 993c
00000390: 8e8f 033e 6557 bd3d e271 243e ccb6 94be
000003a0: 6fa7 5c3d 02f7 22bc e82b 863e ee70 e73d
000003b0: e13a 8dbe 7614 68be bccf 853e 10e1 1ebe
000003c0: 965e 8ebe 1ca3 df3d 30e0 c73c 20b2 80bd
000003d0: ddbf 5c3d cad0 92bc 1bc6 013e d370 c6bb
000003e0: e15e 2cbb 2952 7f3e 01ab bcbd c760 1cbe
000003f0: b023 973c 5d1d 8ebc 57bb a3bd 0b50 88be
0.28472552 -0.18627453 0.13289723 -0.3005202 -0.13651155 0.1344612 -0.17839463 0.0006324502
0.17844501 0.24938434 -0.018460773 0.028484508 0.10250066 0.06364013 -0.07709891 -0.091552265
-0.21015188 0.14158587 0.1832055 -0.20052259 0.102903076 -0.027004356 -0.14996257 0.2085552
0.050351508 -0.23290218 0.13807221 -0.20839244 0.029775238 0.1305866 -0.048960704 0.27598706
-0.03311794 -0.26527196 0.08287526 -0.27985242 -0.029568577 -0.17565846 0.2893039 -0.17676106
-0.08349081 -0.29168972 -0.16620897 0.07523902 -0.08018046 -0.1625288 -0.2926415 0.0509404
-0.1560287 0.120064035 -0.25462428 0.21340944 -0.21988927 -0.2978259 0.06585591 0.1240623
-0.15831038 0.039698336 0.13036302 0.14061457 -0.2262461 -0.27967882 0.010148955 -0.06494774
-0.15888724 0.13465555 0.0077024493 0.26463097 0.057180587 -0.111697175 -0.10791429 0.1341975
0.20350486 0.12707102 0.10186131 0.23303847 0.10652575 -0.2543325 -0.14092204 -0.027802655
0.28183475 -0.1118706 -0.23633704 -0.091009274 -0.013470848 -0.0376079 -0.12614538 -0.20386723
-0.21780862 -0.055749476 0.12207111 -0.08866768 -0.13981622 0.2866348 0.16985345 -0.26941666
-0.14414978 -0.047997653 -0.12082586 0.02043977 0.10415164 0.24765943 -0.21214813 0.14292625
0.2741628 0.012217367 0.1512437 0.2350388 -0.1996729 0.15689795 -0.21749732 0.06876765
0.17647189 0.0137936575 -0.27355283 0.0822743 -0.27845973 0.27184057 -0.2642964 -0.13570596
-0.19860946 -0.14433149 0.16939618 -0.21344088 -0.17620324 0.15244709 -0.27821764 -0.044956133
-0.2808645 -0.04118696 0.22226681 -0.06945701 0.2717357 -0.10472246 -0.29397392 -0.07453345
-0.04859921 -0.2792385 -0.23661868 -0.10444978 0.005201346 0.0958246 -0.17193235 -0.064178795
-0.2614875 -0.045673396 -0.038506698 -0.22461268 -0.2313543 0.13791211 -0.03279694 -0.22575499
0.118390314 0.0472961 0.19743297 -0.24750885 -0.037779942 -0.13196892 -0.22706208 -0.27921146
-0.12758686 0.26453906 0.065810576 -0.26700976 0.15428592 0.008879262 0.08017612 0.19658345
0.013739933 -0.003027528 0.1028094 -0.21718194 -0.15937869 -0.01773168 0.0588735 -0.29035094
0.17521127 -0.02190032 -0.24415149 -0.13535798 0.017847976 -0.060693983 -0.042350207 -0.2543086
0.106910735 0.28395742 0.27951753 -0.078783974 0.07490709 0.11953488 0.2868781 0.09611872
-0.040554035 -0.24660745 0.11168083 -0.22501625 0.1757645 -0.21266541 -0.07780161 -0.0780337
0.1801026 0.10148782 0.19310226 0.1999835 0.06366413 -0.3025488 0.007439153 0.24183097
-0.084918685 0.08089979 0.050837547 0.103034206 0.035871316 0.13800918 -0.052988574 -0.2895974
0.08625033 0.16247539 0.24444242 0.051506553 -0.0024761078 -0.036971804 -0.17899436 0.18313149
0.19483997 0.12734447 -0.024882684 0.018729785 0.1284773 0.09245185 0.16059068 -0.29045713
0.053870615 -0.009946587 0.26205373 0.113008365 -0.27583984 -0.22664055 0.2613505 -0.15515542
-0.27806538 0.109197825 0.024398893 -0.06283975 0.053893913 -0.017921824 0.12673227 -0.00605593
-0.002630167 0.24933685 -0.09212304 -0.15271293 0.018449634 -0.017347986 -0.079947166 -0.26623568

layers.1.bias f4 [2]
00000000: b8bd 8e3c afbd 8ebc
0.01742445 -0.017424433

layers.1.fc_pool.weight f4 [128, 128]
00000000: 91b7 823d f3cc a2bd fcc1 a33d 94c3 14be
00000010: fa58 4e3c 8973 d43d 8cd0 3a3e 4792 ec3d
00000020: 22cb d23d 46db 21be 10e7 1c3e 0d20 da3c
00000030: cd82 d33d a084 b5bd 8bac 533e 6ddd 4bbe
00000040: 6a9f c33c 1e39 4e3d c047 46be cf46 da3b
00000050: f2aa 6e3d 3968 45be f7e5 463e 8663 663e
00000060: 23bd 193e 2c55 d7bb 2e0c 283e 5398 0ebe
00000070: 06be 5c3e 0510 f43c 4e8b 1b3d 34fc 2e3e
00000080: c510 6a3e 9927 853d 7477 57bb c870 f63c
00000090: f23e d2bc bdba e7bd 0dad 5e3e 5c4e cf3d
000000a0: bb7d 723e 88b3 473e d5d5 65bd 54cb bbbb
000000b0: 4842 1abc b4b5 36be 11c8 37bd 5bac 82bd
000000c0: 8923 1fbe 1a92 0ebd 5618 473e 83a8 d93c
000000d0: bbce 483e a209 2f3d 84a7 09be a4da 733d
000000e0: 0080 533e 7207 f83c 966d 89bd 9e1f d1bb
000000f0: d661 e3bd d827 263e cb56 003e d5c6 733e
00000100: 9169 45be dcf6 253e 5a81 e83d b673 303e
00000110: 5345 9dbd c78b 493e 5577 4dbe 2ba8 d3bd
00000120: bc2b 423e ca52 23be 983c 78bd 6de1 c53d
00000130: 7844 8c3d 0a8a 2a3e 4ee9 e33d 7a93 99bd
00000140: 9504 29bd 6c28 5cbd 1693 643e b0d9 a8bd
00000150: 1c37 233e 9dcd 343e 768c a63d d2d1 e4bd
00000160: c993 e73d 6da7 e9bd 3d5b e83d 88a5 3bbe
00000170: 1cbc 3abd 06f6 efbd 3539 c13c 42a3 02be
00000180: b97c ff3d e71d b7bd 859c 3ebe 0f98 133e
00000190: 2981 733e 20dd 39be ca36 0b3e 84ee 26be
000001a0: 455d 903d 7fe0 743e d6da 4c3e ba64 073d
000001b0: 8ee6 d13d 2068 4b3b 4410 62bd bb11 1cbe
000001c0: 4d42 493e 52f2 d03d 3bc3 18be 1c61 5f3e
000001d0: 77a4 3e3e 8b3b 56bd d009 1e3e d941 353e
000001e0: c69e 393e 1d41 c63d e0fc a13c 266b 4ebe
000001f0: 264b 773d 0191 02be ee61 233e 2035 1d3e
00000200: bfd7 a53c 92ee 4ebd 58b4 93bc 2222 38be
00000210: b026 113d 34bf 443e 0a90 f2bc 0e9d 143e
00000220: 11eb 233e 356d b03d 52e0 153e bc9b 12be
00000230: a2b3 273e ccfc bf3d 1468 35be 0c15 1d3e
00000240: 332b 7bbd 9966 5e3e 7a29 3c3e 7e99 b1bb
00000250: 8447 b33d 844c 243d 5bc5 34bc 9826 603e
00000260: f0ab 1e3e 2c07 f53d 46fd a7bd 174f d6bc
00000270: cce6 0f3e c855 513e 4490 d0bd 2848 f6bd
00000280: 47cd 1e3e 9415 cd3d 3ae3 c33c 213b 2d3e
00000290: cdd6 89bd 272f 353e eade 1cbe d2c7 b2bd
000002a0: 02e8 0c3e 9cd7 c43c cd6a afbc 81ba 213e
000002b0: b45d 193e 5136 0dbc f087 dcbc 8bf4 6e3e
000002c0: 9b55 f13d a561 5b3e 3dd2 d9bc 63a1 c03c
000002d0: 2208 ecbd ab17 3fbe cda0 413e bbe1 0f3e
000002e0: abd9 e53c 9e2c 383e ec7a 533e e3fc 78bd
000002f0: d65e 08be 04c1 e03d 0511 583e 6a23 133e
00000300: b850 453e a11a 033e 23c0 b6bd 83b4 2fbe
00000310: f845 01be 3ce8 5d3e 84f5 b3bd a04b c83d
00000320: 1f97 2f3e f820 2bbe 439f c6bd 11ff 083e
00000330: 766b bbbd a00f 0e3e 4da5 adbd f73e 6dbd
00000340: 4f2d 0b3d c69f 423e 0439 003e 69ce c53d
00000350: 9b40 0e3e 93ba 0bbe 61cb 5d3e 38dd 493e
00000360: eaa5 91bd 6689 1d3e 45e7 a5bd c225 243e
00000370: 1758 c6bc 574e 1abe b216 24be a103 0f3e
00000380: c5a7 0a3e 39dc 163e 9780 2f3e 4445 5e3e
00000390: d5a1 f03d be2b 3bbe aa78 a03d 72b9 273d
000003a0: c2d5 4bbe 3cd7 46be cd72 af3c 80f2 ed3d
000003b0: c46d a83d 1b31 9fbd dc69 5d3d 3759 c5bc
000003c0: 010f 19be b94e 283d 8b3d d03d e0e8 563e
000003d0: 57f5 b8bb 373a a93d 74e7 5b3d 31a3 91bd
000003e0: ca0f 223e ec67 343e 5419 2ebe a681 bdbd
000003f0: 353f 20be 3e9f 163e c400 f03d acea a43d
0.06382669 -0.07949247 0.07995984 -0.14527732 0.012594456 0.10373599 0.18243617 0.11551338
0.10292651 -0.15806302 0.15322518 0.026626611 0.10327683 -0.08863187 0.20671289 -0.19908686
0.023879725 0.05034744 -0.19363308 0.006661273 0.058268495 -0.19278039 0.19423662 0.22498903
0.15013556 -0.0065714326 0.16410896 -0.13925295 0.21556863 0.029792795 0.03797465 0.17088395
0.2285796 0.06501693 -0.0032877596 0.030083075 -0.02566478 -0.113149144 0.21745701 0.10122368
0.23680775 0.1950208 -0.05611213 -0.0057310257 -0.009415217 -0.17842752 -0.044868533 -0.063805304
-0.155409 -0.034807302 0.19442877 0.02656961 0.19610111 0.042733796 -0.13442808 0.059534684
0.20654297 0.030276988 -0.06710355 -0.006381943 -0.11102645 0.16226137 0.12533109 0.23806317
-0.19278552 0.1620745 0.11352797 0.1723164 -0.07679238 0.19682227 -0.20065053 -0.1033481
0.18961996 -0.1594955 -0.06060466 0.09662137 0.06848997 0.1665422 0.11128484 -0.07498832
-0.041264135 -0.053749487 0.22321734 -0.082446456 0.15938991 0.1765656 0.081322595 -0.111728325
0.11307485 -0.11408887 0.11345527 -0.18324864 -0.04558955 -0.11716847 0.023586849 -0.1275759
0.12474961 -0.0894125 -0.18614395 0.14413475 0.2377974 -0.18150759 0.13595119 -0.16301924
0.0704904 0.23913763 0.20005354 0.033055045 0.10249053 0.0031037405 -0.055191293 -0.15241139
0.19654198 0.10202469 -0.14918225 0.21814388 0.18617426 -0.05230288 0.1543343 0.177009
0.18126974 0.09680388 0.0197739 -0.20158061 0.0603744 -0.12750627 0.15955326 0.15352297
0.020244477 -0.050520487 -0.01803033 -0.1798177 0.035437286 0.19213563 -0.029609699 0.14513037
0.1600764 0.086145796 0.14636353 -0.1431722 0.16377118 0.09374389 -0.17715484 0.1534006
-0.061320495 0.21718825 0.18375197 -0.005419909 0.08753875 0.040112033 -0.011033381 0.21889722
0.15495276 0.119642586 -0.08202605 -0.02616076 0.14052886 0.20442879 -0.101837665 -0.120254815
0.15507995 0.10013881 0.023912061 0.16917087 -0.06730423 0.17693768 -0.1531941 -0.08729519
0.13760379 0.024028592 -0.021413231 0.15793802 0.14977151 -0.008618907 -0.026920289 0.23335473
0.11783906 0.21423967 -0.026589507 0.023514455 -0.11524989 -0.18661372 0.18908997 0.14050953
0.028057894 0.1798577 0.2065236 -0.060788047 -0.13317427 0.10974315 0.21100242 0.14368978
0.19269073 0.12803127 -0.08923366 -0.17158704 -0.12624347 0.21670622 -0.08787063 0.09780049
0.17147492 -0.16711795 -0.096983455 0.1337855 -0.09151356 0.13873148 -0.08478794 -0.057921376
0.033978757 0.19006261 0.1252175 0.0965851 0.13891833 -0.13645391 0.21659614 0.19713295
-0.07111724 0.15384445 -0.08100752 0.16030028 -0.024211926 -0.15068947 -0.16024283 0.13966228
0.13540561 0.14732446 0.17138897 0.2170611 0.11749617 -0.18278405 0.07835515 0.04094834
-0.19905761 -0.19418043 0.021417046 0.11618519 0.08224061 -0.07773038 0.054056033 -0.024090393
-0.1494713 0.0410907 0.101679884 0.20987272 -0.005644481 0.08263057 0.053687528 -0.071112044
0.15826336 0.17617768 -0.1700185 -0.09253244 -0.15649112 0.14709184 0.11718896 0.080525726

layers.1.fc_pool.bias f4 [128]
00000000: d170 aabc 6b1d 59bd 9300 b73d d669 343d
00000010: d979 443d e91c 393c ed14 6abd 5f1d 61bc
00000020: e0e8 7ebd 3e45 e03b 7889 143e 89f9 5b3d
00000030: aff0 ccbd 6476 76bc 14bc 723c 361b b23d
00000040: 69d3 d8bc 8928 ccbd 4bf9 c73d 6795 bcbd
00000050: 9626 abbd 96a1 113a f448 fcbb 87a8 86bc
00000060: 3b93 14bd 1a7b 123c e67b 913d 8045 093d
00000070: 0501 0c3d 8f8d a03d b4c7 a9bc 43a3 203d
00000080: 4b00 393d 5d4f c2bd de3f 9a3d 8258 ba3d
00000090: 2ef8 9dbd fd4f d73a f0bd 8bbc de32 b1bb
000000a0: 1729 9abd 5f70 aa3d 0efe bc3d aef6 223d
000000b0: d0f0 883d d76e 863d d4a6 75bd 8f5a d73d
000000c0: b900 57bd bf7c 613d 907c 903d 6523 993c
000000d0: 0b1d ecbc 46f3 e8bc 7626 103d 006f 90bc
000000e0: 3d86 a2bd 3692 a53d c9c2 f93c 9a30 17bd
000000f0: c256 8f3d 3196 95bd e0a7 01bc 5649 a93c
00000100: 2097 d13d bd1e b03d 49bf 853d 9a31 db3a
00000110: e315 7dbc cba9 9ebc 9979 77bd e1a2 8e3d
00000120: 7555 8a3d a616 02bd a456 753d a6c8 59bc
00000130: aa5e 2dbd 133b c5bc 094a 37bd e88c eb3c
00000140: 2590 923b b9c5 a6bd 1d1a 83bd 2f74 483d
00000150: 6fc9 453d 831e 583d 1524 18bb f2e6 3fbc
00000160: 05e5 52bd d697 8fba c826 31bd 02fc bf3d
00000170: edc0 30bd b976 15bd 92b4 b8bd 97e9 6b3c
00000180: 8a5a 0fbd ec36 8a3d ecfb c03d ab28 11bc
00000190: 89ac d8bc b16c 483d 8bb2 dbbb 4352 ec3c
000001a0: c767 d6bc 4859 363c e91a 903d 3442 90bd
000001b0: 84e4 00bc d7f9 58bd 94b6 73bd 31c0 153d
000001c0: cc1b 4d3d 50fc b4bc d97d 5dbd 58a1 dabb
000001d0: 47f9 1f3c 751f c63b 5618 893c 8e7e 7a3d
000001e0: e9f0 b63c 19e3 603d 527a 203d a332 9b3d
000001f0: fefe d7bc 6d59 b33d 67fd b3bc b460 403c
-0.020805748 -0.05300657 0.089356564 0.044046246 0.047967765 0.011298397 -0.057148863 -0.013739913
-0.062233806 0.006844192 0.14505565 0.053704772 -0.10006844 -0.015042875 0.014815349 0.08696596
-0.026467996 -0.09968669 0.09764346 -0.09208184 -0.08356969 0.0005555389 -0.0076991264 -0.016437782
-0.036273222 0.0089404825 0.0710371 0.033513546 0.03418066 0.078395 -0.020725109 0.0392182
0.045166295 -0.094877936 0.07531713 0.09098913 -0.07713352 0.0016427037 -0.017058343 -0.005407675
-0.075273685 0.08322214 0.092281446 0.039786033 0.06686556 0.0656411 -0.059973553 0.105153196
-0.052490924 0.055050608 0.070550084 0.018693635 -0.028822443 -0.028436314 0.03519293 -0.017631054
-0.0793576 0.08084528 0.030488389 -0.036911584 0.069989696 -0.07304037 -0.00791356 0.020664852
0.10233903 0.08599613 0.065306254 0.0016723156 -0.015447113 -0.019368073 -0.0604187 0.069646604
0.06754581 -0.03175988 0.05989708 -0.013292467 -0.042326607 -0.02407602 -0.04474834 0.028753713
0.00447275 -0.08143181 -0.06401465 0.048938926 0.048287805 0.052763473 -0.0023214866 -0.0117127765
-0.05148794 -0.0010955285 -0.043249875 0.093742386 -0.04315274 -0.036490176 -0.09018816 0.014398954
-0.034998454 0.06748757 0.0942305 -0.008859794 -0.026449459 0.04893178 -0.0067046336 0.02884782
-0.026172532 0.011129685 0.07036383 -0.07043877 -0.007866982 -0.05297264 -0.059500292 0.03656024
0.050075337 -0.022092968 -0.054075096 -0.0066720657 0.009764022 0.0060462304 0.016735237 0.06115585
0.022331672 0.054904077 0.039179154 0.075780176 -0.026366707 0.08757291 -0.021971418 0.011741806

layers.1.fc_self.weight f4 [2, 128]
00000000: 9580 1abe bd46 063e db06 59bc e4c7 90be
00000010: f485 6e3e 44a1 953e 3df9 33bd 91ac 273e
00000020: 371c 223e 333b 613e 8dd6 93be d97c 30be
00000030: c635 523e 9cbc e1bd 322a 473e ede7 1f3e
00000040: a970 783e b90c c1bd 79e9 b5bd 9b9b 75be
00000050: ff01 773e 6b9d 283e 4a72 90be 3d6a 663e
00000060: 3c04 953d 3f66 80be baff c83d 4eb0 0e3e
00000070: 59c2 163e 23c8 6dbe 0ce4 5fbd c18e 5d3d
00000080: e296 a0bc 290f f5bd f7d8 9a3e 2493 70be
00000090: 9f36 8dbe b4f0 2bbe f437 9ebc 82a0 ddbd
000000a0: 1bb7 87be fe52 4ebd 7a6a c6bd 2267 7dbe
000000b0: 65a2 35be 1f45 7ebe c75c 313e 6f8a a3bd
000000c0: 4b41 2bbc 5d34 37be 0e1d ecbd e680 fc3d
000000d0: b031 2fbe 8eff 133d 4c79 b1b9 08a9 cb3b
000000e0: 4117 4c3d 4b1d 703e 7084 163e dae0 8f3e
000000f0: 2a8e f63b 31e2 623d 0d88 62be 6ce4 18bd
00000100: 2369 f0bd b710 953e ebc2 c3bd 0656 e63d
00000110: 9fc1 bfbd 8a17 133d 1e34 06be af7c 06be
00000120: ca09 84be 051c 6cbd abe9 593e fd9c 933e
00000130: 19d8 193d aba5 323e fb81 273e 99a1 853e
00000140: d8d5 8f3e 2b82 703c ca83 4cbe 34c6 9a3e
00000150: d00c 3dbe e7df 993e 7b56 3ebb 3b89 1cbc
00000160: 0d5a a43e 091f 9d3e 2377 bcbd 7819 4cbd
00000170: ec78 653e 1a2c 4fbd 5f20 40be 964f f2bd
00000180: fdef a13e ac0a 87be 0ad4 84be b94c 4e3e
00000190: defe d1bc 9f48 95bd 4942 58be 43ed 37be
000001a0: 0a61 89be 07dc 353e 1c8e 143c 19e2 983d
000001b0: c17b 563e b059 33bd 7716 84be f840 6e3e
000001c0: 7462 563d a6da 5dbe 48dd 69be 3470 103d
000001d0: 0d4b 34bd 1b6c 52be 79a4 1ebe 640e 573d
000001e0: dcf3 2ebd fb37 85bd 3db1 903e 131a 033e
000001f0: 0fc0 5abd 0006 3cbe 85e0 0f3d 838a ce3d
00000200: 82a1 1e3d de7a d23d 2c5b 893e bd09 6f3e
00000210: 1158 0e3e 6629 97bd e378 b4bb e643 66be
00000220: d42d 763e 2482 f23d 8570 7a3e 98ba 833e
00000230: a2ad ba3c cc1c 97be 2714 a1bd 0ad5 333d
00000240: feb1 1dbe 231a 923e 0fe6 043e 2c48 a5bd
00000250: a476 e9bc f22b 533e 5481 86be de7a a4be
00000260: 9b61 5f3e f9aa 113e 1053 0f3d 913a 3cbd
00000270: 65b6 08be d60a 2b3e 7a6e 243d c780 063e
00000280: 1fb8 703e c79b c83a 1f72 943d 3e4f 20be
00000290: 7f25 4d3e a35c 3abe 4596 20be ca18 5bbe
000002a0: c0a5 91be f250 753e 5feb 283d 7088 133e
000002b0: 5bb7 d73d b434 b53d 16c4 9cbe d499 98be
000002c0: 0ff9 573e b4f2 0fbe b984 3ebe 63fe 94be
000002d0: 159d 19be eac8 8d3e d709 223e 4c2a c4bd
000002e0: 208f 7e3d 6253 7b3e 4331 2ebe e04a 4bbe
000002f0: 0192 91be 7606 403e e231 42be 3835 dabd
00000300: 3c69 74be 93b3 913e 4c9b 73be 845e 6fbd
00000310: 5dbb f3bd 7a4d d9bc 9be8 3b3d 484b 8dbe
00000320: d7da e4bd e291 84be 070e bc3d 4d4f 043e
00000330: bf99 013e cf60 153e b7f8 7dbe f071 b7bd
00000340: bee6 273e 08e2 ea3d f2bb 83be 36ec 86be
00000350: a81b 183e f6b6 6fbd e873 08be 1053 4fbe
00000360: f15c 1f3d 2ea1 aabd 751f 6abe c6e0 abbc
00000370: 38c4 903e 57f2 043e 0529 9abe cd85 3a3a
00000380: 9c6a 4e3d 879c 77be abda 903e eda5 953d
00000390: 2d70 8abe 57bb 9cbd d248 55be 0ebc 09be
000003a0: 9a05 343e 9090 a73d 35da 433e 8d2e 81bd
000003b0: d0e1 35be 408e 57be a171 043e c9f5 a63d
000003c0: 6a6c 84be 8cf0 9abe d0cb 783e 2369 303e
000003d0: d2b8 d93d 4947 883e c165 33bd ed31 3d3c
000003e0: 72d3 0ebd 3d4d 7abe 7ac7 9abe 87b4 3abe
000003f0: 1217 55be 1710 8bbe b781 5ebe e9fc 65be
-0.15088113 0.13112922 -0.013246263 -0.28277504 0.23293287 0.29224598 -0.043938864 0.16374423
0.15831076 0.21995239 -0.28874627 -0.17235126 0.20528325 -0.110223025 0.1944969 0.15615816
0.24261726 -0.09426255 -0.08882422 -0.2398514 0.24121855 0.164663 -0.28212196 0.22501464
0.07276198 -0.25078008 0.09814401 0.13934442 0.14722575 -0.23220877 -0.05466084 0.05409122
-0.019603197 -0.11965782 0.30243656 -0.2349363 -0.27580735 -0.1679104 -0.01931379 -0.1082163
-0.26506886 -0.050372116 -0.096882775 -0.24746373 -0.1773773 -0.24831055 0.17320548 -0.079853885
-0.010452579 -0.17891069 -0.11528979 0.12329273 -0.17108798 0.036132388 -0.00033850444 0.0062152185
0.049826864 0.23448674 0.14698958 0.28101236 0.0075242715 0.055391494 -0.22122212 -0.037327215
-0.11738803 0.29114315 -0.09558662 0.112468764 -0.09363102 0.03591112 -0.13105819 -0.131335
-0.25788718 -0.05764391 0.21280544 0.2883071 0.037559602 0.1744601 0.16358177 0.26099852
0.28092837 0.014679472 -0.19972149 0.30229342 -0.18461919 0.30053636 -0.0029043246 -0.009554203
0.32099953 0.3068774 -0.09202411 -0.049828976 0.2240941 -0.050579168 -0.18762349 -0.11831586
0.3162841 -0.2637533 -0.25943023 0.20146455 -0.025634225 -0.07289242 -0.21119036 -0.17961602
-0.26831847 0.17759715 0.009067085 0.07465 0.20945646 -0.043786705 -0.2579839 0.23266971
0.052339986 -0.21665439 -0.22838318 0.035263255 -0.044016887 -0.20549051 -0.15492429 0.05250396
-0.04271303 -0.06504818 0.28260222 0.12802915 -0.053405818 -0.18361664 0.035126228 0.10085013
0.038728245 0.10277341 0.2682737 0.23343559 0.13900782 -0.07380943 -0.005507575 -0.22486839
0.2404092 0.118412286 0.24456985 0.25728297 0.022787873 -0.29514158 -0.07865172 0.04390434
-0.1539993 0.28535566 0.12978385 -0.08070406 -0.028498955 0.20622233 -0.26270545 -0.3212499
0.21814577 0.14225377 0.034991324 -0.04595429 -0.13350828 0.16703352 0.04014442 0.13135062
0.23507737 0.0015305214 0.07248329 -0.15655228 0.20033835 -0.181994 -0.15682323 -0.21396175
-0.2844677 0.2395666 0.041240092 0.14407516 0.10533019 0.08847943 -0.30618352 -0.29804862
0.21091102 -0.14057428 -0.18605317 -0.29100332 -0.15001328 0.27692348 0.15824066 -0.0957838
0.062148213 0.24543527 -0.1701098 -0.19852781 -0.28431705 0.18752465 -0.18964341 -0.10654682
-0.23868269 0.28457317 -0.2378971 -0.058439746 -0.11900971 -0.026526202 0.045876127 -0.27596498
-0.11174553 -0.2589255 0.09182363 0.12920876 0.12656306 0.14587711 -0.24801908 -0.08957279
0.16396615 0.11468893 -0.25729328 -0.2635209 0.148543 -0.058524095 -0.13325465 -0.2024653
0.038906995 -0.08331524 -0.22863562 -0.020981204 0.28274703 0.1298307 -0.3010942 0.0007115275
0.05039464 -0.24180804 0.2829183 0.073070385 -0.27038708 -0.0765292 -0.2082856 -0.13450643
0.17580262 0.0818187 0.19126208 -0.06307707 -0.17761922 -0.21050358 0.12933971 0.081523485
-0.25863963 -0.30261648 0.24296498 0.17227606 0.10630955 0.26616886 -0.043798212 0.011547548
-0.03486962 -0.24443527 -0.30230314 -0.18232928 -0.20809582 -0.27160713 -0.2172917 -0.22459759

layers.1.fc_neigh.weight f4 [2, 128]
00000000: a7a4 593c 422a 253d 6341 a53e e290 6bbe
00000010: 592b d1bc 1ddb a73e 4340 7ebe 3d4c 8bbe
00000020: 284f e73d 36f2 8e3d d5d0 0c3f a03b 09bd
00000030: f194 86be 24ac 7f3d b527 643c ef98 0a3e
00000040: 37f7 a6bd 2aea 72be d1e6 813e 7ccb 413c
00000050: fff8 45be 32bf a73e d284 fbbd b1fb 42be
00000060: a342 89be 846d b2bd 2264 e2bd 86c5 853e
00000070: f9dd 623d b66e 07be 18da 523e a7c8 583e
00000080: 5de5 053e 79c1 80be 593e 5b3e 9999 4d3f
00000090: 869a 92be 7a33 82bd 4635 9a3e bb47 533e
000000a0: 2e9d 7dbe a3f9 843e e86a 913d 6db1 013d
000000b0: 9669 563e dba0 e73d 92e5 53be 4ad1 603e
000000c0: b058 293d cf66 663e b7b6 633e 3572 373e
000000d0: 7116 833e 3536 3e3e 66c2 493c 7118 85be
000000e0: 1b85 a43d 244e a53e 2b4e 983e 7337 203e
000000f0: 5ba6 ea3d 3696 87be 0fa4 6dbe 9e72 7d3e
00000100: e49c 43be 241e 9d3e 2200 2e3c 9078 163e
00000110: 1b25 133e bf4d 8c3e b83c 40be 7376 69be
00000120: 1abd 99bc 1924 15be 84ad 4cbe 344f 6cbe
00000130: 3f8e 1e3e c2a1 f8bd 170a d7bc 5d4a 0bbe
00000140: 0290 8bbe bb32 743d ef3d 93be d2e2 71be
00000150: 2614 40bd 0f90 a53d 2cc6 85be 1052 1ebe
00000160: 3b8f 0fbe e904 28bd 72a9 56be 1ee5 8b3e
00000170: d79e f13d 7614 68be c03d 83be 5b15 2c3e
00000180: 5df1 033e 28bb b5bd 1e74 7a3d 227b 643e
00000190: 5a25 8a3e 2cdc 553d 5efb 0cbe a227 9e3e
000001a0: ffa1 80be c490 593e ca7f 8abe 3934 22bd
000001b0: 9209 8f3e 57c4 48be 323c 453e 3c89 5d3e
000001c0: c1a6 183e 4c01 f6bd 2ee4 64be 7372 4e3e
000001d0: fa1d eabd 1204 6a3e def8 183e 20dc 3b3e
000001e0: 2345 943e 8890 043e c72c 5e3e d7d2 a63e
000001f0: 58c6 703e 5a6d d2bd ebdd d5bb b686 9c3e
00000200: b32e 8cbd a808 31be d5e3 eabd 96c7 4fbe
00000210: 0c3d 1abe b57c 763e 274a 4f3d de15 c1bd
00000220: b1c0 5ebe 893a bfbd 3252 99be 71ea 8dbe
00000230: 97c5 2dbe dde9 433e afa6 3b3e 4d35 b63c
00000240: b462 5f3e 53dd 64be 4b35 ebbb 875b 5d3d
00000250: ff3d 31be 051d d7be b9a9 74bd 1b63 933e
00000260: 5c4d 15bd bcd3 d23d 425b 79be 4e25 a7bd
00000270: e455 513e c971 59be 700c a7bd ae40 27be
00000280: f024 bfbc 8bea 213e a242 6bbd d8f6 6bbf
00000290: b362 61be a661 bf3d 6749 883d 83db abbe
000002a0: c50d 1cbe b116 253d 82a4 91bd 12c7 ecbd
000002b0: a43a b6bc 2c81 8fbe 63bc 673d edd3 963b
000002c0: dfdb 99be 8812 bd3c 6be1 debc 203a 69bd
000002d0: 561d 27be ffbb 84be 663d 43be 42ca 2ebd
000002e0: bae7 f13d fbd5 50be 886c 593b 27b5 513e
000002f0: b99a d03d 2134 65be 407c ec3d 1058 87be
00000300: 064e 82be 7b27 22be 22a5 ff3d 6ccc 33bc
00000310: f44a c7bd 4ae1 253e b44a 763b ac7a 52be
00000320: d270 6d3e 3b70 523e bf1b 78bd c5d2 83be
00000330: 86c4 6dbe c8e0 443e f25b 7d3e 3ed7 c9bd
00000340: e979 6d3e 480e 5d3e 7f4f b93d 502a a0be
00000350: c97e 8abe f00f 0abe ac72 8a3d e6a7 253e
00000360: cbb1 623c 1d82 153e 78f9 cd3d de9d d63d
00000370: 2b8d 5e3e 94d5 063e 0574 7f3e 4008 723d
00000380: 8307 32bd 53ee 2c3e d3c0 19be cd26 e43c
00000390: 1b76 1bbe f0b0 8dbd d5b4 483e 5a8d 8fbe
000003a0: 5194 383e bef6 c63d 2d4b 8cbe 08d2 5b3d
000003b0: f204 a03d 0cc0 5d3d 6725 823e e8da 373e
000003c0: 940a 5e3e 7fce 723e eb50 943d 26b5 7fbd
000003d0: b077 8f3b bb00 e2bd 2595 abbd 891d 4fbe
000003e0: 7a5e 7d3d 3fd3 60bd 0304 4cbe 3ffb 2bbe
000003f0: 1d45 01be 51ff 1fbe f953 313d 1b16 0abe
0.013283885 0.040323503 0.3227645 -0.23004487 -0.025533365 0.32784358 -0.24829201 -0.27206603
0.11294395 0.06979792 0.5500615 -0.03350413 -0.26285508 0.062420025 0.0139254825 0.13534902
-0.08152621 -0.23722139 0.2537141 0.0118283 -0.19333266 0.32763058 -0.12281193 -0.19041325
-0.26808652 -0.08712295 -0.11054255 0.2612726 0.05538747 -0.13225827 0.20591009 0.21170293
0.13075776 -0.25147608 0.21410502 0.80312496 -0.28633517 -0.063574746 0.3011877 0.20632832
-0.2476699 0.25971708 0.07100469 0.031663347 0.20938715 0.113099776 -0.20693043 0.21954837
0.041344345 0.22500156 0.22237669 0.1791466 0.2560306 0.18575366 0.012314415 -0.2599521
0.080332 0.3228618 0.29747137 0.15646152 0.11457511 -0.2648179 -0.23207115 0.24750754
-0.19102818 0.30687058 0.010620149 0.14694428 0.14369623 0.27403066 -0.18773162 -0.22799091
-0.018766928 -0.14564551 -0.19988066 -0.23077089 0.1548395 -0.12140228 -0.026249928 -0.13602586
-0.27258307 0.059618693 -0.2875819 -0.23621681 -0.046894215 0.080841176 -0.26127756 -0.15460992
-0.14019482 -0.041020308 -0.20963076 0.2732324 0.117978744 -0.22664055 -0.2563305 0.16805021
0.12885042 -0.08873588 0.061145894 0.22312596 0.26981622 0.052211925 -0.13767764 0.30889612
-0.25123593 0.2124663 -0.2705062 -0.039600585 0.2793699 -0.19606148 0.19261244 0.21634382
0.14907362 -0.12011966 -0.22352669 0.20160846 -0.11431499 0.22853115 0.14938685 0.1834569
0.28958997 0.1294576 0.21696769 0.32582733 0.23513162 -0.102747634 -0.006526699 0.30571526
-0.06844845 -0.17288458 -0.11469237 -0.2029098 -0.1506235 0.2407101 0.050607827 -0.09427999
-0.21753193 -0.093373366 -0.29945523 -0.27717927 -0.16969906 0.1913218 0.18325303 0.022242213
0.21814996 -0.22350053 -0.007177984 0.054042365 -0.17308806 -0.42014328 -0.059732173 0.2878655
-0.03645073 0.102942914 -0.24351218 -0.08161412 0.20442921 -0.21234812 -0.08156669 -0.16333267
-0.023333043 0.15812127 -0.057436593 -0.9217353 -0.22010307 0.09344797 0.066546254 -0.33565912
-0.15239628 0.040304843 -0.071114555 -0.11561407 -0.022244759 -0.28028238 0.056576144 0.0046029002
-0.3005056 0.023080125 -0.027207097 -0.056940198 -0.16319785 -0.2592468 -0.1906639 -0.042673357
0.118117765 -0.20394127 0.0033176262 0.2047926 0.10185761 -0.22383167 0.11547136 -0.26434374
-0.25450152 -0.15835373 0.124826685 -0.010974031 -0.09731093 0.16199222 0.0037581148 -0.20554608
0.23187569 0.20550625 -0.060573336 -0.25746742 -0.23219499 0.19226372 0.24742106 -0.09855507
0.23191036 0.21587479 0.09048366 -0.31282282 -0.27049854 -0.13482642 0.06760153 0.1617733
0.013836334 0.14600416 0.10057348 0.104793295 0.21733539 0.13167411 0.24946602 0.0590899
-0.043464195 0.16887788 -0.15014963 0.027850533 -0.15181772 -0.06918514 0.19600232 -0.2803753
0.18025328 0.09715031 -0.27401105 0.0536671 0.07813443 0.05413823 0.2541916 0.179546
0.21683723 0.23711585 0.072419964 -0.062428616 0.0043782815 -0.110352956 -0.083780564 -0.2022611
0.061857678 -0.05488896 -0.19923405 -0.16795062 -0.12624021 -0.15624739 0.043292973 -0.13484995
