bank/model.pt (torch, 82835 bytes, 10 tensors)

layers.0.bias f4 [124]
00000000: 0d71 19be 09e6 20be c468 62be dc63 0bbe
00000010: 731a bebe 4581 153e dd16 15bf 70ce 84be
00000020: 7736 a13d 36ac 0cbe f2df 18be a1f6 3abe
00000030: 7ea0 04bf 2495 79be 8612 0bbd f0ef fabd
00000040: df39 b1be 0b50 8c3b e588 11be 2508 49be
00000050: bb9f a0be f5a6 f53d 53f1 27be d0a2 e7be
00000060: c7e8 0dbf a8a7 1bbe 8d73 0cbe afb6 c33d
00000070: 6370 c7bd 0d7d abbe 1627 1dbe 4ca7 dabe
00000080: 905e c4be b486 91be b606 04bf ad76 c4bd
00000090: 7b48 98be 53ae afbe 1d10 a8be 1307 0bbf
000000a0: f89f 44be 11cb 52bd 27a1 05bf df13 a2be
000000b0: d640 b8be 4a3e 44bd c1a8 0fbf 47ca 94be
000000c0: a4be 1abe 453f 21bf 0114 bdbe c6ae eebd
000000d0: c51d bbbe 5580 d3be aac4 a7be 9f68 61be
000000e0: 746f 91be 843a d4be 82ef 0fbe 0d00 31be
000000f0: 8cbc eabd 7f1c febe ced3 313b 8763 82be
00000100: a9ba 04bc 8f19 15bf dae6 06bd 6cb4 d1bc
00000110: c9ea c5be 5500 ec3c 2551 f0bd e22a b7be
00000120: f450 03bf e5a5 b7be add8 e2bd aa4c 59be
00000130: e051 13bf 5518 0cbf b223 88be 5ba2 fd3c
00000140: fcf7 d3be 46fe 7abe 8700 c0be 567a 0ebb
00000150: b5a3 9fbd 9634 78be e113 0a3c 2bea 94bd
00000160: 3f08 a5be 5982 cfbd e9da 2cbd 4878 89bd
00000170: c1d5 b9bc f210 a7be eef8 ccbe ac70 f0be
00000180: 3ac7 21be 791b e3be b8aa 8dbe 5067 a9be
00000190: eaae 06bf 7f90 21be 7dd2 bbbe bde4 92be
000001a0: c839 173c 6c6b 30bc 9c39 6fbe 6299 44be
000001b0: e83d 2b3e 5178 84be 6fce eabe 71a3 08be
000001c0: 0309 ffbd ab20 4cbd dc22 9bbd 8be8 aabb
000001d0: e7cf 0bbf 11a6 8abe 8e53 bebe 99b6 c7be
000001e0: 6d4d 13bf 0dae 53be ccaf 8cbe ca8f 8dbe
-0.14984532 -0.15712751 -0.22110277 -0.13612312 -0.37129554 0.14600094 -0.5823801 -0.2593875
0.078717165 -0.13737568 -0.14929178 -0.18258144 -0.5180739 -0.24373299 -0.033953212 -0.12252796
-0.34614465 0.004282003 -0.14212377 -0.19632013 -0.31371865 0.11994735 -0.16400652 -0.45241404
-0.55433315 -0.15200675 -0.13715954 0.095563285 -0.09738233 -0.33493844 -0.15346941 -0.42705762
-0.38353395 -0.28423083 -0.5157274 -0.09592948 -0.29742798 -0.34312686 -0.32824793 -0.5430767
-0.19201648 -0.05146319 -0.52199024 -0.31655785 -0.35986966 -0.047910966 -0.56116873 -0.29060575
-0.15111786 -0.62987167 -0.36929324 -0.11654429 -0.3654615 -0.41308847 -0.3276723 -0.22012566
-0.28405344 -0.41450894 -0.14056209 -0.17285176 -0.11461744 -0.49631116 0.0027134302 -0.25466558
-0.008101144 -0.58242124 -0.032935 -0.025598727 -0.3865569 0.028808752 -0.11734227 -0.35774904
-0.512954 -0.35868755 -0.11076484 -0.21220651 -0.57546806 -0.5472463 -0.26589733 0.030961206
-0.41400135 -0.2451106 -0.37500402 -0.0021740398 -0.077948965 -0.2423881 0.008427591 -0.072712265
-0.32232854 -0.10132284 -0.042200956 -0.06712395 -0.022684934 -0.32630116 -0.40033668 -0.46960962
-0.15798655 -0.44356897 -0.2766931 -0.33086634 -0.5261065 -0.15777777 -0.36684027 -0.28690138
0.009230085 -0.010767799 -0.2336182 -0.19199136 0.16722834 -0.25873044 -0.4586062 -0.13343598
-0.12452891 -0.049835842 -0.07575008 -0.0052157096 -0.5461411 -0.27079824 -0.37173122 -0.39006498
-0.5754002 -0.20671864 -0.27477872 -0.27648765

layers.0.fc_pool.weight f4 [14, 14]
00000000: e766 7f3c 6d4d 9ebd 64c8 143d a3dc 1c3b
00000010: 6170 6bbe 8292 0cbe 8a9b 88be ddc0 053d
00000020: 2bdc 2a3e 4656 ffbd 3a52 9a3d 2480 b63d
00000030: 3db8 d9bd 81d6 a53e 90ef 793b 6ab1 473d
00000040: 649e 6bbd 2c80 99bd cc9c 31bf ad49 a43d
00000050: 621d 47bd 4244 60bb 142c 25be 18d7 17bf
00000060: 5b92 fdbb f7e0 cfbb 84e0 94be 2972 4abe
00000070: ef82 863d 7969 ccbc 7ea5 97bd de45 893a
00000080: 023e 82bd 957d 84bc f60e 33be da7c ae3d
00000090: 99a5 e53a 1caa 32bc dd88 01bd c181 dc3c
000000a0: 4183 05be bad5 84bd 7b79 b3be 416c 31be
000000b0: 2ca2 f63c f68b 3d3d 6be8 16bd 3b34 833d
000000c0: 77c3 ccbd d560 74bc 0478 9cbd 12dd 573e
000000d0: 4b47 a4bc 857b 413e 6105 853d bd31 6f3c
000000e0: 716d 03be 75c4 19be 5589 4e3c c09f 2f3d
000000f0: 6b5e a7bc 12d8 6abe ef82 023e c7d9 523d
00000100: a199 c5bc fa4a 15be 4dc5 45bb 7b49 9cbe
00000110: ee32 183d 3f06 923f 0595 bd3c ac45 ee3b
00000120: 9160 13be 508e ad3c 2d54 c2bc 2bf0 e2bd
00000130: 1085 b63e 3e3b 4d3e cff6 edbc 275d c23d
00000140: af43 d13b 256c 2abd 991e e5bb a511 50bd
00000150: 8a23 553e b815 013c f866 263e ba49 903c
00000160: c2a2 7dbe fe65 a53c 34a0 8dbd c75d 7fbb
00000170: 19bd 6abd 31b8 5f3e 770a 4dbd b2ec d03e
00000180: 7930 4e3d 0e73 333d f2a3 e1bc 1926 b3bc
00000190: efff 863a d5c6 d53d dc6c 8f3c 5ce9 11bc
000001a0: 874c 30be 948b 40bd 92b9 09be c79f c53e
000001b0: ebfb e6bd 9365 863c 5b8e 0b3d ae1e bcbd
000001c0: d150 48bd b92a dd3d e38d 3ebd 983b a13d
000001d0: 8fb2 87be ef35 68bb bf6c 4abe db1d dbbe
000001e0: c4d5 103d 4930 15bc 0495 c1be 8047 a93c
000001f0: f662 a43d a0c2 a6bc c0dc 813c 672f 80bd
00000200: 1f76 16be 7490 2f3d 259e e0bb 41a8 2fbd
00000210: ed1d 623d 7ad6 acbd 135f 923c ea3e 583d
00000220: 2ddc b3bd 9438 d6be a148 02bd 5837 c33e
00000230: bca5 af3d 5761 1abe 2998 3139 8641 96bd
00000240: c03f 36bf 1ac6 6b3c 153f 1a3e 450a 19bf
00000250: 44c6 433d b442 5cbd af7c a2bc 0025 8e3e
00000260: de23 2b3d f05a 1b3f 95b7 8c3c e160 80bd
00000270: 8078 a9bc 3895 a63d 24f1 50bd a745 54bc
00000280: 7ecb 783e 7903 d63c 2443 c83e 9f64 d0bd
00000290: a0bf 7cbd fa44 833c aa18 b83d 1bda 63be
000002a0: b295 5fbc 2228 e13c 931b a6bd 7356 29bd
000002b0: 9b30 5e3d ab63 bd3c 658c 4ebd 9bc0 0cbd
000002c0: ef26 293e 8324 81bd 819b 32bc b2e4 5c3e
000002d0: 157d dabd d413 ff3e 1ae1 bfbc 7392 893b
000002e0: cfa6 8abd c385 043e 614a 96be 4efc 7b3c
000002f0: 77b4 33bc 4ca9 91bd ce5e 76bd 3fe8 b3be
00000300: 90e1 fabc 36e8 a1bd 06b5 48bf bd22 5a3f
0.015588499 -0.077296115 0.03632392 0.002393522 -0.22992088 -0.13727763 -0.26681167 0.032654632
0.1668555 -0.12467627 0.07535215 0.0891116 -0.10630844 0.32390216 0.0038137175 0.04875318
-0.0575241 -0.0749515 -0.6937988 0.08021865 -0.048612006 -0.0034220372 -0.16130096 -0.5931258
-0.007738394 -0.0063439566 -0.29077542 -0.19770111 0.06567942 -0.024952637 -0.07404612 0.0010473093
-0.06359483 -0.016173163 -0.17486176 0.08519907 0.0017520665 -0.010904815 -0.031624664 0.02691734
-0.1303835 -0.064860776 -0.3505362 -0.17326452 0.030106626 0.046276055 -0.036842745 0.064064465
-0.099982195 -0.014915665 -0.07640079 0.21080425 -0.020053526 0.18894775 0.064951666 0.014599261
-0.12834717 -0.15016349 0.012605985 0.04287696 -0.020430764 -0.22933987 0.1274526 0.05147722
-0.024121108 -0.14579383 -0.0030177415 -0.3052481 0.037157945 1.1408156 0.023142347 0.007271489
-0.14392306 0.021186024 -0.023721779 -0.11080965 0.35648394 0.2004213 -0.029048352 0.09490424
0.0063862423 -0.04160704 -0.006992173 -0.050798077 0.20814338 0.007878713 0.16250217 0.01761328
-0.24769118 0.020190235 -0.06915322 -0.0038965808 -0.057309244 0.21847607 -0.05005881 0.40805584
0.050339196 0.043810897 -0.027543996 -0.021868752 0.0010299663 0.10438315 0.017507963 -0.008905735
-0.17216693 -0.047008112 -0.13449696 0.38598463 -0.11278518 0.016405856 0.034071308 -0.09185539
-0.048905198 0.10799164 -0.046522032 0.07872695 -0.26503417 -0.0035432538 -0.19768046 -0.42796215
0.035360113 -0.00910575 -0.37809002 0.020663977 0.08026688 -0.020356476 0.015852332 -0.06259041
-0.14693497 0.04286237 -0.00685479 -0.04288507 0.05520432 -0.08439346 0.0178676 0.052794375
-0.087822296 -0.4184004 -0.031807546 0.3812816 0.08576533 -0.15076195 0.0001693672 -0.07336716
-0.71191025 0.014390493 0.15063126 -0.59781295 0.047796503 -0.05377455 -0.019834844 0.27762604
0.041782252 0.60685635 0.017177382 -0.06268478 -0.020687342 0.0813393 -0.05101122 -0.01295606
0.24296376 0.026124703 0.39113724 -0.10175442 -0.061706185 0.016024102 0.08989079 -0.2225117
-0.01364653 0.027484957 -0.08110728 -0.04134221 0.054245573 0.023118814 -0.05042686 -0.03436337
0.16518758 -0.06305792 -0.010901333 0.21571615 -0.10668389 0.49819815 -0.023422766 0.0041983663
-0.067700975 0.12941651 -0.29353622 0.015379978 -0.010968319 -0.07112369 -0.060149007 -0.35138127
-0.030625135 -0.07905619 -0.7840122 0.85209256

layers.0.fc_pool.bias f4 [14]
00000000: 4075 a7be a8d4 263e de27 12be b3dc 823b
00000010: b929 2dbe 92e7 60bf 1d57 adbe 5616 3abe
00000020: 423b 1b3d dc21 c5be 78db 283e 2ab9 d2be
00000030: 7ae3 59be 57e4 0a3e
-0.32706642 0.1629206 -0.1427302 0.0039935946 -0.16910447 -0.8785335 -0.33855525 -0.18172583
0.03789831 -0.38502395 0.1648997 -0.41156894 -0.21278182 0.13563667

layers.0.fc_self.weight f4 [124, 14]
00000000: 5e57 bebd 50c0 b8bd aa79 413f 544d 8d3e
00000010: b3f6 98bd 0393 f7be a263 bdbd 6d86 52bf
00000020: 1669 1a3f d663 60bf 90b4 0c3f 323f 08be
00000030: d6b6 1b3e 89c7 123e 765f 5dbd 7968 15be
00000040: a9f9 653d 6be1 5cbe d75e 25be ac03 da3d
00000050: 9613 80be 883e a7be 3371 84be 2ce8 6c3e
00000060: fd8e babe 4297 a13e 080f 3d3e fa56 843e
00000070: 5d62 ab3e 37db b0be fea1 80be 7bb2 e7be
00000080: 4315 c5bd f4b9 903e 68c1 cebe c0be 6a3e
00000090: 99f2 2b3b 0f0d 6b3e e406 713e 87c4 ab3e
000000a0: 01b7 c63d d922 9cbe 22e2 6a3e 53d6 fa3d
000000b0: 0653 c5be 7ebb d13e 83df cbbd 201c 0ebe
000000c0: 1d2c 7ebe b03f c13e 326a dd3e 139e c6be
000000d0: 05df 683e 4281 da3d f922 eebe 2598 be3e
000000e0: ffea 82bf 0c81 90be a5a4 4bbd ac35 b8be
000000f0: bc1f 2a3e c41c 523e eb6c d0be c081 653e
00000100: 21cf 20bd 79e6 41bf 9045 cabe 0234 ad3d
00000110: e1de 04bf bf0b 8f3c 57c6 75be c9c2 d13d
00000120: 9ecc 6c3d e4a9 84bd 5661 cabd f9f8 f7be
00000130: e0f5 163e e78f 10bf b56b a0be 5483 d7be
00000140: 545d fb3e d2b1 6d3d 239c 27bf bc76 103f
00000150: 0200 8fbe 22a2 0b3e 650c 413f 8592 bcbe
00000160: bc6e 113e 67a0 973e ea4f 55be 1beb b53e
00000170: 43b0 ce3d fbf4 cebe 8726 0d3f 3b70 1a3d
00000180: aae8 50bd 0c8f e0be 1955 a93e c2d5 833e
00000190: 35d3 6d3e 5e88 10be fc00 a93d 939a 0cbf
000001a0: 8ca7 d83e c507 d9bd 2ee9 1bbe dd89 b53d
000001b0: c96f b53e c36c 353e 7757 5e3d f4b7 fc3e
000001c0: 18b6 ee3d 1dac f1bd f937 93bc 3345 6abe
000001d0: 6e26 b0be 65bd 663d 243c e7bd 2f3d 123e
000001e0: d7b3 03bd 7c09 93bd 6ec6 1dbf e293 8e3e
000001f0: 39a5 033e 1a98 163e 1f00 9a3d e414 a23e
00000200: ce0f 2abe d5bf 8a3d 264f 33be 1ec4 41bf
00000210: 43ca 00be bcff 133c 9602 f63d 97ea 993e
00000220: d75c e83b 1bd1 6dbe 02c5 e43d f94f b43d
00000230: d2da bfbd 7048 323e c397 783d 2ac8 d43e
00000240: 059a abbd bcd6 5a3d 730a 80be a1aa 183e
00000250: 6c6f d33e b7a6 0e3e 0b49 bebe cb48 333e
00000260: 87d6 05bf 9006 063f 6d4d 1b3e d470 c23e
00000270: 224a 9a3e 3ad6 3fbf e7f1 17bd e53c 0e3e
00000280: 9117 0ebf 9444 2abe 2582 4a3e accf 80be
00000290: ffb6 713e 003b 123f ffea 1abf f8fb c1bc
000002a0: 36d9 09bf 088f ec3e e1af af3e 603a e23e
000002b0: f30d 0ebd 8ab8 86bf 41fe 963e 7477 263e
000002c0: 933a 0c3f 0e85 c93e 838b 123f b554 e9be
000002d0: 6d8e f7bd d30a 1c3e e148 90be 8fc7 04bf
000002e0: b53a 59be 6b2b 343f 57b2 0e3e 76ce 923d
000002f0: 0282 d43d 452e c0be 1e9f 81be 0a55 293e
00000300: 0297 343f 671a 75be aad1 22be 1510 d8bc
00000310: 9024 483d df6d 10bf f2c8 473e b2c8 97bd
00000320: 3164 3bbe 6c35 973e 96bb e2bd 1395 57bd
00000330: 8f65 c8be 7622 7d3e cc8e 263f 1d8b 303e
00000340: a8f8 293e 531e 653e d990 fabd 3d4a 2dbc
00000350: e41b 003f 95f1 0e3f 328a 063d 2676 6e3d
00000360: da75 f6bd f758 8abe 2ee2 a43e 27d2 3b3e
00000370: 9e16 823d 6769 dd3c 685a fbbe 6225 f0be
00000380: f63f f6be 05a4 963c bdad 63bd 6750 94be
00000390: aa85 3cbd 376f cc3e fea1 47be 2d0c 09bf
000003a0: a5fd 96bd 3df9 eb3e acfb c2ba d9b7 96be
000003b0: 3cf9 31be f343 e03d f366 62bc 88a7 113e
000003c0: 79cb 91bd e1a4 9d3d d0e0 34be 5965 38bf
000003d0: d4a9 f3bd 4817 cabe 6774 0ebd 51e0 923e
000003e0: f9c2 dabe cf04 a43e 7972 63be e621 adbd
000003f0: 22e5 b5bd 6ea7 f4be 8348 07bf 0cd7 35be
-0.09294008 -0.09021056 0.7557627 0.2759806 -0.07468929 -0.4835435 -0.09247519 -0.8223637
0.603166 -0.8765234 0.54963017 -0.13305357 0.15206465 0.14333929 -0.054046117 -0.14590634
0.056146298 -0.21570365 -0.1614946 0.106452316 -0.25014943 -0.32664895 -0.25867614 0.23135442
-0.36437216 0.31560713 0.18462765 0.25847608 0.33473483 -0.34542248 -0.2512359 -0.45253357
-0.09623196 0.2826687 -0.40381932 0.22924328 0.0026237129 0.229542 0.23537785 0.33548376
0.09702874 -0.30495337 0.22937825 0.1224791 -0.38539904 0.40963358 -0.09954741 -0.13877916
-0.24821515 0.37743902 0.43245083 -0.38792476 0.22741325 0.10669185 -0.46511057 0.37225452
-1.0227965 -0.28223455 -0.049717564 -0.35978448 0.16613668 0.20518786 -0.40708098 0.22412777
-0.039260034 -0.757423 -0.39506197 0.08457185 -0.51902586 0.017461656 -0.24001442 0.102422304
0.057812326 -0.064777166 -0.098818466 -0.4843214 0.14742231 -0.5646958 -0.31332174 -0.42092383
0.4909464 0.05803091 -0.6547262 0.56431174 -0.27929693 0.13636068 0.7540954 -0.36830536
0.14202398 0.29614565 -0.20831266 0.35530934 0.10092213 -0.4042128 0.55136913 0.037704688
-0.051003136 -0.43859136 0.33072737 0.25749022 0.232251 -0.1411452 0.08252141 -0.5492336
0.42315328 -0.10597185 -0.1522567 0.08864186 0.35436848 0.1771727 0.05428263 0.49359095
0.116558254 -0.11800406 -0.017971026 -0.2287796 -0.3440432 0.056332964 -0.11290768 0.14281152
-0.03215393 -0.071795434 -0.61630905 0.278472 0.12855996 0.1470646 0.07519554 0.31656563
-0.16607592 0.0677487 -0.17510661 -0.75689876 -0.12577157 0.00903314 0.12012212 0.3006179
0.0070911455 -0.23224299 0.11170389 0.08804316 -0.093679085 0.17410445 0.060691606 0.41558963
-0.08378986 0.053427443 -0.25007972 0.1490884 0.41295946 0.13930784 -0.37165102 0.17508237
-0.5228047 0.52353764 0.15166254 0.37976706 0.30134684 -0.7493626 -0.03709593 0.13890417
-0.5550471 -0.16627723 0.19776209 -0.2515844 0.23604964 0.57121277 -0.60514826 -0.023679718
-0.5384706 0.46202874 0.34313872 0.44185162 -0.03468127 -1.0525067 0.29490855 0.16256505
0.5477688 0.39359325 0.5724413 -0.4557244 -0.120877124 0.15238504 -0.28180602 -0.51867
-0.21213801 0.7037875 0.13935219 0.071682855 0.103763595 -0.375353 -0.2531671 0.16536346
0.7054292 -0.23935853 -0.15900293 -0.026374856 0.048862994 -0.5641765 0.19510248 -0.074113265
-0.18299939 0.29532945 -0.110709354 -0.052632403 -0.39139983 0.24720177 0.6506164 0.17240568
0.16598761 0.22374849 -0.12234659 -0.010576782 0.5004256 0.55837375 0.032846637 0.058218144
-0.12034197 -0.27021 0.3220381 0.18341886 0.0635197 0.027027799 -0.49092412 -0.4690352
-0.48095673 0.018388757 -0.05558561 -0.28967592 -0.04602591 0.399286 -0.19495389 -0.53534204
-0.073725976 0.4608859 -0.001487603 -0.2943714 -0.17380232 0.1095046 -0.01381849 0.14224064
-0.071188875 0.07697464 -0.17663884 -0.72029644 -0.118976265 -0.39470887 -0.03477898 0.28686765
-0.42726877 0.3203492 -0.22211637 -0.08453731 -0.08881594 -0.4778399 -0.5284502 -0.17757815

layers.0.fc_neigh.weight f4 [124, 14]
00000000: 38f2 c7bd 7847 f7bd 3fe6 14be 9bdd 56bd
00000010: 3d3e 3dbe 5cc6 9cbd cef4 14be 5018 c2be
00000020: a70a 59be f9d5 28be 4a1b 03be 9a93 1bbe
00000030: 98e0 d53c ce61 14be 053f a63d acc4 18be
00000040: e1c7 bebc 776c 0fbe 6619 01be 9d64 65bd
00000050: 7da6 fabd ee34 413d f140 06be 4ddf fd3c
00000060: 49a5 3e3d 7a44 d9bd 4605 e2bd f10f 01be
00000070: 1cb6 aabe 9966 e8be 9514 51be 4485 abbd
00000080: 0d35 cabe fb16 1fbd b1c5 0abe 67ca 76bd
00000090: 3cd1 fbbd ba6a 5a3d 4a03 afbe 1f94 38be
000000a0: 78a2 48be f82a 5bbe 9d89 843d c33a d8bc
000000b0: 22d3 ad3d 02bd 2abe c961 6dbd 6315 adbd
000000c0: 8f0b 57be b63a eabd b987 d8bd 5f8c 2fbe
000000d0: f826 3bbe ccf6 97bd 0cc0 0ebe 6c64 8abb
000000e0: 86f9 acbe 5c4d 6cbe aa3f 5bbe d300 c6bd
000000f0: ed02 06be fdd3 bf3c d112 71bd 405c 75bd
00000100: f5c9 ebbb 8667 483d a999 83be ca6c 26be
00000110: c673 bebd 1934 a5be ee23 ba3d b6fd 86bd
00000120: 3b5c 1abe 880b f0bb a400 af3d c8af 97bd
00000130: 0cb5 573d b776 003d 64b3 0cbe 5c52 253d
00000140: 7c81 373c 453e 643d 66cd c2bd 3e1d 653b
00000150: 9dd2 ccbd 0951 b2bd 20e8 64bd b55b 00bd
00000160: eb25 6cbe 53f5 76bd 3b6f 0cbe 5791 9fbe
00000170: c5e6 22be b0f9 fdbd 207c 5cbe a6ea 3abe
00000180: bc45 36be dcdb 0dbe 1ff3 e7bd a0b8 8abd
00000190: bff2 9bbd 9e34 1abe cb16 59bd 2405 67be
000001a0: 19fc 3fbc b644 e83d 84c6 9bbe b168 7e3d
000001b0: 5594 0ebe c920 64bc e09a c83b 93e8 ffbd
000001c0: cae3 6a3c 690e 2ebe 349b 84bd 734f 6abd
000001d0: f1f1 52bd cd64 b43d 0692 083e 9439 eabb
000001e0: 5cd9 553e af8d 253d c94a f2bd 1564 a0be
000001f0: 21f7 79be 995b 6cbe 1a66 7fbb ecc4 4dbe
00000200: 99fa 96bd c189 7b3c 1c01 8abe 2243 513d
00000210: f636 34bd aa0e a9bc b2f9 0bbe 1288 1ebb
00000220: f99e ebbc ce43 4fbe af85 f1bd 00dd 90be
00000230: 1e7a 523d ecec 8bbd 4cf0 f9bd 116e 3fbd
00000240: b528 26be e732 00bf 5fad 02bd 6804 26bd
00000250: 9ced 64be d5ef 6c3d 5705 55be 5ea4 2cbd
00000260: c9d9 ccbd bf6a ba3c cbc4 d6bd ca98 1ebe
00000270: aaa2 d3bd 2c8b 8bbe 8824 6abd dcff 88be
00000280: 9699 6dbe 4a3f f43d bbce 25be 59ed dabd
00000290: 96c2 34be eaf9 4dbe a99c 80bd dd4a f8bd
000002a0: 20aa b4bd 29c5 cebe e699 3cbe 9769 90bd
000002b0: 7698 5fbe 2449 1bbe 6be4 8bbe 3a9c dcbd
000002c0: ccac 69be 708c efbd af42 70be 2d78 48be
000002d0: 60d1 97be 89db 90be f727 5fbe de1a 8abe
000002e0: 1471 27be 4ee2 e83c 33cb e0be 6a8d 4c3d
000002f0: 640a 29be a923 023d fa9e b5bd 76fe 183e
00000300: 5fd1 9bbe 38ab d7be 3a6e 6fbe 392c c8be
00000310: e9fe 8fbe b8b6 7dbe f27d 8d3d 2665 dcbb
00000320: 4610 91be c8e5 c9bd 0811 263e 89f0 bbbd
00000330: 4c0a fe3c 4c9a 133e 0815 60be b920 20bd
00000340: 4a34 7fbe 00ca 50be df12 45be e277 70be
00000350: b83a 4abe 8b3c fcbd 85c6 98be 402e 233e
00000360: 59fa c8bd dc3f 1abc 7eea b3bd cc7b 373c
00000370: 8642 1dbe 6d4c 8bbd b102 0abe 2f18 60be
00000380: 64c1 75bd de6b 12be 736c efbd 053a 70be
00000390: 44d0 30be a485 92be 5a74 98be ea94 143d
000003a0: 694a 64be ba3f eebd 2c07 47be d793 3fbe
000003b0: 5715 6fbd 3875 23be 624e 54be a728 82be
000003c0: e75e 21be ddaf b43d 6189 c3be eb68 9e3e
000003d0: 6bac a8bd 4707 60bc ab0b 243e ec85 a83e
000003e0: e7a2 a5be d742 3cbe 5305 0fbe 48a4 a1bc
000003f0: cf52 47be 29cf 66be 6756 cdbd 10b4 f53d
-0.097629964 -0.120741785 -0.14540957 -0.052457433 -0.18480773 -0.076550215 -0.1454651 -0.37909174
-0.2119547 -0.16487874 -0.12803379 -0.15193024 0.026108071 -0.14490435 0.08117489 -0.14918774
-0.023288669 -0.1400622 -0.12607345 -0.056004155 -0.12238786 0.04716962 -0.1311071 0.030990267
0.046544347 -0.10608764 -0.11036162 -0.12603737 -0.33342063 -0.45390776 -0.20418008 -0.08375028
-0.394936 -0.038840275 -0.13551976 -0.06025162 -0.12295768 0.05332444 -0.34182197 -0.18025254
-0.19593227 -0.2140311 0.0647156 -0.026395207 0.08487536 -0.16673663 -0.057954583 -0.08451345
-0.21000503 -0.114369795 -0.10572762 -0.17143391 -0.18276584 -0.0742012 -0.13940448 -0.004223397
-0.3378412 -0.23076385 -0.21411005 -0.09668126 -0.13087054 0.023416514 -0.058855835 -0.05990243
-0.007195706 0.048926853 -0.2570317 -0.16252437 -0.09299426 -0.3226631 0.09088884 -0.0659136
-0.15074246 -0.0073255934 0.08545044 -0.074065745 0.052662894 0.031363215 -0.13740307 0.040361747
0.011200305 0.055723447 -0.09511833 0.0034960057 -0.10001109 -0.087068625 -0.055885434 -0.03133746
-0.2306134 -0.060292553 -0.13714306 -0.31165573 -0.15908344 -0.1240114 -0.21531725 -0.18253574
-0.17800039 -0.13853401 -0.113256685 -0.06773496 -0.076146595 -0.15059134 -0.053000253 -0.22560555
-0.01171782 0.113412306 -0.30424893 0.06211156 -0.13923772 -0.013923832 0.006121978 -0.12495532
0.014336536 -0.16997685 -0.06474915 -0.057204675 -0.051500265 0.08808289 0.13336954 -0.007147977
0.20883697 0.040418323 -0.118306704 -0.31326357 -0.24410678 -0.23081817 -0.003897077 -0.20094651
-0.073720165 0.015352667 -0.2695397 0.051089413 -0.043997727 -0.020636875 -0.1366947 -0.002418999
-0.028762328 -0.20240709 -0.11793076 -0.2829361 0.05138599 -0.06832299 -0.12204036 -0.046735827
-0.16226466 -0.5007767 -0.03190362 -0.040531546 -0.22356266 0.05784591 -0.20802818 -0.04214894
-0.10002477 0.022755979 -0.10486754 -0.15487972 -0.1033376 -0.27254617 -0.057163745 -0.26757705
-0.2320312 0.11926134 -0.16192143 -0.10689802 -0.17652354 -0.20114866 -0.062798806 -0.12123654
-0.08821511 -0.40384796 -0.18418083 -0.0705139 -0.21835503 -0.1516462 -0.27322707 -0.10771985
-0.22819823 -0.11696708 -0.23462938 -0.19577093 -0.29651928 -0.28292492 -0.21792589 -0.26973623
-0.1635173 0.028428223 -0.4390503 0.04993955 -0.1650787 0.03177229 -0.08868213 0.14940819
-0.30433175 -0.42122817 -0.23381892 -0.3909624 -0.2812417 -0.24776733 0.06908788 -0.006725925
-0.28332728 -0.098582804 0.16217434 -0.09176738 0.03101077 0.14414328 -0.21883023 -0.039093707
-0.2492229 -0.20389557 -0.1924548 -0.23483232 -0.19748962 -0.12316235 -0.29838958 0.15935612
-0.09813375 -0.009414639 -0.0878496 0.011198949 -0.15357408 -0.068016864 -0.13477589 -0.21884225
-0.059998885 -0.1429896 -0.11690607 -0.23459633 -0.17266947 -0.28617585 -0.2977627 0.036274828
-0.2229401 -0.116332486 -0.1943633 -0.1870874 -0.05836996 -0.15962684 -0.20733026 -0.2542164
-0.15758859 0.08822606 -0.3819075 0.3093942 -0.08236011 -0.01367361 0.16020076 0.32914674
-0.32350847 -0.18384872 -0.13966875 -0.019731656 -0.19465183 -0.22539963 -0.100262456 0.11997235

layers.1.bias f4 [2]
00000000: 4ff6 043d 30f5 04bd
0.03246146 -0.03246039

layers.1.fc_pool.weight f4 [124, 124]
00000000: 6b89 b03e 265a 68be e955 5bbe 35b4 983c
00000010: 093d 143e 5416 5c3e fcbd 153e 147c b53c
00000020: 3484 31be d8b5 953d 84f2 3bbe ca8b f0bd
00000030: 789e c53d d48f b6bc 65ed b2bd a9ab 933e
00000040: b79f 3fbe cc74 e3bd f701 6dbe 0729 273e
00000050: 2a0f efbe a6b0 6ebe 7eeb 1dbe 4ceb 213e
00000060: 24c4 1f3e 1f23 b3be 140b d63d 0906 37be
00000070: a478 6d3e 8124 f5bd a14b 20be b23d e93d
00000080: f004 903c 0772 cdbe 7a98 753e 3ce2 fe3d
00000090: 63ef 733d 5f74 8c3e 45ac a7bd 3c18 6d3e
000000a0: bc53 bfbd babe 623e a3d3 1e3e f162 a03e
000000b0: a75c 8bbe d695 89be 23e5 c7be 02e1 4a3d
000000c0: 83ae c9be 6907 8bbe 8aa6 753e 5702 9bbd
000000d0: 896a 83be 7427 b73e f6b9 123f a18f 3cbf
000000e0: e494 3a3e 1e89 54bd be10 cdbe 9e18 e5bd
000000f0: d73b 1b3e 8587 c83e 9595 34be 7ebc 75be
00000100: 864e 153e 0414 c03e 146d 173d 334d d3be
00000110: 4535 d53c f9a6 623d 9958 183d 7896 5dbe
00000120: 7c30 53be a49b dc3e 932b 60be a8ce 83be
00000130: be8c 7dbc a30e 03bf 0832 193d f537 d7bd
00000140: 0d91 3cbf 32e5 b9be edce cc3d 8655 f23d
00000150: 9364 a6be 4553 a03d 26a5 52bd 3d1d bc3e
00000160: cf57 ae3d 2b4c 9fbd eecc 51be ec32 ecbe
00000170: b890 3c3e c944 16be 2f64 c23e 80bd c1be
00000180: 1f3c 14be 800c 7e3e e5ee bbbc c53a 05bd
00000190: dd94 c43e 69ec ac3d e74f 523d b17f 423c
000001a0: 81df 603d 972a 2ebf cd82 62bd 78db bcbe
000001b0: ae0b a1be d518 96be 3ee1 6bbc 5183 e03e
000001c0: 2c0b f8be 7c12 dabd 496e 0a3e b7c4 1d3e
000001d0: 4438 49be bc84 e23b 6c0d 3b3e 328b 253e
000001e0: 10ca 1ebe 6df9 f03e b8a3 183d ba89 99be
000001f0: 7eae 0bbf a975 a6be b770 353e 7f9b cebe
00000200: 6053 f53c 4b30 2e3d 402c 0e3d 87b3 223a
00000210: d3ef 223e a79d 7d3e 93db bebe 0e73 03bf
00000220: 5adb cf3e acd7 de3d 7c7b ba3d d574 e0be
00000230: 15a9 8e3c 6d26 10be 53bc 153e 2cd0 9dbe
00000240: 6917 a1be 289e e93d 27b3 b0be a3c9 0cbc
00000250: 81d1 693e cb3b 1cbf 5408 cfbd 1221 a73c
00000260: f68e d83e 2596 dcbe 84d1 1b3e 996a cd3e
00000270: bf96 1abf f25d 323d c3f4 213f c3a3 3bbe
00000280: d3d5 e73d d7c2 823d 19fb cdbe 17d0 2f3e
00000290: 4acf 64be 807f 8fbd 9798 04bf 2fbd b3be
000002a0: 9e01 17be 8163 5dbe 9f60 fabe cb6e 9b3e
000002b0: 88a3 98bc 7d5a 933e bde5 c6bd 759c 743d
000002c0: 6434 263c d363 febe 2d75 90be 3128 8a3c
000002d0: a579 713d 6b35 db3d 9102 6e3b 5dfc ba3d
000002e0: 93d2 91be 1821 efbd cc98 0abf 5a29 573c
000002f0: 26f8 83be 5060 d73e 6d42 34be b336 29bf
00000300: 921c 29be de7a 0ebe da79 e63e 462d 973d
00000310: 16d5 94be 05b9 813e ef7a b1be 30de fcbe
00000320: 33d3 9abe c253 8dbf 0ab4 16bf 5669 1bbe
00000330: 77ad 27bd 0643 18be 4495 17be 0bf1 5bbf
00000340: 1166 53bf 8720 303e 1d6d a9be 6897 8c3e
00000350: 4a7f 9bbe ab4e e0bd 0fc1 133d 2781 98be
00000360: 9bd5 0dbf 2c07 35ba fcdb 5dbe c361 183e
00000370: 0cef 7bbe dc62 6d3d 7a8e e83e df0d ebbe
00000380: b36b 88be 2ac4 f3bd 2a30 91be 8077 5dbe
00000390: ce01 bdbe 4833 8bbe c9ab 42bf 2105 943d
000003a0: cd57 76be b01d 03be 97ef 5e3e 32c3 943e
000003b0: 3d6f 49bd f49a c5be 4e2e ecbd 9239 c33e
000003c0: 1256 423e 3c5c 27bf 7db4 d2bd 62f7 c9be
000003d0: 5870 0cbe 4098 18bf d06f e6bd 8076 c5bd
000003e0: b69a 213e f3fd d3be 391c 1e3d 1869 cdbd
000003f0: b4f3 e4be a565 003d 3d4c 373e b811 a83e
0.34479842 -0.22690639 -0.21419491 0.018640617 0.14476408 0.21492893 0.14623255 0.022153892
-0.17335588 0.073100746 -0.18354231 -0.11745413 0.09649366 -0.02228538 -0.08736686 0.28841904
-0.1871327 -0.111062616 -0.23145281 0.16324244 -0.46691257 -0.23309574 -0.15421864 0.15812415
0.15602165 -0.34987733 0.10451332 -0.17873396 0.23190552 -0.11969853 -0.1565385 0.113887206
0.01758048 -0.40126058 0.23983946 0.124454945 0.05955447 0.27432534 -0.08187155 0.23153776
-0.09342143 0.22143069 0.1551042 0.31325486 -0.27219126 -0.26872128 -0.39042005 0.04953099
-0.39390954 -0.2715409 0.23989311 -0.07568806 -0.25667217 0.35772288 0.57315004 -0.7365666
0.1822086 -0.051888578 -0.40051836 -0.11186336 0.15159546 0.39165893 -0.17635186 -0.23997685
0.14580736 0.3751527 0.03696926 -0.41269836 0.026026377 0.05533502 0.03719387 -0.2163943
-0.20623964 0.43087494 -0.21891622 -0.25743604 -0.01547545 -0.5119421 0.03740123 -0.1050872
-0.7365883 -0.36307675 0.100004055 0.118327186 -0.32498607 0.078283824 -0.05142703 0.36741057
0.08512842 -0.077782 -0.2048833 -0.461326 0.18414581 -0.14674677 0.3796706 -0.3783989
-0.1447606 0.24809456 -0.022941062 -0.03252675 0.38394824 0.08443529 0.051345732 0.011871264
0.05490065 -0.68033737 -0.055300523 -0.3688619 -0.31454223 -0.2931582 -0.014396964 0.43850186
-0.48446023 -0.10648057 0.13518633 0.15407072 -0.1965037 0.006912796 0.18266839 0.1616638
-0.15506768 0.47065297 0.03726551 -0.2998789 -0.5456313 -0.32511643 0.17718779 -0.4035301
0.029946983 0.042526525 0.03471017 0.0006206561 0.15911798 0.24767171 -0.37276897 -0.51347435
0.4059704 0.1088098 0.09105584 -0.43839136 0.017414609 -0.14077158 0.14622621 -0.30822885
-0.31463173 0.11407119 -0.34511682 -0.008592996 0.22833826 -0.61028737 -0.1010901 0.020401511
0.4229657 -0.430833 0.15216643 0.4012039 -0.6038627 0.043546624 0.632641 -0.18324189
0.113200806 0.06384819 -0.40230635 0.17169224 -0.223447 -0.070067406 -0.51795334 -0.35105273
-0.1474671 -0.21619989 -0.4890184 0.30357966 -0.018632665 0.28779975 -0.09711788 0.05971952
0.010144327 -0.49685535 -0.28214398 0.016864868 0.0589539 0.10703548 0.0036317448 0.09130166
-0.28480968 -0.11676234 -0.541394 0.013132418 -0.2577526 0.42065668 -0.17603464 -0.6609909
-0.16514805 -0.13914058 0.4501484 0.07381682 -0.29068822 0.2533647 -0.34664103 -0.49388266
-0.30239257 -1.1041186 -0.5886847 -0.15176901 -0.040936913 -0.14869317 -0.14803034 -0.8591468
-0.82577616 0.17199908 -0.3309106 0.27459264 -0.3037055 -0.10952505 0.036072787 -0.29786035
-0.5540406 -0.0006905671 -0.21665949 0.14881043 -0.24602908 0.057955608 0.454212 -0.4590902
-0.26644668 -0.1190265 -0.2835706 -0.21627617 -0.3691544 -0.27187562 -0.76043373 0.07227541
-0.24056931 -0.12804294 0.21771084 0.29055172 -0.04917835 -0.38594782 -0.115322694 0.3812986
0.18978146 -0.65375113 -0.10288332 -0.3944655 -0.1371473 -0.59607315 -0.11251795 -0.09641743
0.15781674 -0.41404685 0.038601134 -0.10029811 -0.4471718 0.031346936 0.17900176 0.32826018

layers.1.fc_pool.bias f4 [124]
00000000: ce6f 3abe 3d2a b9bd b572 dfbd 257f 94bd
00000010: bd30 e2bd 8b95 653c 9cca 26be f280 2abe
00000020: 551d 69be 3bff 73be f37c a1bc 2e3b b6bd
00000030: ad7f 1fbe b216 d3bb 3f84 48bd aa13 8bbd
00000040: 7b99 f1bd 7a29 fbbd 066e 91bd a1ba 61bd
00000050: f5dd 33be 5565 ffbd 814a adbd e49f d6bd
00000060: 6908 1abe 9aa7 8cbe 8586 13be f599 1ebe
00000070: 544b c0bb 5b78 88be a9e8 7fbd 64d3 01bd
00000080: f906 96bd c3e1 1abe b390 08be 48f6 5fbe
00000090: 5175 cfbd 7c81 88bc 2e2f 7dbd aeca 3cbe
000000a0: c12a 82be b377 1cbe a09b e1bd ac72 bcbd
000000b0: 16a6 9ebd 546c ffbc ba11 20be 3f6c 04be
000000c0: 921d 5cbe 55d9 22be 2aea 83be 9949 1bbd
000000d0: 80bd 5a3c 0df2 d6bd 039d eabd d526 1c3d
000000e0: 1305 0ebe 41fe 45be bf94 4ebe 5f67 d1bc
000000f0: 6cf0 0cbe 38f6 3cbe de8e eebc 1910 18be
00000100: b5f9 6dbc 783f fabd d0c9 44be 2977 72be
00000110: b09a 0bbe f1b6 4dbe c474 5ebe b3de cdbd
00000120: 71e5 9cbd 46c1 78be 2373 33be 326d 11be
00000130: a3bc 75bd def6 77be 3088 29be 9f4d 1cbe
00000140: 901c e3bc f10c 16be 3450 d6bd 1830 d0bd
00000150: 5b0e 49be 5a47 44be 0030 05be 0426 bbbd
00000160: ff68 25be 61ea 00be 83a4 eebd f634 37be
00000170: 04a9 41be e389 2ebe 81f6 00be 4ec2 fdbd
00000180: 3d60 85bd 063a 7fbe 8c18 35be e887 73be
00000190: 72ff e8bd 06ae ddbd 8d5e 66be 87c5 9bbd
000001a0: 53cb 28be e3ac 69bd a1a9 bbbd 7907 36be
000001b0: 7fc3 afbd e4a2 3fbe d980 15be 11f9 27bd
000001c0: 06f4 59be 342f 7bbe 94df a2be 2b4b dfbd
000001d0: be5b 0dbd 97c6 f4bd 72dd 60be 8aa5 aebd
000001e0: 965d 333c 0d51 6abe 2a5a 0abd f329 57be
-0.18206713 -0.090412594 -0.109105505 -0.072508134 -0.11044452 0.014012705 -0.16288227 -0.16650751
-0.22765096 -0.23827831 -0.0197129 -0.088980064 -0.15576048 -0.0064419145 -0.048954245 -0.0679086
-0.11796852 -0.122637704 -0.071010634 -0.055109624 -0.17565139 -0.124704994 -0.08461476 -0.104797155
-0.1504227 -0.2747162 -0.14406784 -0.15488417 -0.005868355 -0.26654324 -0.06247774 -0.03169574
-0.07325549 -0.15125184 -0.13336448 -0.21871293 -0.10129798 -0.016663305 -0.061812572 -0.18436691
-0.25423244 -0.15280037 -0.11016011 -0.092015594 -0.07746522 -0.031179585 -0.15631762 -0.12931918
-0.21495655 -0.15903218 -0.2576459 -0.037911985 0.013350844 -0.10495386 -0.11455729 0.03812297
-0.13869123 -0.19335271 -0.2017393 -0.025561986 -0.13763589 -0.184533 -0.029120859 -0.14849891
-0.014524867 -0.12219137 -0.1921761 -0.23678268 -0.13633227 -0.20089318 -0.2172423 -0.10052242
-0.0766095 -0.24292478 -0.1752439 -0.14201811 -0.05999435 -0.24215266 -0.16555858 -0.15263985
-0.02772358 -0.14653374 -0.10464516 -0.10165423 -0.19634382 -0.19167843 -0.13006592 -0.0913811
-0.16153334 -0.12589408 -0.11652472 -0.17891297 -0.1891213 -0.17044787 -0.12594034 -0.12390576
-0.065124966 -0.24924478 -0.17685145 -0.23782313 -0.11376847 -0.10824208 -0.22497006 -0.07606035
-0.16483812 -0.057049643 -0.091632135 -0.17776288 -0.0858221 -0.18714482 -0.14599933 -0.041009013
-0.21284494 -0.24529725 -0.31811202 -0.10903009 -0.03451132 -0.119519405 -0.21959475 -0.08527668
0.010947606 -0.22882481 -0.033777393 -0.21012096

layers.1.fc_self.weight f4 [2, 124]
00000000: 417f db3f dd76 36be 8e05 b7bf 33ce 753f
00000010: ea89 b8bf 4ab4 b43e 9b09 db3f 7e6a 733f
00000020: 8e46 92be 6a07 36bf 9ad8 493f 2909 c13f
00000030: ccac 0b40 23de a1bf 3d80 04bf c75b 39bf
00000040: 547c 8f3f e23d f5be 73dc 3bbf 4e29 b43f
00000050: d688 52bf b9f2 a3bf 30fe acbf 3e78 ea3f
00000060: c529 cd3f b554 f33f 520d 9bbf 4c3e 3fbf
00000070: 7570 5c3f 0bcb 8dbf 6235 3a3d b312 ba3f
00000080: 48ae 903f 4332 7f3f d2cf d63f e8fb 913f
00000090: 3ed8 dabe 769b bb3f 39d8 8d3f 2d87 0640
000000a0: 64d0 aabf 7248 66bf 2fb1 1040 3fb7 fc3f
000000b0: 92b3 303e 5efb 35bf d2a3 2c40 f894 09bf
000000c0: bf75 6f3f 995a 833f ed68 e13f 0684 9a3f
000000d0: 1074 88bf 35f0 84bf 741e d0bf 2243 173f
000000e0: 2392 a2bf 696d 0440 3c65 05bf 4301 1bbf
000000f0: 8d2e 423f 706b f53f 103a 873f 0686 743f
00000100: 1934 05bf 66b2 1040 aa0f a7bf 3a6d 8f3f
00000110: 5a05 443f 9e34 923f dc9a 74bf 30f6 9f3f
00000120: 5322 ff3e 8e75 6dbf c702 6cbf 2d06 a13e
00000130: a824 ee3f 98a2 563f 9324 c83e 05af 4d3f
00000140: fdba 98bf 81ac af3f c73c 03bf 4038 133f
00000150: da26 8abf 375e 1e40 72c2 96bf 2669 183f
00000160: c3b0 36be 8535 a1bf 6b69 313f 7ab3 61bf
00000170: c0cb 54bf a6f6 253f 65fc 2bbe a965 a4bf
00000180: 2b3f 373f e7f7 2c40 56dd 9fbf 1b30 9b3f
00000190: b782 943f 87ca b1bf ace3 c0bf 8f72 8b3f
000001a0: 2540 5ebf 7e9d 7bbf 8fc5 8a3f 5408 ac3b
000001b0: fa6e 623f 859a d43f 6ad2 0d40 d36e 49bd
000001c0: 1b6d 1e3f 808b 123f a213 5abf 7ef7 ab3f
000001d0: 1014 8f3f 565d 93be 9ed6 783e 8e34 3640
000001e0: fd87 b43f 19e0 e03f 40c5 963f 936b bfbf
000001f0: 6de6 dcbf a5ee be3d 98b2 d03f 2682 a4bf
00000200: 22f7 c63f d447 f3be ef53 00c0 c480 69bf
00000210: 8bd4 bc3e ea14 6c3f 1059 c8be 285c 95bf
00000220: a218 1ac0 0502 b53f 0053 773f 3e88 873f
00000230: 3a38 8ebf 3ccc 043f 1c1e 0a3f a2a8 edbf
00000240: df28 a43f d3df 6a3f 7509 a73f e183 d4bf
00000250: d9eb adbf 7f4e 01c0 cbc2 373f 4497 573f
00000260: cadf 70bf 1ee2 a43f 4d73 25be 2905 92bf
00000270: 40d4 bebf 2f4c 7ebf e1be e9bf 0349 65bf
00000280: 0454 1d3f 846c abbf 7b0f 42bf f52f 10c0
00000290: 2906 5c3f 7a42 a63f c988 03c0 229e 09c0
000002a0: aa86 1cbe c17b eb3e 617f 27c0 6995 803d
000002b0: b7c5 47bf 3b0a 9ebf f8fc a9bf ffc4 b0bf
000002c0: e49c 5a3f 66f1 993f ccbb f33f de68 bfbe
000002d0: dc61 903f 82fe d7bf 5862 4c3f 97aa 393f
000002e0: b295 2cbf 8fab ffbf 96fe d0bf f7e3 80bf
000002f0: 24e4 b63e 500e 14c0 4d51 863f 7618 79bf
00000300: f165 77bf d3dd bcbf aabe b73f 7c65 a2bf
00000310: fe6d 67bf d4de a33f a6cd 6c3f f308 3fbf
00000320: fe39 d0bf 787d 80bf c6d9 64be e971 51bf
00000330: 2dd3 a73f cee2 d0bf 9646 0c3f d1d5 0ebf
00000340: 43cf 8b3f d2f5 10c0 7cdf cd3f 2c59 12bf
00000350: 5860 fd3e 9120 d33f 75b5 32bf 940d 0c3f
00000360: 1919 543f a2f7 33bf 51fd 3e3e 879c a73f
00000370: 7d65 76bf 6d10 1ac0 64a0 823f 6415 8ebf
00000380: ffb4 2dbf 3ffc 993f 269a ba3f 27f3 17bf
00000390: 636a ce3e 9855 4a3f 101c 58bf b3fd b73d
000003a0: 0e32 5abf 8889 bcbf 287e 01c0 6e0a 0f3f
000003b0: 95e6 31bf b1bf 27bf f637 533f 185b acbf
000003c0: 9c78 a9bf 8572 95be 56f8 55be df40 42c0
000003d0: ea7c eebf babe bfbf 380e 89bf e9da be3f
1.714821 -0.1781878 -1.429857 0.9601776 -1.4417088 0.352938 1.7112306 0.9508437
-0.28569454 -0.7110506 0.7884613 1.508092 2.1824217 -1.2645916 -0.51758176 -0.72405666
1.1209817 -0.47898775 -0.73383254 1.4075105 -0.82240045 -1.2808448 -1.3515072 1.8317945
1.6028372 1.9010226 -1.211344 -0.7470443 0.86109096 -1.1077589 0.045461066 1.4536957
1.1303186 0.9968607 1.6782172 1.1405001 -0.42743105 1.4656818 1.1081611 2.1020005
-1.3344846 -0.8995429 2.2608144 1.9743422 0.17256 -0.7108668 2.6974988 -0.53742933
0.9353904 1.0262023 1.7610146 1.207154 -1.066042 -1.0385805 -1.6259294 0.5908681
-1.2700847 2.0691779 -0.52107596 -0.605488 0.7585228 1.9173412 1.0564594 0.95517004
-0.5203262 2.2608886 -1.3051655 1.1205208 0.76570666 1.1422307 -0.95548797 1.2497005
0.49830875 -0.927575 -0.9219174 0.31450024 1.8604937 0.8384185 0.39090404 0.80345184
-1.1932064 1.3724519 -0.51264614 0.57507706 -1.0793107 2.4745004 -1.177809 0.59535444
-0.17840867 -1.2594458 0.6930148 -0.88164485 -0.831234 0.6482948 -0.167955 -1.2843524
0.7158076 2.7026308 -1.2489421 1.2124056 1.1602391 -1.3889931 -1.506948 1.0894336
-0.86816627 -0.9828719 1.084154 0.005250016 0.88450587 1.6609656 2.2159677 -0.049177956
0.6188523 0.5724411 -0.8518621 1.3434904 1.1177998 -0.28782147 0.2430062 2.8469577
1.4104 1.7568389 1.1778946 -1.4954704 -1.725782 0.093228616 1.6304502 -1.2852218
1.5544169 -0.47515738 -2.005123 -0.91212106 0.36880907 0.9221941 -0.3913045 -1.1668749
-2.4077535 1.4141241 0.9661102 1.0588453 -1.1110909 0.51874137 0.53952193 -1.8567088
1.2824973 0.9174778 1.3049761 -1.6602746 -1.35876 -2.020416 0.71781605 0.8421519
-0.94091475 1.2881505 -0.16157265 -1.1407825 -1.4908524 -0.99334997 -1.8261377 -0.8956453
0.6145632 -1.3392491 -0.7580487 -2.252927 0.859469 1.2989037 -2.0552237 -2.1502767
-0.15285745 0.45992854 -2.6171496 0.06278498 -0.78036064 -1.2346872 -1.3280325 -1.3810118
0.85395646 1.2026794 1.9041686 -0.37384695 1.1279864 -1.6874545 0.7983756 0.72525924
-0.67415917 -1.997423 -1.6327693 -1.0069569 0.35720932 -2.3133736 1.0493561 -0.9730295
-0.96639925 -1.4755195 1.4355061 -1.268722 -0.9040221 1.2802377 0.92501295 -0.7462303
-1.6267698 -1.003829 -0.22348699 -0.8181444 1.3111321 -1.6319215 0.54795206 -0.5579501
1.0922626 -2.2650037 1.6083827 -0.57167315 0.49487567 1.6494313 -0.6980813 0.5470822
0.82850796 -0.7029973 0.1865132 1.3094643 -0.9624861 -2.4072526 1.0205197 -1.1100278
-0.67854303 1.2030104 1.4578292 -0.59355396 0.40315542 0.79036856 -0.8441782 0.08983936
-0.8523263 -1.4729471 -2.023325 0.5587529 -0.69492465 -0.6552687 0.82507265 -1.34653
-1.3239932 -0.29188934 -0.20895514 -3.0352094 -1.8631871 -1.498008 -1.0707464 1.4910556

layers.1.fc_neigh.weight f4 [2, 124]
00000000: cbb0 633e 125f 1bbf 23c5 2a3e 0728 35bf
00000010: 0a89 273d a90a 7d3e c1ff 253e 5896 963e
00000020: f407 d53e 8456 763d 6b5f 053e 8b66 4abf
00000030: 60a4 293e bb91 a63e 52be dd3d 36e2 423e
00000040: 1840 263e 78be 993e 6786 013e a707 b63e
00000050: 0332 7cbd 5de3 753d e6bc 743e 5474 a4be
00000060: fb9a 683e d9bb 953e a5bd 10bf 7299 e93e
00000070: f0cc ddbe 5768 293f 79f6 96be 3f2d 613d
00000080: 87e8 acbe ccef 36be aba0 263c d003 e63c
00000090: e5a5 c03d 63fe e93d 4d42 30be 8fc6 2abd
000000a0: a6ef 2fbf 1697 363f 1385 8f3e 08d2 22bf
000000b0: 72d1 5e3e 3ec5 e1be 0917 d4bb 9eb5 bbbe
000000c0: c62f 7b3e 8ae0 0bbf 0e14 423e 962f 593e
000000d0: 5ec5 7f3d ba76 843e a213 d8be 8c54 ccbe
000000e0: 5669 83bf a8fc 44bf b865 af3d c331 3bbf
000000f0: b15e 2b3e 1f04 7e3d ff60 39bf b2db f33c
00000100: 07ca 1dbe cf3e 473e c89e 12bf b62f ba3e
00000110: 0b41 483e 3448 723e 0b63 5f3e ec72 13bf
00000120: e9bf b2be 4f7e 35be e66b 043e b3a9 49bf
00000130: ce38 f93d 0a8f 5f3e ca54 37bf 066a 50bf
00000140: de0a 8cbe d347 09bf a1f4 32bf f2c5 17bf
00000150: 5a3e 49bf c221 7abe a2ea b73e 112c 0cbf
00000160: 8ea9 483e 6aef 3a3e 6ceb bb3e 4277 a4bd
00000170: 1a66 1fbf 417c 9bbd f740 7c3d 193d a13e
00000180: 3542 75bd 52cc b03e 333f edbe 0836 073f
00000190: ee64 ca3d db96 d7be 3efd b2bd d796 32bf
000001a0: 1289 4dbf 993b b5bc 3125 383e cb3f 323e
000001b0: eb7a bcbe 0de8 77bd 7533 c3be 48c3 18bf
000001c0: 398e 903d 3a79 c73e 0d5e 0f3f 1b84 50bf
000001d0: 7e62 8c3e c045 5dbd 1eaf 3c3e b10f 39bf
000001e0: cd52 5e3e b58b 323e 8584 27bf f457 89bd
000001f0: 54b0 72be 1b07 273f 835a d2bd 245c 193f
00000200: 31f8 93be 2129 0ebe f53c 35be 6e0b fdbd
00000210: 4e6e 2cbc b2ed f53b a7d5 a3bc b775 503f
00000220: d0ee 16be 9540 8d3b 98fb 11be f052 2abe
00000230: fc63 2cbe e751 813d b121 38be b4ef 27bd
00000240: 65d1 93be 555a 36be 205e 77bd 3b1d ed3e
00000250: 6e5b 31be fb5a 31be c5a3 943e 8c0e 03be
00000260: 78fb b53e 7907 18be f180 023f 7006 e1bd
00000270: d8d0 b63e eefc ce3e 05de f3be ec3e a7be
00000280: 4048 11bd 2bb7 01be 488a d23e 8dca ffbd
00000290: 6f2f 6c3f 5a96 28bf d679 45bd 3ce8 383f
000002a0: cac6 143d 1539 a93e 3f62 2fbe ff40 063f
000002b0: f9e7 52be 0ed6 203f df0c fabd f6d9 6fbe
000002c0: b105 3bbe 45a3 b2bd 21d2 b23e 4b1f e43e
000002d0: 579f 843f 1ddf 013f e603 0fbe c249 663e
000002e0: 1f68 77bd 78a2 41be fe38 303f 6e54 e7be
000002f0: 7e4a 073f ad5a c7be 0153 423f e1fa 0b3e
00000300: d320 da3d 1ee0 553e 30a4 cfbd 819b 063f
00000310: 6ccc b03e 9fdd 90be 63dd 0b3d 6b70 e83e
00000320: 8eb8 92be c265 c0be acb8 313f d186 263f
00000330: 0a3f c23e 3515 283f 3157 053f b7c3 0d3f
00000340: 6aaa 443f a401 db3e 775f 3cbb f74a 153f
00000350: 161a f9bd 12b2 c3bd 023b 80be e9f0 86be
00000360: d2b7 543f ef7a 65be 4b8c 94be d7d8 6bbe
00000370: 9d5c 94be 0b79 523e de70 0a3f ac03 193c
00000380: 3a3e ce3d 7f87 eb3e 9285 8dbd 8884 ae3e
00000390: f99c a73e c724 103e 04b3 20be 0ab2 c9bc
000003a0: 44cd 873e 832f 42be 2dea 2f3f 6706 313f
000003b0: 2fdc dfbe ff38 72be f5f0 54be 506b be3e
000003c0: 44bf 9a3d 6bd5 00bf 343d 68bd 4221 a53e
000003d0: 390c 7abd 12d3 123e 0843 613e d646 83be
0.2223541 -0.6069194 0.16676764 -0.707642 0.040902175 0.24711098 0.16210844 0.29411578
0.4160763 0.0601411 0.1302468 -0.7906272 0.1656661 0.3253306 0.10827316 0.19031605
0.16235387 0.3002813 0.12648927 0.35552713 -0.061571132 0.060031284 0.23900184 -0.3212
0.2271537 0.2924488 -0.56539375 0.45624882 -0.43320417 0.66174835 -0.2948492 0.05497479
-0.33771154 -0.17864913 0.010170142 0.02807799 0.09406642 0.114254735 -0.17212792 -0.041693266
-0.6872505 0.7132429 0.28031215 -0.6360173 0.21759585 -0.44095796 -0.0064724726 -0.36662
0.24529943 -0.54639494 0.18952963 0.21209559 0.062444083 0.2587183 -0.4220248 -0.39908254
-1.0266521 -0.7694802 0.08564323 -0.73122805 0.1673534 0.06201565 -0.7241363 0.029767845
-0.15409099 0.19457553 -0.5727353 0.36364526 0.19556062 0.23660356 0.21815126 -0.5759723
-0.3491204 -0.17723964 0.12931785 -0.78774565 0.12169038 0.21831909 -0.7161375 -0.8141178
-0.2735204 -0.5362522 -0.69904524 -0.59286416 -0.78610766 -0.2442694 0.35921198 -0.5475474
0.1959593 0.18255392 0.3670305 -0.08030559 -0.6226517 -0.07592059 0.061585393 0.31491926
-0.059877593 0.34530884 -0.4633728 0.5281682 0.09882532 -0.4210728 -0.08739708 -0.69761413
-0.8028728 -0.022123145 0.17982937 0.17407148 -0.3681253 -0.060524035 -0.38125196 -0.59672976
0.07058377 0.38959676 0.56002885 -0.81451577 0.27418894 -0.054021597 0.18426177 -0.7228957
0.21711273 0.17436107 -0.65436584 -0.06706229 -0.23700076 0.6524522 -0.1027117 0.5990622
-0.28900293 -0.13882877 -0.17699035 -0.12355696 -0.010524346 0.007505142 -0.019999338 0.8142962
-0.14739537 0.0043106773 -0.14256132 -0.166332 -0.16835016 0.0631445 -0.17981602 -0.041000083
-0.28870693 -0.17807896 -0.0603925 0.46311364 -0.17320034 -0.17319863 0.29031196 -0.12798518
0.35543418 -0.148466 0.50978 -0.10987556 0.3570621 0.40427345 -0.47630325 -0.32665193
-0.035469294 -0.1266753 0.41121125 -0.12489805 0.9225988 -0.6585442 -0.048211895 0.7222936
0.036322393 0.33051363 -0.17127322 0.52442926 -0.20596303 0.6282662 -0.12209486 -0.23422989
-0.1826389 -0.087225474 0.3492594 0.44555125 1.0361127 0.5073107 -0.13966331 0.22489074
-0.060402032 -0.18909633 0.68836963 -0.45181602 0.5284804 -0.38936368 0.75907904 0.13669921
0.10650792 0.20886275 -0.10138738 0.5258103 0.34530962 -0.28294083 0.034146678 0.45398268
-0.2865643 -0.37577635 0.6942241 0.65049464 0.3793872 0.6565736 0.5208617 0.5537676
0.7682253 0.4277469 -0.0028743425 0.5831751 -0.121631786 -0.095554486 -0.2504502 -0.26355675
0.8309299 -0.22410177 -0.29013285 -0.23031937 -0.28976908 0.20553987 0.5407847 0.009339254
0.100704625 0.46001813 -0.06910242 0.34085488 0.32736948 0.1407653 -0.15693289 -0.024621028
0.26523793 -0.18963437 0.687167 0.69150394 -0.43722674 -0.23654555 -0.20795043 0.37191248
0.07556012 -0.5032565 -0.056698993 0.32251936 -0.061046813 0.1433833 0.21998227 -0.2563998
