bank/model.pt (torch, 86483 bytes, 10 tensors)

layers.0.bias f4 [128]
0	0x3d82eb4c	0.063925356
1	0xbe81465c	-0.25248992
2	0xbdcd4e09	-0.1002465
3	0x3cae37b0	0.021266788
4	0xbdff42cc	-0.12463912
5	0xbc846826	-0.016162943
6	0xbe645af7	-0.22300325
7	0xbdc8f211	-0.098117955
8	0x3d162ac7	0.03666189
9	0x3da98bfd	0.08278654
10	0x3da97de6	0.08275966
11	0xbe31867c	-0.17336458
12	0xbd862a25	-0.06551007
13	0x3c191c61	0.009345145
14	0xbe284e56	-0.16436133
15	0xbdad25e7	-0.08454495
16	0xbe71377f	-0.23556326
17	0xbe378e1c	-0.17925304
18	0xbdee8510	-0.116464734
19	0xbd339908	-0.043847114
20	0xbea3e94b	-0.32013926
21	0xbe85d75f	-0.26140878
22	0xbd9e2481	-0.07721806
23	0xbc95306e	-0.01821157
24	0xbe770e47	-0.2412654
25	0xbe913d37	-0.28367016
26	0xbe34ddea	-0.17662778
27	0xbd661c92	-0.05617959
28	0xbc16eaf0	-0.009211287
29	0x3d26f5a8	0.04076162
30	0xbcadc4d0	-0.021212012
31	0xbe11b769	-0.14230122
32	0xbe13e36b	-0.14442222
33	0xbde13265	-0.1099594
34	0x367544a0	3.654779e-06
35	0xbe728872	-0.23684862
36	0xbe1f0697	-0.15529858
37	0xbdbda3c1	-0.09259749
38	0xbe192de5	-0.14958914
39	0xbd8e289f	-0.069413416
40	0xbe095324	-0.13410622
41	0xbe79054b	-0.24318425
42	0xbd10277f	-0.035193916
43	0xbda76eaa	-0.08175404
44	0xbe147cc3	-0.14500718
45	0xbe7f2bd0	-0.24919057
46	0xbd57d07a	-0.052689053
47	0xbe777bfe	-0.24168393
48	0xbe31452b	-0.17311542
49	0xbe6d0819	-0.2314762
50	0x3dee17a3	0.11625602
51	0xbe8c5c18	-0.27414012
52	0xbebbdcbc	-0.36691844
53	0xbea2b55b	-0.31778988
54	0xbeb4bdce	-0.3530106
55	0xbd869cc2	-0.06572868
56	0xbcac6343	-0.021043425
57	0xbe833a95	-0.25630632
58	0x3d163e99	0.03668079
59	0xbe8f4843	-0.2798482
60	0x3d702a10	0.058633864
61	0xbd59686e	-0.053078108
62	0xbe90bf37	-0.28270885
63	0xbdcd1443	-0.1001363
64	0xbe683426	-0.22676143
65	0xbe0d266c	-0.13784188
66	0xbde77502	-0.11301614
67	0xbe4b9f86	-0.19885072
68	0xbd6dd3c0	-0.05806327
69	0xbde60930	-0.11232221
70	0xbe3cedbc	-0.18450063
71	0xbeb72a58	-0.35774493
72	0xbefff52f	-0.49991748
73	0xbe38ace2	-0.180347
74	0xbe806bd8	-0.25082278
75	0xbdf0d7f2	-0.11759938
76	0xbe770062	-0.2412124
77	0xbe999ed0	-0.30003977
78	0xbf05b04c	-0.5222213
79	0xbdc68046	-0.09692435
80	0xbde4ac21	-0.111656435
81	0xbe1cfc82	-0.15330699
82	0x3da466e7	0.080274396
83	0xbf09cd9f	-0.5382938
84	0xbe0b26e5	-0.13589056
85	0xbe249af5	-0.16074736
86	0xbd1808b7	-0.037117686
87	0xbe7d942d	-0.24763556
88	0xbdbaf92d	-0.09129558
89	0xbda0618d	-0.07831106
90	0x3d164263	0.036684405
91	0xbdbbe4fc	-0.09174535
92	0xbd952c43	-0.07283833
93	0x3e4bcafe	0.19901654
94	0xbdbe533a	-0.09293218
95	0xbed6c403	-0.4194642
96	0xbe8ca10e	-0.27466625
97	0xbe96a3bc	-0.29421794
98	0xbe288503	-0.1645699
99	0xbd4e4160	-0.050355315
100	0xbdc2a43d	-0.09503982
101	0xbeb2973c	-0.34881008
102	0xbe8cf62d	-0.27531567
103	0xbdd4b4e3	-0.10386064
104	0x3d6b2de6	0.05741682
105	0xbe894c8a	-0.26816207
106	0x3ca1724f	0.019707827
107	0xbdd3664f	-0.10322248
108	0xbd22af64	-0.039718047
109	0xbcbf5f11	-0.02336076
110	0x3d4f6795	0.050635893
111	0xbe5f2457	-0.21791206
112	0xbd2af26b	-0.041735094
113	0xbe45222c	-0.19251317
114	0xbe64a736	-0.22329411
115	0xbe62b06c	-0.22137612
116	0x3c1cf521	0.009579928
117	0x3e1815e1	0.14852096
118	0xbe5362d8	-0.20643175
119	0xbe7d91f2	-0.24762705
120	0x3e8eba2c	0.27876413
121	0x3da07285	0.07834343
122	0xbde38f17	-0.111112766
123	0x3cea0163	0.028565114
124	0xbd96c219	-0.0736124
125	0x3e230a05	0.15921791
126	0xbc42656d	-0.011865002
127	0xbdc3c499	-0.095589824

layers.0.fc_pool.weight f4 [13, 13]
0	0x3d5a0eb1	0.053236667
1	0xbeae9829	-0.34100464
2	0x3e374915	0.17898972
3	0x3dace2fd	0.08441732
4	0xbd5d4c18	-0.054027647
5	0xbcd1fd7e	-0.02563357
6	0x3da4e7d1	0.08052028
7	0x3dc6009a	0.096680835
8	0x3dff970a	0.1247998
9	0xbe5141a4	-0.20435196
10	0xbd968a15	-0.07350556
11	0x3cd19af0	0.025586575
12	0x3ecfe8aa	0.40607196
13	0xbe6ed20f	-0.23322318
14	0x3db3abc3	0.08772995
15	0xbdd1edcb	-0.102504335
16	0x3cacb365	0.021081636
17	0xbd2f4437	-0.042789664
18	0xbd17efb8	-0.037093848
19	0x3e2bb5b2	0.1676853
20	0x3d1eaf53	0.03874142
21	0xbea4a723	-0.32158765
22	0x3d38d352	0.045123406
23	0xbeb55f60	-0.35424328
24	0xbd18c7bc	-0.037299857
25	0xbd226311	-0.03964526
26	0x3dedddfc	0.11614606
27	0xbe230e38	-0.15923393
28	0x3da9e48e	0.082955465
29	0xbd821843	-0.06352284
30	0xbd9fcebe	-0.07803105
31	0xbe49be33	-0.19701461
32	0xbd9f576a	-0.07780345
33	0xbdeb5969	-0.11491663
34	0x3c582ba4	0.0131939985
35	0xbc8b55cc	-0.017008685
36	0x3c1ee92b	0.009699146
37	0xbea65f69	-0.32494667
38	0x3cf1b6cb	0.029506108
39	0xbe90dac2	-0.282919
40	0xbb981a9a	-0.004641843
41	0x3d3fd4c3	0.046833765
42	0xbd1fe5f3	-0.039037656
43	0x3dad8870	0.08473289
44	0x3c10f674	0.0088478215
45	0xbe086f93	-0.13323812
46	0xbc5412bc	-0.01294392
47	0x3e3864a0	0.18007135
48	0x3d4d349b	0.050098997
49	0x3b905430	0.004404567
50	0x3d5ecfda	0.05439744
51	0x3c298cba	0.010348493
52	0x3e0c061d	0.13674207
53	0xbe77ef0a	-0.2421228
54	0xbd4a4478	-0.049381703
55	0xbcea3759	-0.028590845
56	0x3d93d690	0.07218659
57	0x3d3e3f0f	0.046446856
58	0x3dbd9877	0.09257596
59	0xbea596bf	-0.32341573
60	0x3e3e8dc8	0.18608773
61	0xbcbb0681	-0.02283025
62	0xbd177f86	-0.03698685
63	0xbca51e6e	-0.020156112
64	0xbe07323b	-0.13202755
65	0xbe4c1142	-0.19928458
66	0x3e00e543	0.12587456
67	0x3d2e71bc	0.042588934
68	0xbe192083	-0.14953808
69	0xbe901c31	-0.28146508
70	0x3d2948d4	0.04132922
71	0x3e7ebe2a	0.2487723
72	0x3c8ec0bb	0.017425885
73	0xbd9bcb59	-0.07607145
74	0x3e147e5c	0.14501327
75	0x3de1256b	0.10993465
76	0x3cc4760a	0.023982067
77	0x3f0a4394	0.54009366
78	0xbe5cce96	-0.21563181
79	0x3b5dd985	0.0033851576
80	0x3e2db5d9	0.169639
81	0x3e337b40	0.17527485
82	0xbdc07e5b	-0.093991004
83	0x3cfbed94	0.030752935
84	0xbe95eba5	-0.29281345
85	0x3d577ec2	0.05261112
86	0xbd9cdb08	-0.076589644
87	0x3d8a021d	0.06738684
88	0xbcc40708	-0.023929134
89	0x3cc1c7a0	0.023654759
90	0x3e07317d	0.13202472
91	0xbd21bb3e	-0.03948521
92	0xbc5eff72	-0.013610708
93	0xbda9c6b4	-0.08289853
94	0x3e13e5e6	0.14443168
95	0xbd032e65	-0.032026667
96	0xbe4e6cc6	-0.20158681
97	0xbe2f95c5	-0.17146976
98	0x3cc7e2d3	0.02440015
99	0xbd881ebb	-0.06646486
100	0xbde4c2a0	-0.11169934
101	0xbc4e4e4c	-0.01259191
102	0x3b95015d	0.0045472817
103	0x3d28bb33	0.041194152
104	0xbe301409	-0.17195143
105	0x3d899d56	0.067194626
106	0x3ca0deb3	0.019637441
107	0x3c29a65a	0.010354603
108	0xbd93d180	-0.07217693
109	0xbddfc022	-0.10925318
110	0x3e401286	0.18757066
111	0xbb2def86	-0.0026540472
112	0xbe0d9482	-0.13826182
113	0xbd568110	-0.052369177
114	0xbd3d1064	-0.04615821
115	0x3b8454ca	0.004038428
116	0xbaa85a18	-0.0012844233
117	0xbd668b7f	-0.056285378
118	0xbed4a93d	-0.4153537
119	0x3e30df67	0.17272721
120	0x3d871936	0.065966055
121	0xbe0310c0	-0.12799358
122	0x3ae894c0	0.0017744526
123	0x3e91e5f7	0.28495762
124	0xbb339805	-0.0027403843
125	0xbd032b64	-0.032023802
126	0x3bffa4a9	0.0078016114
127	0x3d3bd5f2	0.04585833
128	0xbf3db87f	-0.74109644
129	0x3f0eca03	0.55776995
130	0xbcf2b47c	-0.029627077
131	0xbd03d396	-0.032184206
132	0x3d2c4130	0.042054355
133	0x3c9bd20f	0.019021062
134	0x3c1d84d8	0.009614192
135	0xbd5eab9b	-0.054362874
136	0x3e61a080	0.22033882
137	0x3cf7755a	0.030207325
138	0x3d95589a	0.0729229
139	0x3d0d6740	0.034522295
140	0xbd1934b9	-0.037403796
141	0x3bfd04ba	0.0077215107
142	0xbdddb31a	-0.108251765
143	0x3da26490	0.07929337
144	0x3d3b938b	0.045795005
145	0xbdee8e40	-0.11648226
146	0x3c1d8878	0.009615056
147	0x3cb87373	0.022515988
148	0xbb96df7b	-0.0046042777
149	0xbc44f2b8	-0.012020759
150	0x3dfb9f39	0.12286229
151	0x3eab28f9	0.33429697
152	0xbe882be8	-0.26595998
153	0xbd9b72cf	-0.075902574
154	0xbd834ea3	-0.06411483
155	0xbe788f84	-0.24273497
156	0x3e1734e4	0.1476627
157	0xbe154852	-0.1457837
158	0xbe450d08	-0.19243252
159	0xbdccbc9a	-0.099969104
160	0x3db34e53	0.087551735
161	0x3dbe47b6	0.092910215
162	0x3e4857a1	0.19564678
163	0xbdfbe0d0	-0.12298739
164	0xbe067694	-0.13131171
165	0x3deb8d74	0.115015894
166	0xbe9d6898	-0.3074386
167	0x3e051ec1	0.13000013
168	0xbce47619	-0.027888345

layers.0.fc_pool.bias f4 [13]
0	0xbefd0d53	-0.49424228
1	0xbe7b0463	-0.24513392
2	0x3eac4a2b	0.33650336
3	0xbf23bd79	-0.6396099
4	0xbe9fc677	-0.31206104
5	0xbd049595	-0.032369215
6	0x3e14164d	0.14461632
7	0xbda648d4	-0.081193596
8	0xbe984db4	-0.29746783
9	0x3dd7cd73	0.10537233
10	0xbe19fd0d	-0.15037937
11	0xbe216af7	-0.1576346
12	0xbe99bd2e	-0.30027145

layers.0.fc_self.weight f4 [128, 13]
0	0xbe27bab7	-0.1637982
1	0x3eb09d1a	0.3449486
2	0x3e2740f5	0.16333373
3	0x3e144f52	0.14483383
4	0x3dea474e	0.114393815
5	0x3e8143d8	0.25247073
6	0x3ebc928b	0.36830553
7	0x3d673c25	0.056453843
8	0x3f03116e	0.5119847
9	0x3d844996	0.06459348
10	0xbe42bdb9	-0.19017686
11	0x3e630eb1	0.22173573
12	0x3f2ed158	0.68288183
13	0xbeb7c610	-0.35893297
14	0x3e2733fc	0.16328424
15	0xbea7e786	-0.32793826
16	0xbe0c45f6	-0.13698563
17	0x3d3c1595	0.04591902
18	0xbe8c7a29	-0.2743695
19	0xbd188ceb	-0.037243765
20	0x3e41f878	0.1894244
21	0x3ead52fc	0.33852375
22	0x3e3c29ad	0.18375273
23	0xbf4f17a9	-0.8089548
24	0xbc3ea515	-0.011636038
25	0xbe64213e	-0.22278306
26	0xbd812471	-0.06305779
27	0xbe1a0500	-0.1504097
28	0xbe858afd	-0.26082602
29	0x3ebe5489	0.3717387
30	0x3de76213	0.11298003
31	0xbe3add3f	-0.18248461
32	0x3e29e489	0.16591085
33	0xbe1aa1bb	-0.15100758
34	0xbe70bd72	-0.23509768
35	0xbf0a2294	-0.5395901
36	0x3e2e29a4	0.17008072
37	0xbe517df0	-0.20458198
38	0xbdb45e56	-0.08807056
39	0xbe1bb83d	-0.15207
40	0x3e305606	0.17220315
41	0x3ee20512	0.44144493
42	0xbd2349f5	-0.039865453
43	0x3df257e2	0.118331686
44	0x3d98cbc7	0.074607424
45	0x3d1cd981	0.038293365
46	0xbe8f6e11	-0.28013662
47	0x3f388cc5	0.720898
48	0xbec9fbc7	-0.39449903
49	0x3d3f05c2	0.04663635
50	0x3ed50cb9	0.4161127
51	0xbcbebbbf	-0.023282884
52	0x3ea694c6	0.3253538
53	0xbefa4f31	-0.48888543
54	0x3c03c376	0.008042207
55	0xbe550eb6	-0.20806393
56	0x3df3fef9	0.119138665
57	0x3e923ce9	0.28562096
58	0xbde354c6	-0.111001536
59	0x3eb965da	0.3621052
60	0x3e2b7c62	0.16746667
61	0x3ea4b862	0.32171923
62	0xbdd4b03d	-0.10385177
63	0xbe7e386c	-0.2482621
64	0xbea0a6aa	-0.31377155
65	0x3e8a5df3	0.27024803
66	0x3a8efaf7	0.0010908534
67	0xbee053df	-0.4381399
68	0xbe1844c9	-0.1486999
69	0x3e517f69	0.2045876
70	0x3f2f9af3	0.6859581
71	0x3ecd7c3c	0.40133846
72	0xbe9dee10	-0.3084569
73	0xbd79d676	-0.06099554
74	0xbe91cfb4	-0.28478777
75	0xbaf5a7eb	-0.001874206
76	0xbdfee34a	-0.12445696
77	0xbe811d38	-0.25217605
78	0xbe19be6d	-0.15014048
79	0xbeedd1ca	-0.4644912
80	0xbe62066d	-0.22072764
81	0xbe663475	-0.22480948
82	0xbd5f88af	-0.05457371
83	0xbdaf9504	-0.08573344
84	0xbe338540	-0.175313
85	0xbee4072d	-0.44536725
86	0xbe90d5df	-0.2828817
87	0x3f0b79c7	0.5448269
88	0xbe9ec3e8	-0.3100884
89	0x3e8e4173	0.2778431
90	0x3eb10a83	0.34578332
91	0x3cec245a	0.028825928
92	0x3d9cdb7d	0.076590516
93	0x3ea1f16e	0.3162951
94	0xbe2508b9	-0.16116609
95	0xbdb51fec	-0.08843979
96	0xbea375ca	-0.31925803
97	0x3dc7bca6	0.09752779
98	0xbe69a2f3	-0.22816066
99	0xbe593362	-0.21211007
100	0xbccd5f24	-0.02506978
101	0xbe1ba655	-0.1520017
102	0x3c847e6a	0.01617356
103	0xbcf1daff	-0.02952337
104	0x3e10845f	0.14112996
105	0x3e67b939	0.2262925
106	0xbe868dbf	-0.2628002
107	0x3e8c01d8	0.27345157
108	0xbe4bed5e	-0.19914767
109	0x3f0fe2cc	0.5620544
110	0x3ea2a350	0.31765223
111	0xbe53810d	-0.20654698
112	0x3e39e756	0.18154654
113	0xbed92f03	-0.4241868
114	0xbc88861a	-0.016665507
115	0xbe972c55	-0.2952601
116	0x3de0777d	0.109602906
117	0x3e61220a	0.21985641
118	0xbefe083a	-0.4961565
119	0x3e826df8	0.25474524
120	0x3ded7f41	0.115965374
121	0xbe7ada1b	-0.24497263
122	0x3f0d6795	0.5523618
123	0x3e9a3f13	0.30126247
124	0xbedd2ed7	-0.43199798
125	0x3e0c4def	0.13701604
126	0xbe1bb0e8	-0.15204203
127	0xbdd85afb	-0.10564228
128	0xbef81ee6	-0.48461074
129	0x3f30a0af	0.68995184
130	0x3ca28ebb	0.01984345
131	0x3e60264c	0.21889609
132	0x3dcbce9d	0.09951518
133	0xbc5f7918	-0.013639711
134	0x3e5eace9	0.21745647
135	0x3d861fc7	0.0654903
136	0x3ea572e6	0.32314223
137	0x3e030d34	0.12798005
138	0x3e2c48d7	0.16824661
139	0xbf01783a	-0.50574076
140	0x3e845605	0.25846878
141	0xbef1f431	-0.47256616
142	0x3f14b588	0.58089495
143	0xbe4e4116	-0.20142016
144	0xbd452cc8	-0.04813841
145	0xbe8b5932	-0.27216488
146	0x3e5fe0a3	0.21863036
147	0x3e48b30d	0.19599552
148	0xbe588050	-0.21142697
149	0xbd35bf42	-0.04437185
150	0x3e8ec139	0.27881792
151	0xbe8b6623	-0.27226362
152	0xbf03aa5f	-0.5143184
153	0x3e2b3d62	0.16722634
154	0x3e470c9b	0.19438402
155	0x3f2b48e6	0.6690811
156	0xbf294a7a	-0.6612927
157	0xbd87ebe4	-0.066367894
158	0x3e4830cb	0.19549863
159	0x3efc3848	0.4926169
160	0x3e051995	0.1299804
161	0xbe4bc74d	-0.19900246
162	0xbe52eb7d	-0.20597644
163	0xbd13e6c6	-0.036108755
164	0xbd15159d	-0.036397565
165	0x3e47a5af	0.19496797
166	0x3e0565ee	0.13027164
167	0x3e9927fb	0.29913315
168	0x3e26d487	0.1629201
169	0x3dbf0201	0.09326554
170	0x3dd606e3	0.10450532
171	0xbeb9e8c5	-0.36310402
172	0x3c8ebcef	0.017424075
173	0x3e33306d	0.17498942
174	0x3bf2d200	0.007410288
175	0x3e55b6a2	0.2087045
176	0x3d87196b	0.06596645
177	0x3eabb368	0.33535314
178	0xbee695e7	-0.4503624
179	0x3dd6c72d	0.104872085
180	0x3e31e9a0	0.17374277
181	0x3f5e7123	0.8689138
182	0xbe2b6595	-0.16737969
183	0x3d6a8f92	0.057265826
184	0x3d0f4685	0.034979362
185	0x3d8217aa	0.0635217
186	0xbca84d9c	-0.02054482
187	0xbf39925d	-0.7248896
188	0xbd8ed899	-0.069749065
189	0x3eba4cb7	0.36386654
190	0xbe989fb8	-0.29809356
191	0xbf4567d2	-0.7711154
192	0x3e3141a4	0.17310196
193	0xbeeabd09	-0.45847347
194	0x3e795374	0.24348241
195	0xbe80c938	-0.25153518
196	0xbe718eb4	-0.23589593
197	0x3e019b40	0.1265688
198	0x3e88f6dc	0.2675084
199	0xbd2c7702	-0.042105682
200	0x3e959a84	0.2921945
201	0xbca43b34	-0.020047761
202	0xbe152702	-0.14565662
203	0xbea17d40	-0.3154087
204	0xbec1d373	-0.37856635
205	0x3b3a6461	0.0028441178
206	0xbe0e891d	-0.13919492
207	0x3df912f5	0.12161819
208	0x3ed92444	0.4241048
209	0xbe0df748	-0.13863862
210	0xbec285ce	-0.3799271
211	0xbd88805e	-0.06665109
212	0x3e13a6a2	0.14419034
213	0x3ac0b7d3	0.0014703221
214	0xbe8681f2	-0.26271015
215	0x3f19313b	0.59840745
216	0xbe252060	-0.16125631
217	0xbf65a647	-0.89706844
218	0xbe93ff7f	-0.28905866
219	0x3e5bd462	0.21467736
220	0xbe9d76c6	-0.3075468
221	0xbd85b93d	-0.06529472
222	0x3e991e2f	0.2990584
223	0xbd9a68e1	-0.07539535
224	0xbf250819	-0.6446548
225	0x3e4efc56	0.20213446
226	0xbea46dec	-0.32115114
227	0x3eb049b9	0.34431246
228	0x3ca3c831	0.01999292
229	0x3df35f19	0.11883373
230	0x3dfeb3c7	0.124366336
231	0xbf1e8ffa	-0.6193844
232	0x3de62209	0.112369604
233	0x3e04dea4	0.12975556
234	0x3c957d8e	0.018248346
235	0xbccbd9ae	-0.024884071
236	0xbd18b169	-0.037278567
237	0xbe750f49	-0.23931612
238	0xbdac4a45	-0.08412603
239	0xbe11a8b6	-0.14224514
240	0xbbd272be	-0.0064223697
241	0xbd401c9e	-0.04690229
242	0xbcafc5de	-0.021456655
243	0x3ab6a0f4	0.0013933466
244	0xbf250fac	-0.6447704
245	0xbe93b583	-0.2884942
246	0x3da7ab21	0.08186937
247	0x3dc5e839	0.096634336
248	0xbdf21150	-0.11819708
249	0xbec5528c	-0.3853954
250	0xbe7f50d0	-0.24933171
251	0x3eb43127	0.3519375
252	0x3d52d000	0.051467896
253	0x3ea86ceb	0.32895598
254	0xbbefb84e	-0.007315672
255	0x3ef6531e	0.48110288

layers.0.fc_neigh.weight f4 [128, 13]
0	0x3d390a5e	0.045175903
1	0xbca2fd10	-0.01989606
2	0xbc65bee2	-0.014022561
3	0xbd0fc3da	-0.035098888
4	0xbe227877	-0.15866266
5	0x3c395ecd	0.011314106
6	0xbe11c9f4	-0.14237195
7	0xbde44688	-0.11146265
8	0x3dc94f21	0.09829546
9	0xbd5454af	-0.051838573
10	0xbd79b545	-0.060963888
11	0xbd1b7bbe	-0.037959807
12	0xbd5ae450	-0.053440392
13	0xbe8bb3e3	-0.2728568
14	0x3d870642	0.065929905
15	0xbe988b0e	-0.2979359
16	0x3c6f5ed3	0.01461001
17	0xbdcc4fd9	-0.09976167
18	0xbd0ac5d2	-0.033880062
19	0xbe3ebd67	-0.18626939
20	0xbd48a5b5	-0.048986156
21	0xbe64a94f	-0.22330211
22	0x3cc439e9	0.023953395
23	0x3ce82c60	0.028341472
24	0x3d68f7da	0.056876995
25	0xbe59a49a	-0.21254197
26	0x3e02c18b	0.12769143
27	0xbd4574b4	-0.048207
28	0xbe5504f0	-0.20802665
29	0x3dd382d4	0.10327688
30	0x3d81053d	0.06299827
31	0xbe26d9d9	-0.1629404
32	0xbd97333b	-0.07382818
33	0xbc801e9d	-0.015639598
34	0xbd0fec55	-0.035137493
35	0xbe14881e	-0.1450505
36	0xbe439449	-0.19099535
37	0xbe5ae1a6	-0.2137514
38	0xbe37d134	-0.17950898
39	0x3e073500	0.13203812
40	0x3dd40b0b	0.10353669
41	0xbe114004	-0.14184576
42	0x3c0f817c	0.008758899
43	0x3d9f0c97	0.07766073
44	0x3da3ccae	0.07998024
45	0xbe25bc5e	-0.16185138
46	0x3dfa8d76	0.12234013
47	0xbe516090	-0.20446992
48	0xbd7952c4	-0.060869947
49	0x3e8836ce	0.26604313
50	0x3dd678c2	0.104722515
51	0xbe1daccd	-0.1539795
52	0xbdc5a3c1	-0.09650374
53	0xbe7fcb27	-0.2497984
54	0xbd920ccd	-0.07131348
55	0x3dcdc39e	0.10047077
56	0xbc585d9d	-0.013205913
57	0x3dbc2ca7	0.09188204
58	0xbdda87c1	-0.10670424
59	0x3e057c79	0.13035764
60	0x3db85777	0.090010576
61	0xbea126d7	-0.31474945
62	0xbe693a09	-0.22776045
63	0xbe50ab6a	-0.2037789
64	0xbdf60d79	-0.120142885
65	0xbe146fa3	-0.14495711
66	0xbe3bc012	-0.18334988
67	0x3d84a1bc	0.06476161
68	0xbc217f71	-0.009857045
69	0xbd9c7bd1	-0.076408036
70	0xbe1c88cd	-0.1528656
71	0xbe1d66f0	-0.15371299
72	0x3d99e0a0	0.07513547
73	0x3d434529	0.04767338
74	0x3df4515c	0.119295806
75	0x3dff1fe3	0.12457254
76	0x3dfb56c5	0.12272409
77	0x3de2f1dc	0.11081287
78	0xbddcce27	-0.10781508
79	0xbe814515	-0.25248018
80	0xbe424967	-0.18973313
81	0x3e7ba0c8	0.24573052
82	0xbe451397	-0.19245754
83	0xbd1e0576	-0.038579427
84	0xbe2d641e	-0.16932723
85	0xbdc8eb6c	-0.09810528
86	0x3d8b5970	0.06804168
87	0xbe27948b	-0.16365258
88	0xbbcc969b	-0.0062435395
89	0x3a7a4155	0.00095464784
90	0xbd0b2a5c	-0.033975944
91	0xbe117807	-0.14205943
92	0xbe52f942	-0.20602897
93	0xbeb0fcb9	-0.34567812
94	0x3e69d492	0.22834995
95	0xbc6c9ef3	-0.014442193
96	0xbd40e361	-0.047091845
97	0xbe7848c5	-0.2424651
98	0xbe16f3a9	-0.14741386
99	0xbe7c6f9e	-0.24651954
100	0x3d561442	0.052265413
101	0x3d2e41ee	0.042543344
102	0x3e4557a6	0.19271716
103	0x3e4e2662	0.2013183
104	0x3ddc928c	0.10770139
105	0x3d8f24db	0.069894515
106	0xbe09e22d	-0.13465185
107	0x3e648017	0.22314487
108	0xbdd9fc7f	-0.10643863
109	0xbe1bf14b	-0.15228765
110	0xbdcecadb	-0.10097285
111	0xbe6cd4f6	-0.23128113
112	0x3ca87430	0.020563215
113	0xbe39d972	-0.18149355
114	0x3e2425ee	0.16030094
115	0x3e21f634	0.15816575
116	0xbe2c8d50	-0.16850781
117	0x3c57baca	0.013167093
118	0xbe5bc346	-0.2146121
119	0xbe16650f	-0.14686988
120	0xbd9cb235	-0.07651178
121	0xbd9e1419	-0.07718677
122	0xbe028a4e	-0.12748072
123	0xbdac7c24	-0.084221154
124	0x3d8c5b50	0.06853354
125	0xbcf99f3a	-0.030471433
126	0xbdca379b	-0.09873887
127	0xbdfc2d91	-0.123133786
128	0x3c1bd257	0.009510598
129	0xbcf31196	-0.029671472
130	0xbdbbc295	-0.09167973
131	0xbe3839cb	-0.17990796
132	0x3df9c866	0.12196426
133	0xbd37e2c5	-0.044894
134	0x3e3731b1	0.1789005
135	0x3c29ff17	0.01037576
136	0x3d8fb3aa	0.0701669
137	0xbd819784	-0.063277274
138	0xbe9ef644	-0.3104726
139	0x3df10540	0.117685795
140	0x3da68327	0.08130484
141	0xbdaadf49	-0.083433695
142	0xbd845587	-0.064616255
143	0x3dab429f	0.08362316
144	0xbddd5b88	-0.10808474
145	0xbe9dba61	-0.30806258
146	0xbe5fdc15	-0.21861298
147	0xbe8b8727	-0.2725155
148	0xbe153a27	-0.14572965
149	0xbe809912	-0.25116783
150	0xbe2692cf	-0.1626694
151	0x3c18ad38	0.009318642
152	0xbda38485	-0.079842605
153	0x3e035324	0.12824684
154	0xbe05e70f	-0.13076423
155	0xbdacff88	-0.08447176
156	0xbdcf78f3	-0.10130491
157	0x3d1fd36e	0.039019994
158	0xbe101965	-0.14072187
159	0xbdda13d1	-0.10648311
160	0xbe2cecac	-0.16887158
161	0xbe557ebd	-0.20849128
162	0x3d9beb3f	0.07613229
163	0xbe62a3b2	-0.22132757
164	0xbd870726	-0.0659316
165	0x3ced5894	0.028972901
166	0x3e390066	0.18066558
167	0x3e02df80	0.12780571
168	0xbc997bfd	-0.01873588
169	0x3d909eff	0.07061576
170	0x3cc82875	0.024433354
171	0x3e099648	0.13436234
172	0xbeb8d800	-0.36102295
173	0xbd10eece	-0.035383992
174	0xbcff0ce4	-0.031134076
175	0xbd939bc1	-0.07207442
176	0x3e444f21	0.1917081
177	0x3c3ee53c	0.011651333
178	0xbd4ff4da	-0.050770618
179	0xbead8877	-0.33893177
180	0xbeb62009	-0.35571316
181	0x3e531fee	0.20617649
182	0xbe5ed991	-0.21762682
183	0xbd8a50d2	-0.067536965
184	0xbd773561	-0.06035364
185	0x3e0ad305	0.1355706
186	0xbe2d53d6	-0.16926512
187	0xbe2273b7	-0.15864454
188	0xbddf833d	-0.109137036
189	0xbdd0659b	-0.1017563
190	0xbe337891	-0.17526461
191	0x3dcd9096	0.10037343
192	0xbe872149	-0.26392582
193	0xbd0259a4	-0.03182377
194	0x3daaab89	0.08333499
195	0x3e0007a5	0.12502916
196	0xbe4540d3	-0.1926301
197	0xbd80b25a	-0.06284018
198	0x3cfcf234	0.03087721
199	0xbd2d9f05	-0.04238798
200	0x3bfbc089	0.007682864
201	0xbe355cef	-0.17711233
202	0xbe9d6139	-0.30738238
203	0xb988e1fb	-0.0002610831
204	0xbe76a551	-0.240865
205	0xbe1f5bd4	-0.15562373
206	0x3e0a0a41	0.13480474
207	0xbebe7bf2	-0.37203938
208	0x3d5ef87d	0.054436196
209	0xbe6f4fc4	-0.23370272
210	0xbe178048	-0.14795029
211	0x3d79a32a	0.06094662
212	0x3cc9cf83	0.024635082
213	0xbe4a625f	-0.19764088
214	0xbe57054c	-0.20998114
215	0xbcc5890a	-0.024113197
216	0x3e30934a	0.17243686
217	0xbe892599	-0.26786497
218	0x3e2e8692	0.17043522
219	0xbe357ae7	-0.17722665
220	0xbe1d4910	-0.15359902
221	0xbe3a1bfe	-0.1817474
222	0xbe15c0e8	-0.14624369
223	0xbe8dfce1	-0.27731994
224	0x3dd0dd40	0.1019845
225	0x3d2b6a5b	0.041849475
226	0x3db0b181	0.08627606
227	0xbe4404bd	-0.19142433
228	0xbedb66b9	-0.4285181
229	0xbe8c0943	-0.27350816
230	0xbd0da006	-0.03457644
231	0xbe236f31	-0.15960385
232	0xbe1800d7	-0.1484407
233	0x3ddd3620	0.10801339
234	0xbe23c3ad	-0.15992613
235	0xbe63adf2	-0.22234324
236	0x3e1c2644	0.15248972
237	0x3e5a6816	0.21328768
238	0xbe3fe09d	-0.18738027
239	0x3cf418e0	0.029797018
240	0x3dc5fc47	0.09667259
241	0x3d0ba1f0	0.034089983
242	0x3e0e5b30	0.13901973
243	0xbc6e6b55	-0.014551957
244	0xbdbec145	-0.09314207
245	0x3e2733f7	0.16328417
246	0x3e79c7f0	0.24392676
247	0xbc20ea51	-0.00982149
248	0xbd8209bb	-0.06349512
249	0xbe20f2ca	-0.15717617
250	0xbdc63aa8	-0.096791565
251	0x3e180201	0.14844514
252	0xbc396e78	-0.011317842
253	0xbd6a9ebc	-0.057280287
254	0x3e512194	0.20422965
255	0x3d543472	0.05180783

layers.1.bias f4 [2]
0	0x3d20871b	0.039191347
1	0xbd8e06a8	-0.06934863

layers.1.fc_pool.weight f4 [128, 128]
0	0xbeef2b48	-0.46712708
1	0xbe31c391	-0.17359759
2	0xbe3d27b7	-0.18472181
3	0xbed844ed	-0.42240086
4	0xbe5ecf32	-0.21758726
5	0xbd9fbb44	-0.0779939
6	0x3dbf48fa	0.09340091
7	0x3cf7694c	0.030201577
8	0xbe47f939	-0.19528665
9	0xbe07be26	-0.1325613
10	0xbdb006bf	-0.08595037
11	0x3daed66b	0.08536991
12	0x3e015731	0.12630917
13	0xbe3bfd7f	-0.1835842
14	0x3d120599	0.03564987
15	0x3e9279aa	0.28608447
16	0xbe73e88f	-0.23819183
17	0x3d251e52	0.04031212
18	0xbea8f454	-0.32998908
19	0xbdf57a93	-0.1198627
20	0xbd88792d	-0.066637374
21	0x3c90a737	0.01765786
22	0xbd8073f8	-0.06272119
23	0x3dadfdf0	0.084957
24	0xbe077fe8	-0.13232386
25	0x3e72db0d	0.23716374
26	0xbd2b6d2c	-0.04185216
27	0x3dd5c929	0.10438759
28	0x3dd5bf13	0.10436835
29	0xbb9836a1	-0.004645184
30	0xbcdfcaa1	-0.0273183
31	0xbdb4a0ad	-0.08819709
32	0xbcb98022	-0.022644106
33	0xbd33c5d7	-0.043889847
34	0xbe00bfb6	-0.12573132
35	0xbdcc1b21	-0.09966112
36	0x3d444a63	0.047922503
37	0xbdf195b0	-0.11796129
38	0x3e333b81	0.17503168
39	0xbe4a6fb5	-0.19769175
40	0x3dbc67f2	0.091995135
41	0x3d657650	0.056021035
42	0xbe5eff07	-0.21776973
43	0x3da736d9	0.08164758
44	0x3d5c5e35	0.05380078
45	0xbd4007b9	-0.046882365
46	0x3e02678d	0.12734814
47	0xbd8222ac	-0.063542694
48	0x3e64c70e	0.22341558
49	0x3e5e105e	0.21685931
50	0xbd0a8c4d	-0.033825208
51	0x3a2e2cf5	0.00066442724
52	0xbe579c7e	-0.21055791
53	0xbc1a8477	-0.009430996
54	0xbe377445	-0.17915447
55	0x3d5e3a30	0.05425471
56	0xbdc71b48	-0.09722
57	0x3e29cdde	0.16582438
58	0xbcf72b71	-0.030172082
59	0xbe19e29a	-0.15027848
60	0xbda41909	-0.080125876
61	0xbe9306be	-0.2871608
62	0xbdef758e	-0.11692344
63	0xbe8ef080	-0.27917862
64	0xbdc4b3f8	-0.09604639
65	0x3c9f5723	0.01945073
66	0xbdfc8929	-0.12330849
67	0xbdf40458	-0.11914891
68	0xbe83687e	-0.2566566
69	0xbe028848	-0.127473
70	0xbe6c4fa6	-0.23077258
71	0x3b259883	0.0025267906
72	0x3e5fc04c	0.21850699
73	0xbc85c11f	-0.016327439
74	0x3d5edbf4	0.054408982
75	0x3cb5fa2b	0.022214016
76	0x3e40bd6e	0.18822262
77	0xbe227202	-0.15863803
78	0xbd5e302a	-0.05424515
79	0xbecb6816	-0.3972785
80	0x3dee8f33	0.11648407
81	0xbe61f441	-0.22065832
82	0x3cc9e115	0.02464346
83	0xbe14e479	-0.1454028
84	0x3bee7a8f	0.0072777937
85	0xbe6d03d0	-0.23145986
86	0xbcfff237	-0.031243427
87	0xbdc67aec	-0.09691414
88	0x3dffc8cb	0.1248947
89	0xbe0c0581	-0.13673975
90	0xbe96beb1	-0.2944236
91	0x3e661ffc	0.22473139
92	0x3d644309	0.055727992
93	0xbe6648b1	-0.22488667
94	0xbd516794	-0.05112417
95	0x3e0296fa	0.12752905
96	0xbe58369c	-0.21114582
97	0xbd966012	-0.07342543
98	0xbd84861c	-0.06470892
99	0xbe324446	-0.17408857
100	0xbacebb52	-0.0015772379
101	0x3e59da11	0.21274592
102	0x3df3dd35	0.11907426
103	0xbe0c7b7a	-0.13718978
104	0xbda3b475	-0.07993404
105	0x3ddd441e	0.10804008
106	0x3e3fe73f	0.18740557
107	0xbd4a84e1	-0.04944313
108	0xbcf7344f	-0.03017631
109	0xbe7ba069	-0.2457291
110	0x3c25fc93	0.010131019
111	0xbe57086f	-0.20999311
112	0xbd670203	-0.056398403
113	0xbe1c9571	-0.15291382
114	0xbd575731	-0.052573387
115	0xbdd57264	-0.10422209
116	0xbe1dd582	-0.15413478
117	0x3d363c93	0.04449136
118	0x3e7b1ec1	0.2452345
119	0xbcef7b24	-0.029233523
120	0xbdf89b4f	-0.12138998
121	0x3dac541d	0.08414481
122	0xbe48ece8	-0.19621623
123	0x3d97f582	0.07419874
124	0xbf0122c3	-0.5044367
125	0xbe75d1dc	-0.24005836
126	0xbc50e119	-0.01274898
127	0x3dae31ce	0.08505593
128	0xbd141c7d	-0.03615998
129	0x3d5914e8	0.052998453
130	0x3dd69c64	0.10479048
131	0xbdfd6a82	-0.123738304
132	0xbdde5f68	-0.10858041
133	0xbe4064fb	-0.18788521
134	0xbbac5a02	-0.005259753
135	0xbe0e97a3	-0.13925032
136	0x3d8f687b	0.0700235
137	0x3e28f869	0.16501011
138	0xbdb7d3ed	-0.089759685
139	0xbe0926a5	-0.13393648
140	0xbe5b7a7a	-0.2143344
141	0xbd4f7456	-0.050648056
142	0xbc62444f	-0.013810231
143	0xbdc89cb2	-0.09795512
144	0xbe426337	-0.1898316
145	0xbbfaed3f	-0.0076576765
146	0x3d434e9d	0.047682393
147	0x3d44af83	0.048018944
148	0xbe198f97	-0.14996181
149	0x3d9205a3	0.07129981
150	0xbe492da0	-0.19646311
151	0x3e087df5	0.13329299
152	0xbdb3a25d	-0.08771203
153	0x3e2bfd91	0.16795947
154	0xbd0f9f3b	-0.035063963
155	0xbc4feddc	-0.012690987
156	0xbe4b5517	-0.19856678
157	0xbcc3913e	-0.023872968
158	0x3a9aa0ff	0.0011797248
159	0xbe53e934	-0.20694429
160	0xbe59392e	-0.21213219
161	0xbe88ca07	-0.26716635
162	0xbe54c874	-0.20779592
163	0xbde58446	-0.1120687
164	0xbd9f5dd0	-0.07781565
165	0xbde7635e	-0.1129825
166	0xbd8237b2	-0.06358279
167	0x3d95988a	0.07304485
168	0x3d4898a1	0.048973683
169	0x3b0600a9	0.002044717
170	0xbe7dfb59	-0.24802913
171	0xbd913c01	-0.07091523
172	0xbd4a7f4d	-0.04943781
173	0xbe1c7098	-0.15277326
174	0xbe7b55ab	-0.24544398
175	0xbe46e289	-0.19422354
176	0xbd94a514	-0.07258049
177	0xbd3ab068	-0.04557839
178	0xbe5fe6cb	-0.21865384
179	0x3d5bcecf	0.053664025
180	0xbe18437e	-0.14869496
181	0xbdc8ea49	-0.09810311
182	0xbe360f5f	-0.17779301
183	0xbe308c7e	-0.17241094
184	0xbd4fdace	-0.050745778
185	0xbdb954c3	-0.0904937
186	0xbe88af8d	-0.26696435
187	0x3da00483	0.078133605
188	0xbe040f39	-0.12896432
189	0xbd065e36	-0.03280469
190	0x3ced9424	0.029001303
191	0xbdc46980	-0.09590435
192	0xbe03e160	-0.12878942
193	0xbe0dbe5b	-0.13842146
194	0x3d96fb24	0.0737212
195	0x3e47cc6b	0.19511573
196	0x3d6c90b8	0.057755202
197	0x3cae8b04	0.021306522
198	0x3d544a31	0.051828567
199	0xbe23cfd9	-0.15997256
200	0xbd97808b	-0.073975645
201	0x3d964d80	0.07339001
202	0xbe0a6840	-0.1351633
203	0xbe443830	-0.19162059
204	0x3da3d053	0.07998719
205	0x3d8a06b7	0.06739562
206	0x3e08d7ab	0.13363521
207	0x3c383328	0.011242665
208	0xbb3288b9	-0.0027242138
209	0x3dda311e	0.106538996
210	0xbe135d7b	-0.14391129
211	0x3d5fffde	0.054687373
212	0x3cc3f9c8	0.023922816
213	0x3c3cce9f	0.011523872
214	0x3d2a8440	0.04163003
215	0xbe5491e5	-0.2075878
216	0x3da4fccb	0.08056029
217	0x3d1721b4	0.036897376
218	0xbb3af63f	-0.0028528122
219	0xbe4c7f6c	-0.19970483
220	0xbc806aef	-0.01567599
221	0xbe83410a	-0.25635558
222	0xbe24e7a3	-0.16103987
223	0xbe3ad958	-0.18246973
224	0x3d0091b5	0.031388957
225	0xbd422791	-0.047401015
226	0xbe1bb869	-0.15207066
227	0xbc047dd0	-0.008086637
228	0xbda51979	-0.08061499
229	0xbe8be59c	-0.27323616
230	0xbe28481e	-0.1643376
231	0x3b837b35	0.00401249
232	0xbd6c99a6	-0.057763718
233	0x3bb053ce	0.005381084
234	0xbc89adde	-0.01680654
235	0xbe44eb4f	-0.19230388
236	0xbd99b7df	-0.07505774
237	0xbe47cd2f	-0.19511865
238	0x3d1c3f4c	0.038146302
239	0xbdf819b4	-0.121142775
240	0xbe7523d1	-0.23939444
241	0xbe588e65	-0.21148069
242	0xbe422559	-0.1895956
243	0x3d12eae7	0.03586855
244	0xbd99e961	-0.075152166
245	0xbe11da49	-0.14243425
246	0x3dc6091a	0.09669705
247	0xbe017205	-0.12641151
248	0xbe3e8a0f	-0.18607353
249	0xbe601856	-0.21884283
250	0xbce0a3fc	-0.027421944
251	0xbe3c355b	-0.18379728
252	0xbdd4681f	-0.10371422
253	0xbca5dc60	-0.020246685
254	0xbe5dac82	-0.21647838
255	0xbe5730c5	-0.21014698

layers.1.fc_pool.bias f4 [128]
0	0xbe04d134	-0.1297043
1	0xbd4b30ea	-0.049607195
2	0xbddcdac3	-0.10783913
3	0xbd8dca94	-0.06923404
4	0xbe0833ef	-0.13301061
5	0xbd8b97e7	-0.068160824
6	0xbe2ef22e	-0.17084572
7	0xbde03bd0	-0.10948908
8	0xbd8c8572	-0.0686139
9	0xbd09128c	-0.033464953
10	0xbe392e9c	-0.18084186
11	0xbe3812f3	-0.17975979
12	0xbd8812c1	-0.06644202
13	0xbd9c0b54	-0.07619348
14	0xbd19f9b0	-0.037591636
15	0xbdece62e	-0.11567341
16	0xbdc12476	-0.094307825
17	0xbda221c2	-0.07916595
18	0xbd5705e3	-0.05249585
19	0xbe2ebb5e	-0.17063662
20	0x3d06a96e	0.032876424
21	0xbe1df3c7	-0.15425025
22	0xbe409b00	-0.18809128
23	0xbdbf92c2	-0.09354164
24	0xbe384f78	-0.17999065
25	0xbd281e37	-0.04104444
26	0xbdfb582b	-0.12272676
27	0xbe5ef334	-0.21772462
28	0xbd809e91	-0.06280244
29	0xbe1220d3	-0.14270334
30	0xbe5b9f49	-0.21447481
31	0xbe06eeee	-0.13177082
32	0xbe2e6c43	-0.17033486
33	0xbe3b1a2b	-0.18271701
34	0x3cf1564a	0.029460091
35	0xbe3fcf3e	-0.187314
36	0xbddb403e	-0.107056126
37	0x3d370296	0.0446802
38	0xbd410827	-0.047126915
39	0xbe262112	-0.16223553
40	0xbe031342	-0.12800315
41	0x3c4de50c	0.012566816
42	0xbe34809c	-0.17627186
43	0xbe0162fc	-0.12635416
44	0xbd6b3730	-0.057425678
45	0xbd066aba	-0.032816626
46	0xbe3894d1	-0.18025519
47	0xbdd2aab4	-0.10286465
48	0xbdd2b46a	-0.102883175
49	0xbde54329	-0.111944504
50	0xbdf2ca26	-0.11854963
51	0xbe036d70	-0.12834716
52	0xbe4a38d9	-0.19748248
53	0xbc8cf81c	-0.017208152
54	0xbde37edf	-0.11108183
55	0xbe1ccc11	-0.1531222
56	0xbdfe8cf2	-0.12429227
57	0xbdaf73cb	-0.08567008
58	0xbde83d61	-0.11339832
59	0xbe1b4276	-0.15162072
60	0xbda65155	-0.081209816
61	0xbda6193a	-0.0811028
62	0xbe41a318	-0.18909872
63	0xbe041824	-0.12899834
64	0xbdc9f39a	-0.098609164
65	0xbe362ca1	-0.17790462
66	0xbe10f2da	-0.1415514
67	0xbd3ec58a	-0.046575107
68	0xbacb801a	-0.0015525848
69	0xbe3a4249	-0.18189348
70	0xbdbf1413	-0.09330001
71	0x3d8ad8fc	0.06779668
72	0xbdad24e3	-0.08454301
73	0xbd4766e3	-0.048682105
74	0xbe0c1c0d	-0.13682576
75	0xbd96800f	-0.07348644
76	0xbe095565	-0.13411482
77	0xbda587d3	-0.08082547
78	0xbe129a8b	-0.14316766
79	0xbdc84003	-0.09777834
80	0xbd9665f7	-0.07343667
81	0xbd93084a	-0.071793154
82	0xbdebe3d1	-0.11518062
83	0xbddb29b4	-0.107013136
84	0xbd54695d	-0.051858295
85	0xba0e0cd2	-0.00054187805
86	0xbe12999f	-0.14316414
87	0xbd922245	-0.07135443
88	0x3d46a2a0	0.048494935
89	0xbdaf8f74	-0.085722834
90	0xbe21aa3f	-0.157876
91	0x3cd96eb9	0.026542054
92	0xbe3cffce	-0.18456957
93	0xbde09db7	-0.10967582
94	0x3c83ff49	0.01611294
95	0xbe2574a2	-0.16157773
96	0xbe37095e	-0.17874667
97	0xbe2eb7ae	-0.17062256
98	0xbd21e44c	-0.03952436
99	0xbddc34c4	-0.10752252
100	0xbbb9f0ca	-0.0056744562
101	0xbddf2aad	-0.10896812
102	0x3c99cf08	0.018775478
103	0xbe37697c	-0.17911333
104	0x3cdaaf0d	0.026694799
105	0xbdf7bfa7	-0.12097102
106	0x3d41300a	0.047164954
107	0xbd6f4db4	-0.058423713
108	0xbe19e1b6	-0.15027508
109	0x3d82f6e3	0.06394746
110	0xbd019137	-0.03163263
111	0xbe0e94a5	-0.13923891
112	0xbe04b288	-0.1295873
113	0xbd57af60	-0.052657485
114	0x3d34d57f	0.04414892
115	0xbdfb69f5	-0.12276069
116	0xbe067d3f	-0.13133715
117	0xbdfe2ff5	-0.12411491
118	0xbdc64bc0	-0.09682417
119	0xbe1f5919	-0.15561332
120	0xbdda4cb9	-0.10659165
121	0xbe1c5b6a	-0.15269247
122	0xbe26c0c5	-0.16284473
123	0xbe566142	-0.20935538
124	0xbdf3c973	-0.11903658
125	0xbb84f056	-0.0040569706
126	0xbe420297	-0.189463
127	0xbd9ed6c6	-0.077558085

layers.1.fc_self.weight f4 [2, 128]
0	0x3ed1ae63	0.4095336
1	0xbe93ef93	-0.28893718
2	0x3e956faa	0.29186755
3	0xbef11955	-0.4708964
4	0xbeb58e0f	-0.35459945
5	0x3ed535f1	0.41642717
6	0x3f25aeaf	0.6471967
7	0x3d3d6c42	0.04624582
8	0x3ee1886f	0.44049403
9	0x3ef9c75c	0.48784912
10	0x3e64afaa	0.22332636
11	0x3f09d05b	0.5383355
12	0xbe855808	-0.26043725
13	0x3efbee49	0.49205235
14	0x3f661316	0.8987287
15	0x3e5658e3	0.20932345
16	0x3f328952	0.69740784
17	0xbed4a32e	-0.41530746
18	0xbe4c4962	-0.19949868
19	0x3ef6bb10	0.48189592
20	0x3e2344a1	0.15944149
21	0xbf05d673	-0.5228035
22	0xbf173e90	-0.5907984
23	0xbe888de9	-0.2667077
24	0xbf2b3b51	-0.66887385
25	0x3ed3e1b8	0.41383147
26	0x3cb46cd0	0.022024542
27	0xbe98206a	-0.2971223
28	0xbe88a23a	-0.2668627
29	0x3ea82a98	0.32844996
30	0x3f434201	0.7627259
31	0x3f93deb0	1.1552334
32	0xbe889d95	-0.26682726
33	0xbdc75b66	-0.0973423
34	0x3ec42e35	0.38316503
35	0xbebe13a8	-0.37124372
36	0xbf08b74e	-0.534047
37	0x3f162321	0.5864735
38	0x3cfacf68	0.030616477
39	0xbe2067b4	-0.1566456
40	0x3e8734df	0.26407525
41	0x3f2f7e0b	0.685517
42	0xbe888694	-0.26665175
43	0xbec27abb	-0.3798426
44	0xbebfbcc7	-0.37448713
45	0x3f0e72e4	0.5564406
46	0x3ea975df	0.3309774
47	0xbf172ccd	-0.59052736
48	0xbe07688b	-0.13223474
49	0xbf1f1562	-0.62142
50	0x3f3473d5	0.70489246
51	0xbe3672d6	-0.17817244
52	0x3f188b33	0.595874
53	0xbf2f4415	-0.6846326
54	0x3f54f80b	0.83190984
55	0x3d8c3f57	0.068480186
56	0x3d260a19	0.040536974
57	0x3ee43dc2	0.44578367
58	0x3f13c844	0.57727456
59	0xbe8da9b3	-0.27668533
60	0x3f13a324	0.5767081
61	0xbd8d8678	-0.069104135
62	0xbe738b91	-0.23783709
63	0x3c8c143a	0.017099489
64	0xbc944f5a	-0.018104244
65	0xbe4f9702	-0.20272449
66	0xbe542ae0	-0.2071948
67	0x3e33301a	0.17498818
68	0x3f1c6330	0.6108885
69	0xbef585fc	-0.47953784
70	0xbe7449cb	-0.23856275
71	0x3ef2b85d	0.47406283
72	0xbbbf4eba	-0.0058382424
73	0xbf5d90ff	-0.8654937
74	0x3eb6648c	0.35623586
75	0xbeb1420e	-0.34620708
76	0x3eaad240	0.33363533
77	0x3ec97985	0.39350525
78	0x3eb1ad82	0.34702688
79	0xbe6b411e	-0.22974059
80	0x3f3722a7	0.7153725
81	0x3eaf603b	0.34253106
82	0x3f0ddaef	0.5541219
83	0x3f010c25	0.50409156
84	0x3e945a51	0.28975156
85	0x3f273bac	0.6532543
86	0xbda4c825	-0.08045987
87	0x3e3ad19d	0.18244024
88	0xbf062a18	-0.5240798
89	0xbeb03d95	-0.34421983
90	0x3f269585	0.650719
91	0x3e785cd9	0.24254169
92	0xbe3cb654	-0.18428928
93	0x3f2613b9	0.64873844
94	0xbf577049	-0.8415571
95	0x3eb8b11d	0.36072627
96	0x3eaf31b9	0.34217623
97	0x3ebeddec	0.37278688
98	0x3e0ca9fa	0.13736716
99	0xbe876a83	-0.2644845
100	0xbeb09686	-0.3448984
101	0xbf1f940f	-0.62335294
102	0xbf40388b	-0.7508628
103	0x3f3786a6	0.7168983
104	0x3f0142ab	0.5049235
105	0xbedc9f6c	-0.4309038
106	0x3fb754b7	1.4322728
107	0xbf003c9a	-0.5009247
108	0xbe6bc4aa	-0.2302424
109	0x3f358f2c	0.7092159
110	0x3ec91cf3	0.392799
111	0x3f0efc44	0.55853677
112	0xbe6a5343	-0.22883324
113	0x3d92d281	0.07169057
114	0xbe7ee47c	-0.24891847
115	0x3f08821f	0.5332355
116	0x3f50f7d8	0.8162818
117	0x3d0651b5	0.032792766
118	0x3f17281c	0.5904558
119	0xbe30bf6e	-0.17260525
120	0x3ea0a232	0.31373745
121	0x3f58ea45	0.84732467
122	0x3eb46cfc	0.35239398
123	0x3ee7f895	0.4530684
124	0xbe50b97e	-0.2038326
125	0x3e3ae620	0.18251848
126	0xbe69bb24	-0.22825295
127	0xbe8f779b	-0.2802094
128	0xbebde172	-0.37086064
129	0x3e916945	0.28400627
130	0xbd3c1e7a	-0.045927502
131	0x3ed67c5b	0.4189175
132	0x3e81f024	0.25378525
133	0xbeb4ab88	-0.35287118
134	0xbeafd5e7	-0.34342882
135	0xbe4f9eaa	-0.2027537
136	0xbe2ced69	-0.1688744
137	0xbf1f0c19	-0.62127835
138	0xbe880097	-0.2656295
139	0xbe549329	-0.20759262
140	0x3f0e2e1c	0.5553911
141	0xbefda759	-0.4954174
142	0xbf2b6d8c	-0.6696403
143	0x3eb17f9f	0.3466768
144	0xbf427bda	-0.7597023
145	0x3f16f955	0.589742
146	0x3c5609c1	0.013063849
147	0xbe2376e1	-0.15963317
148	0xbf13e29d	-0.5776766
149	0xbcdf9af5	-0.027295569
150	0x3e3d9927	0.18515454
151	0x3f096f9d	0.53685933
152	0xbd776bda	-0.06040559
153	0xbf05abdf	-0.5221538
154	0x3e5928c1	0.21206953
155	0x3e2ac444	0.16676432
156	0x3f1ef88c	0.62098
157	0xbebd11c2	-0.3692761
158	0xbf01b0e4	-0.5066054
159	0xbf861356	-1.0474651
160	0x3f0397cc	0.514035
161	0xbec535cc	-0.38517606
162	0xbe057c0b	-0.130356
163	0x3dddac3f	0.10823869
164	0x3eb08e6d	0.34483662
165	0xbec14a58	-0.37752032
166	0xbf20b66d	-0.6277836
167	0x3ecbadde	0.39781088
168	0xbdd174a8	-0.102273285
169	0xbef92a36	-0.48665017
170	0x3eebccc2	0.46054655
171	0x3dd8a13d	0.10577629
172	0x3f7368cb	0.95081776
173	0xbf73481d	-0.9503191
174	0xbd9054b7	-0.07047408
175	0x3e04cbe9	0.1296841
176	0xbf0b8a2d	-0.54507715
177	0x3f0c604b	0.5483443
178	0xbe217607	-0.1576768
179	0x3eb55537	0.35416576
180	0xbeeba652	-0.4602533
181	0x3f3d6c1f	0.73993105
182	0xbf0a0b3f	-0.5392341
183	0xbe89ca1c	-0.2691201
184	0x3eb05f69	0.34447792
185	0xbf07f18b	-0.5310294
186	0xbf41c12b	-0.75685376
187	0xbd14b74e	-0.036307625
188	0xbee422ad	-0.44557706
189	0xbf18cae7	-0.59684604
190	0xbeaa221f	-0.33229157
191	0xbe8235c2	-0.2543164
192	0xbe653f03	-0.22387318
193	0x3e8f9264	0.28041375
194	0x3d9115bc	0.07084224
195	0xbe2ccebb	-0.16875736
196	0xbe7b33d1	-0.24531485
197	0x3e24dbea	0.16099516
198	0x3e9bdcea	0.30441982
199	0xbeb003d1	-0.34377912
200	0xbed429ae	-0.4143805
201	0x3f0cf900	0.55067444
202	0x3b0edb55	0.0021798213
203	0x3eae98c7	0.34100935
204	0xbd2f825e	-0.042848937
205	0xbf215093	-0.6301357
206	0xbf2f85a5	-0.685633
207	0x3e92f609	0.28703335
208	0xbde29ef7	-0.110654764
209	0x3daac648	0.083386004
210	0xbf3a455b	-0.7276208
211	0xbf2e6d1b	-0.6813523
212	0xbefe4668	-0.4966309
213	0xbf543ec3	-0.82908267
214	0xbe173463	-0.14766078
215	0xbeee6baf	-0.4656653
216	0x3f324cbb	0.6964833
217	0x3ea52f65	0.32262722
218	0xbe279cc6	-0.16368398
219	0xbf12239c	-0.57085586
220	0x3ef0378d	0.46917382
221	0xbf26a9f6	-0.6510309
222	0x3eb69304	0.3565904
223	0xbf35b775	-0.7098306
224	0xbf14541f	-0.5794086
225	0xbe66abb1	-0.22526433
226	0xbe6889f8	-0.22708881
227	0x3f0958f4	0.53651357
228	0x3e88c8dd	0.26715747
229	0xbc87445d	-0.01651209
230	0x3ee6ceaa	0.45079547
231	0x3e06bac8	0.13157189
232	0xbef94925	-0.48688617
233	0x3f3227ae	0.69591796
234	0xbf47832b	-0.7793452
235	0x3ece08ca	0.4024108
236	0x3f11c832	0.569461
237	0xbf27e550	-0.6558428
238	0xbf19b66e	-0.6004399
239	0xbe8b4105	-0.27198043
240	0x3e54c34f	0.2077763
241	0x3e5caa52	0.21549347
242	0xbd2b549b	-0.041828733
243	0xbede343a	-0.4339922
244	0xbf3ea1e9	-0.74465805
245	0xbea358b9	-0.31903628
246	0xbe14ab95	-0.14518578
247	0x3ee8a649	0.45439366
248	0xbed67ee4	-0.41893685
249	0xbf2b6a14	-0.6695874
250	0xbe995b3f	-0.29952428
251	0xbe58091c	-0.21097225
252	0x3e082b00	0.13297653
253	0xbef2a0fa	-0.4738844
254	0x3ef2087c	0.47272098
255	0x3e983418	0.29727244

layers.1.fc_neigh.weight f4 [2, 128]
0	0x3dcb1f9a	0.09918137
1	0xbe2c37d2	-0.16818169
2	0x3cab08c8	0.02087821
3	0x3d87f95c	0.066393584
4	0x3d09dbea	0.033656992
5	0x3e3e7ff3	0.18603496
6	0xbd08e744	-0.033423677
7	0xbdd7c4f0	-0.1053561
8	0x3d8d53b9	0.069007345
9	0xbdb55bdd	-0.08855412
10	0xbe1aa283	-0.15101056
11	0x3d8a7cd8	0.06762093
12	0xbd36231a	-0.04446707
13	0x3cef2b85	0.029195556
14	0x3cf1abbc	0.029500835
15	0xbc9d19a6	-0.01917727
16	0xbd2a5169	-0.041581545
17	0x3cd7ef40	0.0263592
18	0x3dfc1fce	0.12310754
19	0x3e2781a2	0.16358045
20	0x3d8ccc39	0.0687489
21	0xbdebd10c	-0.11514482
22	0x3e137f60	0.14404058
23	0xbd82e864	-0.06391981
24	0x3c146182	0.009056451
25	0x3d8f730a	0.07004364
26	0x3e68d0b0	0.22735858
27	0x3d3f4282	0.046694286
28	0xbe4cef9e	-0.20013282
29	0xbdd3f4d9	-0.10349435
30	0x3c758087	0.014984257
31	0xbd7cd655	-0.06172784
32	0xbe0be073	-0.1365984
33	0x3e44d163	0.192205
34	0x3c134855	0.008989413
35	0x3dcc5ac3	0.09978249
36	0x3d04a182	0.03238059
37	0x3cdab026	0.026695322
38	0xbd9870c1	-0.07443381
39	0x3e31be16	0.17357668
40	0xbb5baf78	-0.0033521336
41	0x3d6fa7f8	0.058509797
42	0xbbacea9f	-0.0052769925
43	0x3d8b9ad5	0.06816641
44	0xbcb0fc13	-0.021604573
45	0xbd764e02	-0.060132988
46	0x3e6c7530	0.23091578
47	0xbd93284e	-0.07185422
48	0x3bb26c06	0.0054450063
49	0xbc5d210a	-0.013496647
50	0xb9e643f5	-0.0004391965
51	0x3dfcfbb1	0.12352694
52	0xbd90d139	-0.07071156
53	0xbbee6a84	-0.0072758812
54	0xbd13eaa8	-0.036112458
55	0xbc904c04	-0.017614372
56	0x3c51ee27	0.012813128
57	0x3bbc3348	0.005743418
58	0xbb979196	-0.0046255095
59	0x3d31982c	0.043358013
60	0x3c8ffe91	0.017577441
61	0xbdad1d62	-0.0845287
62	0x3d053b4e	0.03252726
63	0xbcae23d3	-0.021257317
64	0x3dcd7c38	0.100334585
65	0x3e76bab4	0.24094659
66	0xbe37963e	-0.17928407
67	0xbd31c5a6	-0.043401383
68	0xbcbea4ae	-0.023271885
69	0x3d8e44a3	0.06946685
70	0xb9b0c504	-0.00033716124
71	0x3dda618b	0.10663136
72	0x3c8b2996	0.016987603
73	0xbd65d669	-0.05611268
74	0xbd0195ca	-0.03163699
75	0x3d43c85b	0.047798496
76	0xbd0a1d61	-0.033719424
77	0x3d30a784	0.043128505
78	0xbb894834	-0.0041895155
79	0x3c0bc428	0.008530654
80	0x3dd33307	0.10312467
81	0x3c759fa9	0.014991679
82	0xbd377376	-0.044787847
83	0x3d03a95f	0.032143947
84	0xbceb9525	-0.028757641
85	0xbe31a646	-0.17348585
86	0x3be3cca5	0.0069518858
87	0xbce4e848	-0.027942792
88	0xbd46f428	-0.04857269
89	0xbce84c17	-0.028356595
90	0x3d02199c	0.031762704
91	0x3d511521	0.05104554
92	0xbc93b572	-0.018030856
93	0xbd9890d7	-0.07449501
94	0x3d8a7deb	0.06762298
95	0xbe2a8e5d	-0.1665587
96	0xbbc3b70c	-0.0059727486
97	0x3dac7e10	0.08422482
98	0x3bf1cf4d	0.0073794485
99	0xbc148fcb	-0.009067486
100	0x3d14f7ee	0.036369257
101	0xbd94a42a	-0.07257874
102	0xbd38d40f	-0.04512411
103	0x3e50a266	0.2037445
104	0xbdfe3ff5	-0.124145426
105	0xbc780fb0	-0.015140459
106	0x3cefc976	0.029270869
107	0xbe07012a	-0.13184038
108	0x3c36c02c	0.011154216
109	0x3dec562c	0.115398735
110	0x3e40a062	0.18811181
111	0xbc21a16d	-0.009865147
112	0xbce24160	-0.027619064
113	0xbd85fa12	-0.06541838
114	0xbdffbf72	-0.12487687
115	0xbd939b5c	-0.07207367
116	0x3c836dd2	0.016043577
117	0x3d3da7c7	0.046302583
118	0x3da24af4	0.079244524
119	0x3daa7c5e	0.083245024
120	0x3dacabab	0.084311806
121	0xbd8ac30c	-0.067754835
122	0xbde2f7e9	-0.11082441
123	0x3d1543d0	0.036441624
124	0x3cd51730	0.026012033
125	0xbd9cef5e	-0.07662843
126	0xbd7dba09	-0.061944995
127	0x3e17bb11	0.14817454
128	0x3daa94ba	0.083291486
129	0xbbf5ad27	-0.007497448
130	0x3be5c40e	0.007011897
131	0x3d0d6c4b	0.034527104
132	0x3d86650f	0.06562244
133	0x3decfe64	0.11571959
134	0x3e166acd	0.14689179
135	0x3dfdd99c	0.12395021
136	0x3b157959	0.0022807925
137	0x3e2c4310	0.16822457
138	0x3b880425	0.0041508847
139	0x3ddd07e0	0.10792518
140	0x3b0fb275	0.0021926437
141	0xbcbeb5e6	-0.023280095
142	0x3d8e15d8	0.0693776
143	0xbc9c2835	-0.019062141
144	0xbc32a9eb	-0.010904769
145	0xb97bc8f2	-0.00024012083
146	0x3de5e740	0.11225748
147	0x3e2f3c0b	0.17112748
148	0x3b9ace73	0.0047243177
149	0xbd3aae1e	-0.045576207
150	0x3e2dc899	0.16971053
151	0xbc197827	-0.009367025
152	0x3c358ecc	0.011081409
153	0x3e001967	0.1250969
154	0x3e306d4e	0.17229196
155	0x3c820d3d	0.015875453
156	0xbe46213b	-0.19348614
157	0x3cb10e7d	0.021613354
158	0x3dd65ad9	0.104665466
159	0xbcf5d0e9	-0.030006843
160	0xbdf9249e	-0.12165187
161	0x3e2b79c8	0.16745675
162	0xbdfc6f7f	-0.12325954
163	0x3c76c10c	0.015060674
164	0x3c9b0f40	0.01892817
165	0xbd33299f	-0.043740865
166	0xbd633dcd	-0.05547886
167	0x3dea6183	0.1144438
168	0xbd478d95	-0.048719008
169	0xbd8d7a39	-0.06908078
170	0xbd787fa0	-0.060668588
171	0x3dade8ee	0.084916934
172	0xbc9110ce	-0.017708208
173	0x3c251537	0.010075859
174	0x3e7571ba	0.23969164
175	0x3e0827ea	0.13296476
176	0x3b3e6d40	0.0029056817
177	0xbb708382	-0.0036699479
178	0xbad2174c	-0.0016028672
179	0x3d440eea	0.047865786
180	0xbe0d67e6	-0.13809165
181	0x3b5d78e3	0.0033793978
182	0xbdc4c587	-0.09607988
183	0x3da25ee9	0.07928259
184	0xb9d9a1fc	-0.00041510153
185	0xbd2e41b9	-0.042543147
186	0xbc8d6813	-0.01726154
187	0x3d5abe2b	0.053404015
188	0x3e52c3ae	0.20582458
189	0x3d4f33ac	0.050586388
190	0x3c60c950	0.013719872
191	0x3ba3cc1c	0.004998697
192	0x3e091998	0.1338867
193	0x3da2795a	0.07933302
194	0x3e56a456	0.20961127
195	0xbd8402fc	-0.06445882
196	0x3de95191	0.11392511
197	0x3c304075	0.010757555
198	0xbd1856dd	-0.037192214
199	0xbde612ce	-0.112340555
200	0xbccffa16	-0.025387805
201	0x3c039740	0.008031666
202	0xbd4d8eee	-0.050185136
203	0x3d13bd45	0.036069173
204	0xbc540eb5	-0.01294296
205	0xbd836f92	-0.06417765
206	0x3d77aaa0	0.060465455
207	0x3c9d0344	0.019166596
208	0x3e0d0ef6	0.13775238
209	0x3e55b6f9	0.2087058
210	0x3d38e9c4	0.04514481
211	0x3e4e1a90	0.2012732
212	0xbccf5aec	-0.02531191
213	0xbc8c9643	-0.017161494
214	0xbb0a09a7	-0.0021062882
215	0x3c9054ca	0.017618556
216	0x3daec14e	0.08532964
217	0x3dad7edc	0.08471462
218	0x3d2de36f	0.042453226
219	0xbcb30f1b	-0.021857789
220	0xbdc58f02	-0.09646417
221	0x3b793d54	0.003803094
222	0xbdb1e032	-0.0868534
223	0x3cbff90d	0.023434186
224	0xbcb5cd9b	-0.022192767
225	0xbe56ac52	-0.20964172
226	0xbd952f31	-0.07284392
227	0x3b3bee75	0.0028676067
228	0xbd354fbe	-0.0442655
229	0xbe11eb43	-0.14249901
230	0xbdbe77c6	-0.09300189
231	0x3e216019	0.15759315
232	0xbe4f6b3b	-0.20255749
233	0x3e206ee1	0.15667297
234	0x3d82c795	0.063857235
235	0xbd06100d	-0.03273015
236	0xbd0ec9f2	-0.03486056
237	0xbd8abc90	-0.06774247
238	0x3cfccbe4	0.030858941
239	0x3cbed8ee	0.0232968
240	0x3d9c8824	0.07643154
241	0xbdbac974	-0.091204554
242	0xbe17fd6a	-0.14842764
243	0xbc225d30	-0.009909913
244	0x3b8f05d5	0.004364709
245	0x3c813644	0.015772946
246	0x3e053a21	0.13010456
247	0x3cc0c02e	0.023529138
248	0x3daf0ead	0.08547721
249	0xbd700967	-0.058602717
250	0xbd52f59b	-0.05150376
251	0x3cbffa59	0.023434805
252	0xbc78791e	-0.015165595
253	0xbe1fd917	-0.15610157
254	0xbc02059b	-0.007935907
255	0x3e1a31fe	0.15058133
