bank/model.pt (torch, 82835 bytes, 10 tensors)

layers.0.bias f4 [124]
-0.13269144 -0.24918924 -0.3644201 -0.30926207 -0.552373 -0.23789899 -0.28595865 -0.4798942
-0.45644924 -0.22407557 -0.30608207 0.016474484 -0.21355279 -0.110905744 -0.25112644 -0.5175841
-0.35093752 -0.34161767 -0.28316912 -0.4395443 0.08956523 -0.09524012 -0.1944157 -0.24172409
-0.23480834 -0.09839845 -0.1818403 -0.092477635 -0.256423 -0.22818564 -0.12265656 -0.6579987
-0.17734288 -0.5393682 -0.46343365 -0.56634504 -0.5019538 -0.35790682 -0.27551925 -0.25347626
-0.16299117 -0.11840011 -0.34961694 -0.10134999 -0.39485863 -0.37671438 -0.07209858 -0.02529887
-0.12817416 -0.17367232 -0.6390368 -0.2899051 -0.31531134 -0.25585368 -0.23758177 -0.4890017
-0.2837972 -0.4170082 -0.41505876 -0.14154652 -0.26055196 -0.22059286 -0.434653 -0.08013107
-0.18370128 -0.37167874 -0.1311396 -0.2946059 -0.13286896 -0.22282375 -0.33448806 -0.12345267
-0.23303278 0.09433046 -0.06872877 -0.35715643 -0.05805424 -0.27178732 -0.23701903 -0.0050309086
0.01657807 -0.38794592 -0.21917339 -0.09918693 -0.45758662 -0.1856944 -0.24963191 -0.2950159
-0.4347905 -0.253047 -0.26619908 -0.18431577 -0.26518786 -0.3173864 -0.5548619 -0.17899421
-0.22750545 -0.46096566 -0.19234417 -0.4000087 -0.3770841 -0.19306523 -0.05077995 -0.19044222
-0.1472712 -0.39082885 -0.29391253 -0.2497632 -0.2253707 -0.34160912 -0.23620418 -0.5764911
-0.16726764 -0.24360739 -0.17993587 -0.42641592 -0.1647335 -0.286985 -0.22265886 -0.2576377
0.022128707 -0.16780062 -0.16227722 -0.27792084
00000000: 44e0 07be 772b 7fbe 4595 babe 9957 9ebe
00000010: 5168 0dbf cb9b 73be 2c69 92be b1b4 f5be
00000020: b7b3 e9be 1174 65be cab6 9cbe 7ff5 863c
00000030: 95ad 5abe 8d22 e3bd a593 80be 6480 04bf
00000040: 15ae b3be 83e8 aebe 8bfb 90be f30b e1be
00000050: fa6d b73d 410d c3bd e914 47be 8586 77be
00000060: 9971 70be 2085 c9bd 5834 3abe ea64 bdbd
00000070: e049 83be 7fa9 69be 5d33 fbbd 9a72 28bf
00000080: 5f99 35be 0914 0abf 2d47 edbe fdfb 10bf
00000090: 0b80 00bf 903f b7be dc10 8dbe a4c7 81be
000000a0: 28e7 26be c27b f2bd fe00 b3be 9590 cfbd
000000b0: e92a cabe b5e0 c0be 6ca8 93bd 933f cfbc
000000c0: 1640 03be 28d7 31be ea97 23bf 716e 94be
000000d0: 7d70 a1be 41ff 82be a348 73be 6e5e fabe
000000e0: de4d 91be 1982 d5be 9582 d4be 92f1 10be
000000f0: 1167 85be 18e3 61be d78a debe c21b a4bd
00000100: 301c 3cbe ad4c bebe 7649 06be 96d6 96be
00000110: cd0e 08be e92b 64be 0542 abbe c1d4 fcbd
00000120: 25a0 6ebe 5430 c13d abc1 8cbd 35dd b6be
00000130: 48ca 6dbd b527 8bbe 1eb5 72be 52da a4bb
00000140: bcce 873c d9a0 c6be fd6e 60be 8422 cbbd
00000150: cb48 eabe ac26 3ebe 829f 7fbe 530c 97be
00000160: dc9c debe 608f 81be 3f4b 88be 46bd 3cbe
00000170: b4c6 87be 7880 a2be 6e0b 0ebf 424a 37be
00000180: 30f7 68be b103 ecbe dff5 44be f1cd ccbe
00000190: 2b11 c1be e4b2 45be a3fe 4fbd 4903 43be
000001a0: 43ce 16be b81a c8be b47b 96be edc1 7fbe
000001b0: 94c7 66be 64e7 aebe 82df 71be ec94 13bf
000001c0: 3548 2bbe 3774 79be 1c41 38be 3053 dabe
000001d0: e6af 28be b3ef 92be af00 64be 17e9 83be
000001e0: 4347 b53c edd3 2bbe 002c 26be a44b 8ebe

layers.0.fc_pool.weight f4 [14, 14]
0.004268893 -0.0076626837 0.013677917 -0.0035540021 -0.20733668 -0.00051525695 0.011824174 -0.5053619
-0.0042664614 0.001355601 -0.013033066 -0.02542249 -0.26043913 0.37317842 0.07356204 -0.12826388
-0.023720324 -0.04048232 0.02242756 0.042367157 0.011412589 0.017659442 0.02553463 0.0007658286
-0.071826264 -0.11730386 -0.25554377 0.1499177 -0.028243247 -0.006748423 -0.011774896 -0.0026344957
-0.9275564 0.0045419172 -0.016539907 0.008477493 -0.01670898 -0.034466982 -0.008310339 0.54262877
-0.056039613 0.0036267084 -0.04442153 -0.008364489 0.01600926 -0.08203481 0.0440221 0.023736604
-0.042170785 -0.018017154 -0.10838329 0.04294336 0.039946448 0.10951433 0.029451258 -0.028580548
0.0032672626 -0.0021872898 -0.009150984 -0.015378546 -0.64463633 -0.009729422 -0.008029569 0.0030493739
0.0051175663 0.009180157 -0.021334577 0.07629771 -0.9508376 -0.09000457 0.0032754499 -0.027718024
-0.006736563 0.009286344 -0.81916296 -0.011252963 0.02090153 0.021671066 0.019031672 -0.028775066
-0.009410976 0.006098367 -0.005079076 0.5236602 -0.033664595 -0.0025941925 -0.03202001 -0.014522717
-0.7894498 -0.009129586 -0.003190975 -0.01337675 -0.017261839 0.0048388434 -0.00024630327 0.20551746
-0.037815716 0.0021361306 -0.052166075 0.052181568 0.051251665 -0.11287225 -0.01221959 -0.009516308
0.06591726 -0.1252872 0.06260853 -0.03572746 1.0421414e-05 -0.02402363 -0.15827166 -0.04446896
-0.10373486 0.091587335 0.006141944 -0.016493957 0.05504831 0.0069614663 -0.15899831 -0.06581102
0.074989155 -0.0076361164 -0.013605201 -0.012323549 0.032359336 -0.044787407 0.050256692 0.015369775
-0.033673216 0.004491208 0.030639976 -0.02420533 0.0019037104 -0.039084986 0.13852724 0.04597682
0.0027023575 -0.0839818 -0.042899493 0.25736314 0.0056978925 0.007529748 -0.0043374514 0.0049795676
-0.0058040717 -0.026185097 0.070803925 0.0017401022 -0.009880223 0.011987669 -0.014661001 0.0026608878
-0.1336369 -0.013469007 0.0031711394 0.0033419693 -0.015215677 0.024150234 0.03276724 0.0036496627
-0.15572464 0.011118509 0.02621281 0.017852787 -0.0041427086 -0.009734928 0.007170898 0.008955816
0.020781755 -0.007142572 -0.018843872 -0.008550818 -0.032263428 -0.0259376 0.016056402 -0.008872361
-0.004935461 0.022915728 0.0011036156 0.1670225 -0.054749522 0.83094543 0.03788333 -0.013389118
-0.010174555 -0.006919633 -0.0843473 0.0070079695 -0.00064337894 -0.40238622 -0.0013254554 0.0013398955
-0.01864452 -0.02051535 0.0020865512 -0.030625373
00000000: 12e2 8b3b 4017 fbbb 5819 603c 43ea 68bb
00000010: 1150 54be 4f12 07ba 2eba 413c 665f 01bf
00000020: accd 8bbb 6cae b13a a488 55bc d342 d0bc
00000030: 4758 85be 3e11 bf3e b2a7 963d 9b57 03be
00000040: 2051 c2bc cad0 25bd 01ba b73c 2f89 2d3d
00000050: defb 3a3c 89aa 903c 002e d13c e3c1 483a
00000060: a619 93bd 023d f0bd a2d6 82be 0784 193e
00000070: 625e e7bc e021 ddbb 7eeb 40bc 81a7 2cbb
00000080: 5674 6dbf 5dd4 943b b37e 87bc 2fe5 0a3c
00000090: 45e1 88bc 402d 0dbd 1728 08bc b8e9 0a3f
000000a0: cb89 65bd 12ae 6d3b 5af3 35bd 360b 09bc
000000b0: da25 833c de01 a8bd 8450 343d 4473 c23c
000000c0: 46bb 2cbd b698 93bc 0ff8 ddbd 60e5 2f3d
000000d0: e39e 233d 0d49 e03d c443 f13c c121 eabc
000000e0: 921f 563b a258 0fbb 02ee 15bc 4cf6 7bbc
000000f0: e306 25bf 2768 1fbc 748e 03bc 01d8 473b
00000100: 42b1 a73b 5f68 163c dac5 aebc f941 9c3d
00000110: 186a 73bf 5154 b8bd eea8 563b e910 e3bc
00000120: 63be dcbb c025 183c aab4 51bf 595e 38bc
00000130: af39 ab3c 8587 b13c 4fe8 9b3c b0b9 ebbc
00000140: 7f30 1abc cfd4 c73b 616e a6bb 980e 063f
00000150: e3e3 09bd 5403 2abb 6a27 03bd b1f0 6dbc
00000160: 6219 4abf 4294 15bc ad1f 51bb 282a 5bbc
00000170: b368 8dbc 298f 9e3b 4422 81b9 2b73 523e
00000180: a7e4 1abd 53fe 0b3b 18ac 55bd 57bc 553d
00000190: 44ed 513d 9129 e7bd ad34 48bc 4aea 1bbc
000001a0: a1ff 863d 4a4b 00be e738 803d f556 12bd
000001b0: a2d7 2e37 34cd c4bc f711 22be 1625 36bd
000001c0: f172 d4bd 2492 bb3d 5c42 c93b 561e 87bc
000001d0: 567a 613d 031d e43b 74d0 22be eec7 86bd
000001e0: ea93 993d 6338 fabb 59e8 5ebc b6e8 49bc
000001f0: 398b 043d 0073 37bd f6d9 4d3d 82d1 7b3c
00000200: edec 09bd fc2a 933b b000 fb3c 424a c6bc
00000210: ec85 f93a 9417 20bd 16da 0d3e 3152 3c3d
00000220: 091a 313b a6fe abbd 61b7 2fbd 1ac5 833e
00000230: 63b5 ba3b 1bbc f63b 2e21 8ebb a42b a33b
00000240: 1530 bebb 2182 d6bc a601 913d 2414 e43a
00000250: a9e0 21bc ee67 443c b234 70bc 4a62 2e3b
00000260: 1dd8 08be 1cad 5cbc e4d2 4f3b f104 5b3b
00000270: 2d4b 79bc b6d6 c53c f136 063d 2e2f 6f3b
00000280: 4876 1fbe 682a 363c 3fbc d63c 0240 923c
00000290: 8fbf 87bb 3f7f 1fbc daf9 ea3b 6abb 123c
000002a0: 803e aa3c 3d0c eabb 775e 9abc bb18 0cbc
000002b0: a826 04bd 177b d4bc b788 833c 615d 11bc
000002c0: a6b9 a1bb c4b9 bb3c 32a7 903a f207 2b3e
000002d0: 0941 60bd d7b8 543f 8d2b 1b3d 085e 5bbc
000002e0: 2db3 26bc 17be e2bb 47be acbd 1ca3 e53b
000002f0: 6ea8 28ba 9105 cebe e7ba adba 6f9f af3a
00000300: 64bc 98bc cf0f a8bc 85be 083b 10e2 fabc

layers.0.fc_pool.bias f4 [14]
0.3537029 -0.5267775 0.6613056 -0.9133969 0.22400603 0.46811494 0.48596632 -0.68400663
-1.0487955 -0.7273894 -0.2204966 -0.6035204 0.5232813 0.55909324
00000000: 8c18 b53e e4da 06bf 534b 293f 61d4 69bf
00000010: d661 653e c3ac ef3e 94d0 f83e 0f1b 2fbf
00000020: ee3e 86bf 3136 3abf dcc9 61be 5080 1abf
00000030: c3f5 053f bc20 0f3f

layers.0.fc_self.weight f4 [124, 14]
-0.11094822 0.22425398 0.112212636 0.5199747 0.085449554 -0.21422356 0.18347882 -0.22470735
0.21923894 0.29869616 0.99261314 -0.35557756 -0.6511838 0.23264183 -0.4914395 0.110846736
-0.3733247 0.25787687 0.13697885 -0.1485195 0.047714062 0.00923215 0.041203327 0.010729407
-0.4412123 -0.14174421 -0.05377573 -0.02091928 -0.6272429 -0.38336495 0.420547 -0.24353026
0.27462894 0.40368903 -0.4936269 -0.30100724 0.016292173 0.395112 0.0035580918 0.046332415
0.12522629 0.15310755 0.16132353 0.2788932 0.69585335 0.23437887 -0.037461553 -0.624243
0.4313254 0.15154369 0.12978645 -0.16495498 0.11482224 -0.32173732 -0.60450447 0.28877977
0.5499187 0.024997216 -0.16853768 0.4016087 0.25579855 -0.9147525 -0.3360923 0.050383575
0.25398582 0.30462176 1.011926 -0.03735378 0.08605486 -0.42508614 0.19902983 -0.0020971838
-0.5929554 0.5226252 -0.03511259 0.26178247 0.7511663 -0.2199039 -0.12200294 -0.30668136
-0.066304356 0.16996919 -0.24754061 0.7058899 -0.13165018 -0.01592074 0.4960153 -0.8029219
0.4483153 0.15503357 0.25168106 -0.27356347 0.67174095 -1.4515399 0.118217096 0.057963617
0.2708909 0.101187296 -0.5426356 0.10660616 0.49222267 0.36675355 -0.084518924 -0.1193969
0.60629445 -0.38901722 0.053290214 0.67361414 0.1570229 -0.36474323 -0.13030447 0.20034602
0.113035314 -0.32746178 -0.32212904 0.64940476 0.0747259 0.2627979 -0.018589493 0.210706
0.55053455 0.62151337 -0.018986525 -0.07696716 -0.08056789 0.3796611 0.037032098 0.07440575
-0.3130808 0.2128382 -0.015303519 -0.044197444 -0.056455087 0.10624418 0.09319771 0.5536375
-0.3678026 -0.11882569 -0.18202063 0.034736346 0.03419035 -0.04771654 -0.33678555 0.47821635
0.17524709 -0.13230956 0.093022466 0.09775294 -0.19958948 -1.2116266 0.15957278 0.18420842
0.3713484 0.6360341 0.228819 -0.29488274 -0.04193292 -0.0060750265 0.13562858 0.0009658429
-0.051470086 -0.33313948 0.13861217 -0.03742648 0.02617306 0.1108184 -0.15991409 0.031961765
0.32340115 0.17505418 0.4420832 -0.27169725 0.0637669 -0.9792298 0.41148147 -0.23679328
0.30097204 0.029584914 -0.2504567 -0.13439107 -0.07288091 0.15045893 0.1971962 -0.018632442
-0.30502614 0.093384944 0.16560388 0.15631133 0.041664258 -0.31932425 -0.09936216 0.2956242
0.18072511 0.17110643 -0.21100245 0.051162615 0.66078806 0.0073700123 0.29905486 -0.19806468
0.27998698 0.12480152 0.6587849 -0.03701064 0.47467083 -0.20626386 -1.0557445 0.21911743
-0.20810118 0.75357705 -0.10092459 -0.17717372 -0.5255279 0.38256228 0.4383138 -0.31581628
-0.070239075 -0.18024431 0.030826405 -1.6208236 -0.244369 -0.07124306 -0.13927823 -0.3811449
-0.49767917 -0.27151525 -0.18722263 -0.48117292 0.094629645 0.171175 0.4302044 -0.16783309
0.57619894 -1.2240082 0.82406163 -0.43305582 -0.6283713 -0.13346523 -0.57467186 -0.33230945
-0.03743072 0.37548512 0.084478475 -0.59942156 -0.20132841 -0.019284654 0.30028108 -0.35729313
-0.50942427 0.08348103 -0.16822438 0.28708678 0.067150384 0.2814891 -0.3623048 0.43186477
00000000: d238 e3bd d6a2 653e bdcf e53d 101d 053f
00000010: 2d00 af3d 6c5d 5bbe dfe1 3b3e af19 66be
00000020: 2c80 603e b4ee 983e e51b 7e3f 430e b6be
00000030: fbb3 26bf a939 6e3e f59d fbbe 9d03 e33d
00000040: 6a24 bfbe 7008 843e 2f44 0c3e 7f15 18be
00000050: d26f 433d 7242 173c d2c4 283d 65ca 2f3c
00000060: 94e6 e1be 6525 11be f143 5cbd e95e abbc
00000070: fe92 20bf 6948 c4be f051 d73e ff5f 79be
00000080: 2a9c 8c3e 54b0 ce3e aabc fcbe 9f1d 9abe
00000090: 2a77 853c 1f4c ca3e e02e 693b 0fc7 3d3d
000000a0: 523b 003e 3ac8 1c3e ff31 253e 17cb 8e3e
000000b0: 7223 323f 0401 703e 4971 19bd 64ce 1fbf
000000c0: afd6 dc3e 452e 1b3e bde6 043e f5e9 28be
000000d0: ec27 eb3d c1ba a4be cec0 1abf f1da 933e
000000e0: 79c7 0c3f f6c6 cc3c 2495 2cbe a89f cd3e
000000f0: 07f8 823e 382d 6abf 4a14 acbe 025f 4e3d
00000100: 6e0a 823e 62f7 9b3e cb86 813f 4700 19bd
00000110: 883d b03d e4a4 d9be 7ace 4b3e e870 09bb
00000120: edcb 17bf c4ca 053f 38d2 0fbd 5a08 863e
00000130: 6f4c 403f 7d2e 61be addc f9bd 5705 9dbe
00000140: 94ca 87bd 670c 2e3e 497b 7dbe 33b5 343f
00000150: 4ecf 06be 366c 82bc b8f5 fd3e 4a8c 4dbf
00000160: 9589 e53e 1fc1 1e3e 57dc 803e 8310 8cbe
00000170: 37f7 2b3f 0fcc b9bf ce1b f23d 426b 6d3d
00000180: 36b2 8a3e 493b cf3d 2bea 0abf 5554 da3d
00000190: 9c04 fc3e 1fc7 bb3e 4218 adbd 5d86 f4bd
000001a0: 1d36 1b3f 442d c7be d746 5a3d fa71 2c3f
000001b0: 9cca 203e a0bf babe 896e 05be 8227 4d3e
000001c0: 0f7f e73d 12a9 a7be 19ee a4be 643f 263f
000001d0: e509 993d 728d 863e fe48 98bc 50c3 573e
000001e0: d5ef 0c3f 801b 1f3f a189 9bbc f5a0 9dbd
000001f0: c700 a5bd f162 c23e f8ae 173d 0b62 983d
00000200: 204c a0be 42f2 593e 9cbb 7abc 6108 35bd
00000210: 733d 67bd 8c96 d93d 71de be3d 30bb 0d3f
00000220: 9f50 bcbe e25a f3bd 9e63 3abe b347 0e3d
00000230: 2e0b 0c3d 6b72 43bd 286f acbe c6d8 f43e
00000240: f973 333e 287c 07be 9082 be3d b232 c83d
00000250: 2f61 4cbe 9516 9bbf 0c67 233e 22a1 3c3e
00000260: 6121 be3e 21d3 223f 874f 6a3e dffa 96be
00000270: dbc1 2bbd 0411 c7bb 38e2 0a3e 9f30 7d3a
00000280: 4cd2 52bd 4291 aabe 59f0 0d3e 824c 19bd
00000290: e368 d63c c2f4 e23d 85c0 23be 57ea 023d
000002a0: d694 a53e 6741 333e bb58 e23e e71b 8bbe
000002b0: 3898 823d ceae 7abf b3ad d23e f079 72be
000002c0: 0219 9a3e 105c f23c dc3b 80be d09d 09be
000002d0: 9642 95bd e811 1a3e cded 493e 10a3 98bc
000002e0: 632c 9cbe 9b40 bf3d 1094 293e 1410 203e
000002f0: 24a8 2a3d 787e a3be 637e cbbd 0e5c 973e
00000300: 0110 393e 8636 2f3e 0711 58be e48f 513d
00000310: 6829 293f 2580 f13b b81d 993e 78d1 4abe
00000320: 745a 8f3e f097 ff3d 21a6 283f 7898 17bd
00000330: 0e08 f33e d536 53be a322 87bf 5260 603e
00000340: 7a18 55be 6dea 403f 8db1 cebd 076d 35be
00000350: ff88 06bf 34df c33e ab6a e03e acb2 a1be
00000360: 81d9 8fbd f791 38be a887 fc3c 2677 cfbf
00000370: de3b 7abe e2e7 91bd f49e 0ebe 6d25 c3be
00000380: cecf febe 0c04 8bbe 4ab7 3fbe 4c5c f6be
00000390: 30cd c13d 8048 2f3e c043 dc3e 70dc 2bbe
000003a0: c681 133f 4dac 9cbf b4f5 523f 7eb9 ddbe
000003b0: f1dc 20bf 1cab 08be b21d 13bf 7724 aabe
000003c0: f450 19bd 963f c03e 0d03 ad3d b173 19bf
000003d0: 0929 4ebe dafa 9dbc 71be 993e 20ef b6be
000003e0: a169 02bf 1af8 aa3d 0343 2cbe 0afd 923e
000003f0: 2486 893d 571f 903e 0480 b9be 611d dd3e

layers.0.fc_neigh.weight f4 [124, 14]
-0.069986686 -0.0071250666 -0.1158184 -0.1393559 -0.23293117 -0.18579476 -0.13298096 0.04409317
-0.028584903 -0.06921946 -0.14704594 -0.011308539 -0.14730178 -0.18323289 -0.061777066 -0.072439246
-0.1328826 0.04139079 -0.101130694 -0.30732554 -0.07437423 -0.11519869 0.03956599 -0.18957555
-0.082237445 0.0005131228 -0.062205087 -0.22002485 -0.55510813 -0.180731 -0.255257 -0.06932434
-0.09819181 -0.19387646 -0.42631057 0.09105703 0.020104634 0.060571413 -0.27992293 -0.08236761
-0.38623902 -0.21931385 -0.15275054 -0.14458062 -0.4011996 -0.049601205 -0.2366863 -0.14799304
-0.3965159 -0.10146452 -0.066097476 -0.38413444 -0.19942766 -0.17838645 0.0050429716 -0.086260706
-0.2706822 0.07759364 -0.2718069 -0.050349604 -0.4255674 -0.1763622 -0.31658953 0.16302429
-0.15458672 -0.0016738658 -0.18419929 -0.123196654 -0.29886162 -0.37739474 -0.048555642 -0.08224261
0.0014613619 0.017458294 -0.12817664 -0.36213723 -0.27574545 -0.07433297 0.047159407 0.088590726
-0.04637222 0.0061914027 -0.14268836 -0.32745555 -0.093736544 0.07981938 -0.07490778 -0.13257396
-0.21774304 -0.39169064 -0.09492074 0.033011194 0.09086758 -0.23317635 0.02392523 0.06801176
-0.10266805 -0.3032679 -0.2220659 -0.052876275 -0.20595886 -0.24795626 -0.33822104 -0.5495627
-0.26230836 -0.040852543 -0.052432764 -0.030024981 -0.056452304 -0.20829326 -0.20561436 -0.3629573
-0.35068718 -0.3184684 -0.18530218 0.1064944 -0.5271758 -0.62461793 -0.56150985 -0.126099
-0.061279673 -0.31335598 -0.18485263 -0.3521152 -0.247063 -0.46965343 -0.23874202 0.08677101
0.030002164 -0.10317724 -0.18406403 -0.2604397 -0.05341472 0.0022773163 0.11539386 0.036791194
-0.034840066 -0.10345188 -0.2678069 -0.27671292 -0.13593271 0.07705966 -0.08054209 0.14164206
-0.09861702 -0.14374582 -0.056498516 -0.027965995 0.0072961533 0.09517985 -0.0765156 -0.04921858
-0.09779384 -0.16185425 -0.08199849 -0.13910048 -0.03931093 -0.078341685 -0.078829475 -0.08353663
-0.0018294817 -0.18404905 -0.050990596 0.064696826 -0.11105272 0.022858137 -0.11383288 -0.07435068
-0.052927356 -0.22873513 -0.17472371 -0.1440405 -0.281399 -0.29043117 -0.3484304 -0.095673196
-0.0790667 -0.057901032 -0.007523615 -0.015300658 -0.10637747 -0.07529179 -0.09817571 -0.09406293
-0.11325578 0.12421266 -0.24510284 -0.13794668 -0.06703299 0.19358395 -0.009429068 0.009872755
-0.077258766 0.01074549 -0.12748422 -0.08690445 -0.28222743 -0.07452278 -0.1682649 -0.011482368
-0.20936513 -0.35295716 -0.28274748 0.00054891466 0.16127487 0.038374465 -0.09799962 -0.16283268
-0.28998488 -0.3071154 -0.5027425 -0.103626095 -0.15320602 -0.08637443 -0.33973685 -0.12383738
-0.28934842 -0.013756619 0.095197186 0.01952666 -0.10714248 -0.16817048 -0.38874352 -0.35791707
-0.25037095 -0.17935956 -0.53859425 -0.02188691 -0.27371332 -0.22462581 -0.11937427 -0.22934166
0.09155424 -0.1291063 -0.24258295 -0.27840135 -0.2794103 -0.33238187 -0.21694839 -0.23648395
-0.30609053 0.0025553377 -0.18488303 -0.19352299 -0.60649264 -0.46761203 -0.18239066 -0.030927578
-0.2775746 0.03749395 -0.30079705 -0.44875783 -0.39367488 -0.027649002 -0.06227896 -0.22786045
00000000: 2e55 8fbd 6479 e9bb 3332 edbd 50b3 0ebe
00000010: 8285 6ebe fb40 3ebe 292c 08be 0a9b 343d
00000020: e32a eabc efc2 8dbd 3693 16be 7347 39bc
00000030: 47d6 16be 67a1 3bbe f309 7dbd 075b 94bd
00000040: 6012 08be 6489 293d 9c1d cfbd c659 9dbe
00000050: 8451 98bd 4aed ebbd f30f 223d 1820 42be
00000060: 1b6c a8bd 1783 063a c3ca 7ebd 324e 61be
00000070: 911b 0ebf 8c11 39be 0cb1 82be ebf9 8dbd
00000080: ca18 c9bd 8d87 46be 6145 dabe 1c7c ba3d
00000090: 79b2 a43c bb19 783d 0f52 8fbe 59b0 a8bd
000000a0: 1fc1 c5be cf93 60be a36a 1cbe f10c 14be
000000b0: 096a cdbe a22a 4bbd e55d 72be 7d8b 17be
000000c0: 2204 cbbe a1cc cfbd 1d5e 87bd 45ad c4be
000000d0: c436 4cbe f0aa 36be 833f a53b 74a9 b0bd
000000e0: db96 8abe 6ae9 9e3d 462a 8bbe 633b 4ebd
000000f0: f8e3 d9be 4b98 34be 0618 a2be d7ef 263e
00000100: fb4b 1ebe 9e65 dbba bd9e 3cbe 874e fcbd
00000110: 6404 99be e239 c1be 48e2 46bd d06e a8bd
00000120: 2b8b bf3a b204 8f3c bd40 03be 0d6a b9be
00000130: 822e 8dbe e23b 98bd 392a 413d 0e6f b53d
00000140: ccf0 3dbd 40e1 ca3b e61c 12be 41a8 a7be
00000150: f2f8 bfbd 5878 a33d 4069 99bd 78c1 07be
00000160: 08f8 5ebe ad8b c8be ce65 c2bd bf36 073d
00000170: c818 ba3d c8c5 6ebe d8fe c33c c049 8b3d
00000180: a043 d2bd ee45 9bbe 3e65 63be cb94 58bd
00000190: e1e6 52be 3fe8 7dbe 4f2b adbe 24b0 0cbf
000001a0: 484d 86be ff54 27bd bdc3 56bd f3f6 f5bc
000001b0: 883a 67bd d44a 55be 928c 52be 8ad5 b9be
000001c0: 458d b3be 4a0e a3be dbbf 3dbe bc19 da3d
000001d0: fef4 06bf f6e6 1fbf 1cbf 0fbf 1920 01be
000001e0: 6500 7bbd 3270 a0be 024a 3dbe 7248 b4be
000001f0: 15fe 7cbe 6a76 f0be ca78 74be 00b5 b13d
00000200: 19c7 f53c 974e d3bd 487b 3cbe 5a58 85be
00000210: 65c9 5abd 073f 153b 9e53 ec3d 5db2 163d
00000220: 75b4 0ebd 94de d3bd fc1d 89be 51ad 8dbe
00000230: f231 0bbe 74d1 9d3d 40f3 a4bd 9e0a 113e
00000240: b8f7 c9bd 1b32 13be fd6a 67bd f118 e5bc
00000250: 9214 ef3b a7ed c23d 36b4 9cbd 6c99 49bd
00000260: 2348 c8bd 1fbd 25be d3ee a7bd 5b70 0ebe
00000270: 7f04 21bd 9b71 a0bd 5971 a1bd 4115 abbd
00000280: 38cb efba 5b77 3cbe 84db 50bd c57f 843d
00000290: 9c6f e3bd fd40 bb3c 3721 e9bd 2b45 98bd
000002a0: 5bca 58bd 8b39 6abe c6ea 32be 5a7f 13be
000002b0: 8813 90be 65b3 94be 7865 b2be 4ff0 c3bd
000002c0: b9ed a1bd a229 6dbd a888 f6bb 9caf 7abc
000002d0: 6edc d9bd 9532 9abd 5910 c9bd 11a4 c0bd
000002e0: a5f2 e7bd 3563 fe3d 3dfc 7abe e541 0dbe
000002f0: 9848 89bd df3a 463e 617c 1abc 56c1 213c
00000300: d839 9ebd da0d 303c 398b 02be f6fa b1bd
00000310: 1d80 90be 669f 98bd a24d 2cbe 8b20 3cbc
00000320: d063 56be cdb6 b4be 47c4 90be 0ae5 0f3a
00000330: 3d25 253e 8b2e 1d3d 06b4 c8bd 9cbd 26be
00000340: e678 94be 3b3e 9dbe bcb3 00bf eb39 d4bd
00000350: 0ae2 1cbe 14e5 b0bd fdf1 adbe 749e fdbd
00000360: 7a25 94be 7163 61bc bef6 c23d 60f6 9f3c
00000370: 846d dbbd e234 2cbe 6409 c7be e840 b7be
00000380: 9f30 80be 08aa 37be 50e1 09bf 2d4c b3bc
00000390: 2724 8cbe 4f04 66be 7f7a f4bd 8ad8 6abe
000003a0: ca80 bb3d 7134 04be aa67 78be 9f8a 8ebe
000003b0: de0e 8fbe f52d aabe b827 5ebe d928 72be
000003c0: e6b7 9cbe 7477 273b fa51 3dbe e42a 46be
000003d0: 1a43 1bbf d86a efbe 9ec4 3abe d55b fdbc
000003e0: 421e 8ebe 4293 193d 1202 9abe 96c3 e5be
000003f0: c18f c9be 2980 e2bc 3918 7fbd 4054 69be

layers.1.bias f4 [2]
0.060736947 -0.060736295
00000000: 4ec7 783d 9fc6 78bd

layers.1.fc_pool.weight f4 [124, 124]
0.01623383 0.074323565 0.009407458 -0.26085803 0.32811522 -0.2421947 -0.21941344 0.27683803
-0.076057024 -0.093616955 -0.3808712 0.06823692 0.0029596447 0.16207531 0.12203026 0.1455558
0.21682212 0.30293512 0.0541409 0.32722536 -0.3504445 -0.07914046 0.1355976 0.25151148
-0.05127133 -0.0009953385 0.19167368 0.12451191 0.0343461 0.04958402 -0.25148007 -0.37350693
-0.14321928 0.111161806 -0.11284545 0.046733294 -0.04573984 0.33825016 -0.19226141 -0.12518154
0.11666534 -0.3053529 -0.45637164 -0.22513434 0.44738525 0.033978667 -0.3644868 -0.16555086
0.057899892 0.10527237 0.2500212 -0.15889347 0.05071876 0.16000009 -0.045747254 0.20872901
0.006076699 0.41223258 0.3305835 -0.11836857 0.25587142 -0.16753958 -0.08374021 -0.085682996
0.06481325 -0.46862748 0.0023177082 -0.124560095 -0.32117242 0.281051 -0.29650384 -0.060024913
0.20787057 0.08872754 -0.14164802 -0.37403277 -0.08151793 -0.04094958 0.14023128 0.16195977
-0.027965471 0.21812992 -0.029720958 -0.11893545 0.22183071 -0.019569362 -0.33986488 -0.046624098
-0.051416524 0.09506088 -0.22155604 0.25143984 0.27696237 0.18404394 -0.08831809 -0.18551998
-0.14290965 0.14558363 -0.18592854 0.15450625 -0.23357134 -0.30472347 0.08983729 0.2161259
-0.13974501 0.18778811 0.0016116597 0.02986828 -0.30564383 0.22407109 0.1502629 -0.0736794
0.1600632 -0.05384414 0.010328546 0.38656765 0.06885432 0.15596533 -0.37157536 0.024444135
0.06185758 -0.15758559 0.2301578 -0.3574362 -0.060134493 -0.091797106 0.033164326 0.070960484
-0.059280783 -0.11827122 -0.14523551 -0.30366513 0.015598904 -0.030844888 -0.24068558 -0.38808858
-0.22683074 -0.45758042 -0.19488056 -0.054978065 -0.000106369174 -0.13479531 -0.046016015 -0.2203554
-0.23788269 0.13150786 0.0641337 0.111814156 0.07132878 -0.3413627 0.00034104186 -0.0836244
-0.12524512 -0.3912978 -0.33249623 0.31258896 -0.22371593 0.07934607 0.13514699 -0.16766527
-0.13330434 -0.015064358 -0.13783394 -0.0792975 0.023968857 0.02264614 0.25310442 -0.40184405
-0.15069823 0.110046305 -0.1308446 -0.108066425 0.09836311 0.28191027 -0.12944935 -0.019105932
-0.17919546 0.1871798 -0.25764257 -0.23656279 -0.40293416 -0.24532588 -0.07554779 -0.51465595
-0.1564942 -0.17256904 0.1909407 -0.053225815 -0.34278518 0.039601576 -0.1754135 -0.10545065
-0.0041486146 -0.09148724 -0.56250244 -0.18847136 -0.2277942 -0.1845376 -0.2438346 -0.3550109
-0.1948891 0.05274407 -0.3529287 -0.0765288 -0.0077680415 -0.25203836 -0.19982785 -0.3740322
-0.07543758 -0.07374122 -0.44619316 -0.024087891 0.0824364 0.016805869 -0.19822198 -0.027465926
-0.091702 -0.2134101 -0.12250891 -0.047097504 0.29012188 0.30127716 0.17165942 -0.15389743
-0.49508664 0.013096031 -0.042303547 0.09528716 -0.09090297 -0.07301415 0.014350975 -0.27484015
0.10603684 -0.4738639 0.2140932 -0.19674872 0.19073966 0.1096262 -0.3251093 -0.014251541
-0.21628885 -0.26242137 0.16045992 0.10275535 -0.10309894 -0.12059546 -0.15510632 -0.22348385
-0.2112152 -0.20479763 -0.2888694 0.354605 -0.08426851 0.01659029 -0.17542464 -0.110530496
00000000: cffc 843c f436 983d bd21 1a3c 2f8f 85be
00000010: b8fe a73e e301 78be ebad 60be b7bd 8d3e
00000020: c9c3 9bbd 3fba bfbd 8d01 c3be ccbf 8b3d
00000030: 99f6 413b 12f7 253e 00eb f93d 940c 153e
00000040: 9e06 5e3e 501a 9b3e d9c2 5d3d 158a a73e
00000050: 766d b3be 6514 a2bd 19da 0a3e 1dc6 803e
00000060: e301 52bd 0576 82ba 1b46 443e 1a00 ff3d
00000070: 7fae 0c3d 9d18 4b3d ffc1 80be 4d3c bfbe
00000080: 13a8 12be cda8 e33d 841b e7bd 696b 3f3d
00000090: b359 3bbd 202f ad3e 2de0 44be 972f 00be
000000a0: 3dee ee3d 3757 9cbe 8ba9 e9be 9e89 66be
000000b0: ae0f e53e 372d 0b3d 049e babe 2a86 29be
000000c0: 7028 6d3d 0a99 d73d c702 803e f8b4 22be
000000d0: 79be 4f3d 10d7 233e 7961 3bbd 0fbd 553e
000000e0: 0c1f c73b 2610 d33e 3e42 a93e 396b f2bd
000000f0: 9401 833e 7f8f 2bbe fd7f abbd 917a afbd
00000100: cfbc 843d f1ef efbe b1e4 173b 5d19 ffbd
00000110: b670 a4be ebe5 8f3e 5acf 97be afdc 75bd
00000120: 06dc 543e c9b6 b53d 2e0c 11be 3981 bfbe
00000130: dff2 a6bd bfba 27bd ca98 0f3e c8d8 253e
00000140: d817 e5bc 735d 5f3e 5e79 f3bc 6e94 f3bd
00000150: 9727 633e ed4f a0bc c502 aebe e9f8 3ebd
00000160: 229a 52bd 47af c23d 96df 62be b9bc 803e
00000170: 03ce 8d3e 0476 3c3e 1de0 b4bd f3f8 3dbe
00000180: e856 12be e013 153e 0d64 3ebe e336 1e3e
00000190: 532d 6fbe b704 9cbe 9dfc b73d 1c50 5d3e
000001a0: 5119 0fbe 874b 403e 533e d33a 53ae f43c
000001b0: 597d 9cbe e472 653e 85de 193e 3ae5 96bd
000001c0: 9ce7 233e ac8b 5cbd 1039 293c 32ec c53e
000001d0: 7e03 8d3d 60b5 1f3e 203f bebe 113f c83c
000001e0: 605e 7d3d 1e5e 21be 7cae 6b3e e101 b7be
000001f0: 964f 76bd 1f00 bcbd 51d7 073d bb53 913d
00000200: 68d0 72bd 2e38 f2bd 9eb8 14be ff79 9bbe
00000210: 8c92 7f3c 6bae fcbc 4876 76be 8cb3 c6be
00000220: 5146 68be fb47 eabe c58e 47be ae30 61bd
00000230: 8412 dfb8 c807 0abe 4a7b 3cbd d9a4 61be
00000240: 8597 73be ffa9 063e 8858 833d d2fe e43d
00000250: d314 923d 18c7 aebe ddcd b239 4543 abbd
00000260: 4240 00be 2f58 c8be f23c aabe a90b a03e
00000270: ca15 65be 3180 a23d f963 0a3e 72b0 2bbe
00000280: ef80 08be 7fd0 76bc 5724 0dbe ba66 a2bd
00000290: 565a c43c 6684 b93c e796 813e 81be cdbe
000002a0: a350 1abe f55f e13d 20fc 05be ee51 ddbd
000002b0: 9972 c93d 8b56 903e 5f8e 04be 0b84 9cbc
000002c0: 047f 37be 10ac 3f3e bae9 83be 843d 72be
000002d0: 634d cebe b536 7bbe cdb8 9abd 7ec0 03bf
000002e0: 0440 20be f0b5 30be f585 433e 5003 5abd
000002f0: 8a81 afbe 4335 223d 999f 33be 83f6 d7bd
00000300: 1af1 87bb a95d bbbd 2900 10bf a3fe 40be
00000310: e242 69be 6df7 3cbe c7af 79be fdc3 b5be
00000320: 0291 47be 2a0a 583d 12b3 b4be 22bb 9cbd
00000330: 0e8b febb 2c0b 81be ac9f 4cbe 2681 bfbe
00000340: 057f 9abd a305 97bd 6e73 e4be f853 c5bc
00000350: 6ad4 a83d 76ac 893c b4fa 4abe 3900 e1bc
00000360: 42ce bbbd 2d88 5abe f4e5 fabd 50e9 40bd
00000370: db8a 943e 0041 9a3e 7dc7 2f3e 4a97 1dbe
00000380: ff7b fdbe bc90 563c 7c46 2dbd ea25 c33d
00000390: 562b babd 7188 95bd 5a20 6b3c d9b7 8cbe
000003a0: d829 d93d 4a9e f2be 3f3b 5b3e 7f78 49be
000003b0: 4251 433e b383 e03d ba74 a6be 4c7f 69bc
000003c0: d37a 5dbe 185c 86be 9b4f 243e 6671 d23d
000003d0: 8925 d3bd c1fa f6bd 31d4 1ebe f3d8 64be
000003e0: cc48 58be 78b6 51be b1e6 93be c98e b53e
000003f0: f894 acbd 5ce8 873c 84a2 33be d05d e2bd

layers.1.fc_pool.bias f4 [124]
-0.32151636 -0.19485058 -0.22609332 -0.114573635 -0.3245822 -0.22914246 -0.22679321 -0.25189847
-0.18650554 -0.27897888 -0.12347084 -0.17734925 -0.38309222 -0.15304406 -0.06914702 -0.14033163
-0.2777658 -0.1507196 -0.14021303 -0.15824498 -0.22740056 -0.21222942 -0.18301234 -0.2856627
-0.2948006 -0.121355504 -0.30449158 -0.13548872 -0.30961174 -0.13050964 -0.09881562 -0.048627976
-0.22836088 -0.18468226 -0.27359703 -0.25194672 -0.36222097 -0.25134444 -0.2250048 -0.30662087
-0.23161042 -0.2587338 -0.20667773 -0.3633809 -0.17356172 -0.16422331 -0.16640303 -0.23110874
-0.2081202 -0.14402989 -0.2031046 -0.27375734 -0.27880716 -0.24970868 -0.175745 -0.28706086
-0.3054586 -0.27354804 -0.24285725 -0.21361293 -0.26224405 -0.18815005 -0.22177511 -0.23828602
-0.29508194 -0.22361007 -0.049381208 -0.19244541 -0.21864428 -0.25605327 -0.18528198 -0.14384681
-0.19234838 -0.14955047 -0.324203 -0.1361555 -0.21584968 -0.17280705 -0.12771446 -0.2687517
-0.22814843 -0.25256673 -0.21473938 -0.23864911 -0.24219419 -0.2252519 -0.22846498 -0.2717101
-0.25744408 -0.267097 -0.21517551 -0.18303236 -0.25545278 -0.29917923 -0.28235075 -0.19363979
-0.2260546 -0.2331701 -0.24341369 -0.27711618 -0.27310705 -0.22558612 -0.22815062 -0.25126725
-0.29785335 -0.24598767 -0.26233464 -0.22921592 -0.13255449 -0.16102959 -0.2371617 -0.28237456
-0.012905934 -0.14601214 -0.33022177 -0.20791943 -0.082970195 -0.20591784 -0.23685828 -0.20351546
-0.080024146 -0.24186306 -0.11854632 -0.29416808
00000000: cb9d a4be e986 47be 0285 67be 95a5 eabd
00000010: a32f a6be 52a4 6abe 7b3c 68be d6f8 80be
00000020: 4ffb 3ebe 52d6 8ebe 48de fcbd 0b9b 35be
00000030: aa24 c4be 95b7 1cbe f49c 8dbd 18b3 0fbe
00000040: 5237 8ebe 3d56 1abe 0194 0fbe f90a 22be
00000050: b1db 68be ab52 59be 9667 3bbe 6242 92be
00000060: 1bf0 96be 3c89 f8bd 52e6 9bbe 8ebd 0abe
00000070: 6e85 9ebe 52a4 05be d85f cabd 212e 47bd
00000080: 6fd7 69be 591d 3dbe e914 8cbe 29ff 80be
00000090: 0775 b9be 38b0 80be a967 66be 69fd 9cbe
000000a0: 482b 6dbe c278 84be 54a3 53be 100d babe
000000b0: 2aba 31be 282a 28be 8e65 2abe c5a7 6cbe
000000c0: 761d 55be 927c 13be a7fa 4fbe ec29 8cbe
000000d0: d0bf 8ebe a2b3 7fbe 7ff6 33be a4f9 92be
000000e0: 1265 9cbe 7d0e 8cbe 92af 78be 59bd 5abe
000000f0: da44 86be 68aa 40be 0419 63be 4001 74be
00000100: fb14 97be 0afa 64be f343 4abd 6910 45be
00000110: 49e4 5fbe 6a19 83be 8fba 3dbe 944c 13be
00000120: f9f6 44be c223 19be f0fd a5be 596c 0bbe
00000130: b307 5dbe 55f4 30be 94c7 02be d399 89be
00000140: be9f 69be 6d50 81be a4e4 5bbe 6f60 74be
00000150: c101 78be 6fa8 66be b9f2 69be 961d 8bbe
00000160: b6cf 83be f0c0 88be f856 5cbe d66c 3bbe
00000170: b5ca 82be 052e 99be 4790 90be 8249 46be
00000180: db7a 67be 25c4 6ebe 7041 79be 2ce2 8dbe
00000190: b0d4 8bbe 0c00 67be 51a0 69be 1aa6 80be
000001a0: 3c80 98be 31e4 7bbe ba50 86be 94b7 6abe
000001b0: 5dbc 07be f1e4 24be 84da 72be 6693 90be
000001c0: 6973 53bc 3584 15be d412 a9be d5e8 54be
000001d0: 47ec a9bd 20dc 52be fa8a 72be 5b66 50be
000001e0: b3e3 a3bd f3aa 77be 6ac8 f2bd 339d 96be

layers.1.fc_self.weight f4 [2, 124]
-1.5319163 -1.4417471 2.1122186 1.7368368 2.5140197 1.2498685 3.3964632 0.82413787
2.5299928 -1.4781351 1.5434463 0.73301524 -1.8874876 1.211314 2.524272 2.6791933
-2.5816307 -1.5238143 -2.0710654 3.6809232 -0.71321476 0.50980395 2.715248 -1.2627264
-0.92552763 0.7228273 1.5823362 -1.174545 -2.0598886 1.1666073 0.8849011 2.0202649
-1.6158078 3.399938 2.3034365 -2.9142692 1.6981441 2.9594748 1.3313698 2.0873458
0.37301657 -0.29070267 1.8392801 -1.5360547 2.763598 -2.8036656 1.394699 -2.1616094
-1.7049603 -1.8686001 2.268711 1.7212029 3.6996114 -1.694781 1.4857711 0.76444596
-1.7045026 -3.2222166 2.4981813 1.246429 1.3188567 -1.1449786 2.4642694 -0.9732739
1.8806322 2.2566392 -1.8034935 3.1133552 0.13880935 2.377176 1.8047667 -0.59785837
1.7314545 -1.5262341 0.8993032 2.2602127 -1.5107645 0.9123352 -2.9369211 0.72104096
-0.54163384 2.6519694 0.9810582 -1.120058 2.8310726 -1.6205891 1.015418 1.9057475
2.6603494 3.515775 2.34372 -1.4478967 -2.2024808 2.4555328 2.3533204 0.2499055
-1.6922292 1.5338815 -1.9896021 2.988627 2.055359 2.6664019 0.9601537 -0.086464375
1.525298 2.3478696 2.4153867 -0.76388407 0.7433618 2.5857308 -1.7090725 1.2050065
-1.4770708 -0.9849711 -0.74292624 -0.7976276 -0.6717042 1.2000335 1.063793 -3.0963163
0.88602626 1.3059213 -1.8493444 1.1280938 1.5859103 1.5012441 -2.0097394 -1.1740443
-2.0993528 -1.3707769 -3.5906029 -1.3971658 -2.8960052 1.2210933 -1.1593355 -0.21093772
1.6162646 -1.4295648 -2.237655 -2.9607654 2.6703584 1.3753303 2.027696 -3.6340225
0.73384005 -0.9477475 -2.5489533 1.3075081 1.398129 -0.71313167 -1.6151654 0.79137474
2.1728013 -1.2076511 -0.5007297 -1.9192573 1.1313432 -3.1486719 -1.7408199 3.008316
-1.7101634 -3.105777 -0.9552347 -1.9886522 -0.43726128 0.2196106 -2.223812 1.7494609
-2.8009114 2.881526 -1.4811499 1.6983721 1.8164729 1.9167749 -1.8967384 -2.1359088
-3.784121 1.8870225 -1.4452711 -0.59347975 1.7725984 2.865399 -2.1774268 -1.2180448
-1.6045884 1.1414356 -2.2196121 1.0243105 -1.9944293 -2.2797549 1.9697007 -3.676012
-0.18421872 -2.6392748 -1.3202963 0.75377125 -1.902996 1.4831116 -0.83914125 -2.023626
1.5087919 -1.2144502 2.769117 -0.39761814 0.75432754 -2.5948792 -0.8914232 1.2578694
-3.1717973 1.2851199 -1.4385046 -1.9052763 -2.302625 -3.414668 -2.217142 1.9230015
2.2061062 -2.0382993 -2.2095 -0.2547437 1.4977132 -1.5757551 2.1702757 -2.9660873
-2.6285057 -2.6273503 -0.9448892 -0.04285679 -1.3051555 -2.4460773 -2.8591094 1.071262
-1.0621523 -2.399172 2.0355656 -1.1279513 1.0947198 1.4899572 1.1404812 0.40159667
0.8998868 -1.4941758 -0.6143229 2.6344073 -0.9841967 -1.5880312 1.3906065 -1.4226112
00000000: d515 c4bf 2b8b b8bf 972e 0740 ab50 de3f
00000010: b3e5 2040 b1fb 9f3f a75f 5940 b3fa 523f
00000020: 67eb 2140 8833 bdbf a68f c53f e3a6 3b3f
00000030: 3299 f1bf 560c 9b3f ac8d 2140 e777 2b40
00000040: 7039 25c0 590c c3bf 568c 04c0 3f94 6b40
00000050: 3e95 36bf 8382 023f a0c6 2d40 05a1 a1bf
00000060: 61ef 6cbf 360b 393f fe89 ca3f 7e57 96bf
00000070: 37d5 03c0 6353 953f e188 623f 054c 0140
00000080: cad2 cebf 9698 5940 816b 1340 6383 3ac0
00000090: c95c d93f 0968 3d40 536a aa3f 1397 0540
000000a0: 07fc be3e fbd6 94be 886d eb3f 719d c4bf
000000b0: cade 3040 426f 33c0 7f85 b23f cf57 0ac0
000000c0: 243c dabf 4a2e efbf 9032 1140 6050 dc3f
000000d0: 6fc6 6c40 95ee d8bf bf2d be3f bbb2 433f
000000e0: 242d dabf cc38 4ec0 34e2 1f40 fc8a 9f3f
000000f0: 4cd0 a83f a98e 92bf 97b6 1d40 7a28 79bf
00000100: 8eb8 f03f c76c 1040 e0d8 e6bf 3641 4740
00000110: 0a24 0e3e a723 1840 9802 e73f 3f0d 19bf
00000120: 4da0 dd3f a45b c3bf bc38 663f 53a7 1040
00000130: bb60 c1bf cd8e 693f 84f6 3bc0 2496 383f
00000140: 84a8 0abf deb9 2940 a126 7b3f 0f5e 8fbf
00000150: 4b30 3540 776f cfbf 38f9 813f 89ef f33f
00000160: 2a43 2a40 7502 6140 82ff 1540 ae54 b9bf
00000170: 72f5 0cc0 7327 1d40 cd9c 1640 3ae7 7f3e
00000180: f79a d8bf 3b56 c43f 48ab febf aa45 3f40
00000190: 008b 0340 54a6 2a40 a2cc 753f 3c14 b1bd
000001a0: f73c c33f 7f43 1640 b295 1a40 e88d 43bf
000001b0: f54c 3e3f 9d7c 2540 e3c2 dabf a73d 9a3f
000001c0: a810 bdbf 1127 7cbf 6a30 3ebf 5331 4cbf
000001d0: cef4 2bbf b39a 993f 5e2a 883f 0c2a 46c0
000001e0: 9ed2 623f 6e28 a73f 51b7 ecbf 6165 903f
000001f0: 1cff ca3f c428 c03f 929f 00c0 1547 96bf
00000200: cc5b 06c0 9e75 afbf 70cc 65c0 54d6 b2bf
00000210: 2658 39c0 c94c 9c3f 1b65 94bf 0f00 58be
00000220: c2e1 ce3f fbfb b6bf bd35 0fc0 2e7d 3dc0
00000230: 27e7 2a40 d30a b03f c5c5 0140 d393 68c0
00000240: f1dc 3b3f 959f 72bf 0d22 23c0 6d5c a73f
00000250: e4f5 b23f cc8f 36bf bdbd cebf 8997 4a3f
00000260: 2d0f 0b40 5094 9abf d22f 00bf 39aa f5bf
00000270: dbcf 903f d783 49c0 30d3 debf 4088 4040
00000280: a2e6 dabf 0dc5 46c0 438a 74bf 288c febf
00000290: b6e0 dfbe 9ae1 603e f052 0ec0 56ee df3f
000002a0: 2242 33c0 ec6a 3840 5296 bdbf 4264 d93f
000002b0: 2f82 e83f e158 f53f 53c8 f2bf bbb2 08c0
000002c0: 0a2f 72c0 f489 f13f a5fe b8bf 4aee 17bf
000002d0: 81e4 e23f b262 3740 f65a 0bc0 e4e8 9bbf
000002e0: 2763 cdbf 901a 923f 200e 0ec0 9b1c 833f
000002f0: 7649 ffbf 81e7 11c0 271f fc3f c843 6bc0
00000300: d5a3 3cbe e1e9 28c0 78ff a8bf 27f7 403f
00000310: 5f95 f3bf 9ad6 bd3f f6d1 56bf 1783 01c0
00000320: 1820 c13f 1b73 9bbf 3739 3140 9b94 cbbe
00000330: 9c1b 413f 8012 26c0 5034 64bf dd01 a13f
00000340: bafe 4ac0 cf7e a43f eb20 b8bf 18e0 f3bf
00000350: 355e 13c0 ec89 5ac0 a8e5 0dc0 ea24 f63f
00000360: d830 0d40 7f73 02c0 7368 0dc0 c46d 82be
00000370: 11b5 bf3f 58b2 c9bf cce5 0a40 60d4 3dc0
00000380: 7039 28c0 8226 28c0 42e4 71bf 9a8a 2fbd
00000390: 560f a7bf 888c 1cc0 a6fb 36c0 1d1f 893f
000003a0: 9bf4 87bf 098c 19c0 b546 0240 b560 90bf
000003b0: c71f 8c3f ebb6 be3f 4afb 913f 149e cd3e
000003c0: fb5e 663f 2741 bfbf 4444 1dbf 219a 2840
000003d0: 51f4 7bbf 9b44 cbbf 65ff b13f 2018 b6bf

layers.1.fc_neigh.weight f4 [2, 124]
0.013822194 0.09477527 -0.050214335 -0.020598447 0.031315394 -0.024570977 0.025282111 0.14776488
0.074761406 -0.13932088 0.20819277 0.15694065 0.1396875 0.029365204 -0.020276165 -0.016342094
-0.068116985 -0.01625403 -0.08243277 -0.110481665 0.056119345 0.094992466 0.21024245 0.008620628
-0.070777744 -0.014778183 -0.062196594 -0.120333746 0.007982266 0.030711276 -0.19211961 0.061240096
0.23493797 -0.13294429 -0.010646853 -0.070066296 0.1927267 0.09331616 -0.04329454 -0.0003569531
0.122397006 -0.1358323 0.122500464 -0.18305257 0.21888158 -0.13182321 -0.2135547 -0.04293513
-0.0975865 -0.0771174 0.2210302 -0.037648756 -0.05072076 0.18564938 0.10055713 -0.0471781
-0.046007045 -0.028731527 0.0897506 0.06102346 0.29244232 -0.12475641 0.028955143 -0.004626299
-0.09515665 0.00385186 0.06790191 0.06306186 0.03142419 -0.010337381 0.052661322 0.28527492
0.19761975 0.02412186 0.07362484 0.037250306 0.17774445 0.12877609 -0.017681705 0.09371007
0.0064239576 -0.122862235 -0.14855619 0.09385044 -0.06445603 0.26108578 0.021621592 0.09110763
0.0055566914 -0.20952402 0.06580075 0.22243157 -0.046881855 -0.12485765 0.1628615 -0.10948573
-0.16642846 0.0993081 0.07514265 -0.011005489 -0.17356381 0.09795323 -0.17398839 -0.0686202
-0.17496505 -0.29487637 0.10502001 -0.21828225 0.09358523 -0.06323092 -0.4179239 0.072701715
0.0016809596 0.0981605 0.15425865 -0.11329809 -0.075641885 0.032402188 -0.100672625 -0.38136697
0.015536321 -0.18675816 0.07152335 0.24228391 -0.14310633 0.04615712 -0.19703397 -0.0022832607
0.008038106 -0.11483328 -0.033268265 -0.047355875 0.12754577 -0.09204265 0.3391831 0.07390697
0.01797022 -0.15014161 -0.23898694 -0.06939934 -0.20606764 -0.047483753 0.09857847 0.087131195
0.31301716 -0.0024804228 0.1915821 0.07425425 -0.0306543 -0.1190887 -0.053517763 -0.016968884
0.003023899 -0.031214446 0.058000322 0.28160644 0.2194823 -0.009068875 0.033389278 -0.06965888
0.18831958 0.036633383 -0.1943397 -0.045483645 0.1186351 -0.1580711 0.076197036 -0.16279355
0.14595503 -0.15451723 0.06564944 -0.17553638 -0.026914041 -0.014063743 0.14438689 0.2041357
-0.07929193 -0.04907355 0.022577891 -0.13563217 -0.13495268 -0.02120878 0.05834296 0.094980285
0.022969017 0.10818024 0.055807956 -0.10769637 0.13508831 -0.016905298 0.23902236 -0.0884728
0.44128424 0.05669296 -0.0038362176 0.039149206 0.06261389 -0.04350173 0.04259067 -0.021918468
-0.012694689 -0.04905371 0.045913175 0.14083561 0.05262172 0.07528237 -0.14906943 0.09456053
-0.28362066 0.1381081 0.16054615 0.08016231 -0.051090814 -0.082194716 0.09968178 0.0832103
-0.0445426 -0.115657814 0.046723098 -0.08273651 0.022799045 0.07080423 0.36563173 0.004213994
-0.060247384 0.10457379 -0.22343025 0.13270496 -0.16054451 -0.04131815 0.097711064 -0.21097615
0.14478537 0.17754613 0.022914976 0.1318502 0.22429751 -0.057646647 0.16227424 -0.11749733
0.03697553 -0.06424205 -0.13078578 -0.1521592 0.09526001 -0.21108659 0.2605105 0.044062696
00000000: 7c76 623c 8919 c23d 8cad 4dbd 13be a8bc
00000010: 9244 003d 1349 c9bc 6e1c cf3c ad4f 173e
00000020: 821c 993d 22aa 0ebe 7c30 553e 0db5 203e
00000030: 3d0a 0f3e 4c8f f03c 331a a6bc dbdf 85bc
00000040: eb80 8bbd 2c27 85bc 83d2 a8bd 3644 e2bd
00000050: 66dd 653d 698b c23d cc49 573e 893d 0d3c
00000060: ecf3 90bd 3120 72bc dbc1 7ebd 8a71 f6bd
00000070: 0dc8 023c 3796 fb3c 01bb 44be e5d6 7a3d
00000080: 9493 703e 8c22 08be 2370 2ebc eb7e 8fbd
00000090: 265a 453e 8b1c bf3d 9e55 31bd 6f25 bbb9
000000a0: 48ab fa3d 9f17 0bbe 86e1 fa3d 2272 3bbe
000000b0: 7e22 603e aafc 06be 15ae 5abe bfdc 2fbd
000000c0: 6edb c7bd baef 9dbd be55 623e 9535 1abd
000000d0: 92c0 4fbd df1a 3e3e e6f0 cd3d d33d 41bd
000000e0: e271 3cbd 615e ebbc 2acf b73d bcf3 793d
000000f0: 00bb 953e 4a80 ffbd 5633 ed3c 3598 97bb
00000100: 7de1 c2bd 7d6f 7c3b 2810 8b3d 9426 813d
00000110: a7b6 003d 1e5e 29bc 66b3 573d 8e0f 923e
00000120: d55c 4a3e 359b c53c 9fc8 963d c793 183d
00000130: a402 363e e1dd 033e 39d9 90bc 11eb bf3d
00000140: 1080 d23b 329f fbbd 1d1f 18be a934 c03d
00000150: 8601 84bd 09ad 853e c41f b13c a396 ba3d
00000160: e814 b63b 778d 56be 8bc2 863d 1ac5 633e
00000170: 3007 40bd 5eb5 ffbd 2ac5 263e 0e3a e0bd
00000180: 396c 2abe 0c62 cb3d 64e4 993d 5e50 34bc
00000190: b6ba 31be b49b c83d 032a 32be bf88 8cbd
000001a0: 0a2a 33be 09fa 96be bb14 d73d 6285 5fbe
000001b0: 9da9 bf3d 367f 81bd 1ffa d5be a3e4 943d
000001c0: a553 dc3a 5f08 c93d fbf5 1d3e d408 e8bd
000001d0: 22ea 9abd 28b8 043d 732d cebd 8842 c3be
000001e0: 0e8c 7e3c 883d 3fbe d67a 923d 4619 783e
000001f0: 778a 12be 400f 3d3d 46c3 49be c2a2 15bb
00000200: 43b2 033c b62d ebbd 4e44 08bd 3cf8 41bd
00000210: 5c9b 023e db80 bcbd 68a9 ad3e 8a5c 973d
00000220: 4836 933c b9be 19be feb8 74be 3e21 8ebd
00000230: 6503 53be 537e 42bd 82e3 c93d d771 b23d
00000240: c943 a03e 978e 22bb 192e 443e 9d12 983d
00000250: ba1e fbbc c7e4 f3bd 7135 5bbd 5402 8bbc
00000260: 9b2c 463b 70b5 ffbc bf91 6d3d b82e 903e
00000270: f8bf 603e 9e95 14bc 32c3 083d 51a9 8ebd
00000280: d9d6 403e e30c 163d fc00 47be 0f4d 3abd
00000290: f6f6 f23d 64dd 21be 310d 9c3d 5ab3 26be
000002a0: 3c75 153e c439 1ebe 3773 863d cfbf 33be
000002b0: d67a dcbc 9d6b 66bc 28da 133e f308 513e
000002c0: cf63 a2bd 5901 49bd 45f5 b83c 29e3 0abe
000002d0: 0931 0abe 09be adbc 07f9 6e3d 0685 c23d
000002e0: 8529 bc3c 9a8d dd3d e296 643d ea8f dcbd
000002f0: 9754 0a3e fb7c 8abc 47c2 743e 3a31 b5bd
00000300: 02f0 e13e e136 683d 0d69 7bbb eb5a 203d
00000310: b63b 803d df2e 32bd 8e73 2e3d 5c8e b3bc
00000320: 63fd 4fbc 8bec 48bd 740f 3c3d 3637 103e
00000330: df89 573d a52d 9a3d a8a5 18be f3a8 c13d
00000340: ba36 91be 366c 0d3e 3666 243e 232c a43d
00000350: 9a44 51bd b455 a8bd f625 cc3d 296a aa3d
00000360: 4d72 36bd 01de ecbd b860 3f3d c271 a9bd
00000370: 10c5 ba3c cf01 913d 1534 bb3e 8b15 8a3b
00000380: f6c5 76bd c92a d63d e6ca 64be cfe3 073e
00000390: c865 24be 383d 29bd bd1c c83d 220a 58be
000003a0: 9e42 143e a7ce 353e 30b8 bb3c bd03 073e
000003b0: 3fae 653e e41e 6cbd 382b 263e 71a2 f0bd
000003c0: a773 173d 5691 83bd b5ec 05be 9fcf 1bbe
000003d0: ae17 c33d 1527 58be a261 853e 167b 343d
