airline/model.pt (torch, 572219 bytes, 14 tensors)

layers.0.bias f4 [128]
000000 1e 9a 19 bb 53 7d 22 be cc 03 93 bd 60 ea 01 3e
       -0.0023437808 -0.1586812 -0.071784586 0.12687063
000010 92 e9 ea bd 6d 7c 4c be df 74 89 3d 06 99 16 be
       -0.11470331 -0.1996934 0.067117445 -0.14706811
000020 44 ef 63 be 73 2c b4 3d 00 e8 46 be a9 5a 49 be
       -0.22259241 0.087975405 -0.19424438 -0.1966349
000030 5c 74 28 3e 72 46 a2 bd 60 91 02 be 76 9c 0a be
       0.16450638 -0.079235926 -0.12750769 -0.13536248
000040 a3 b5 36 3b b1 fa 5d be 95 d7 28 be 11 31 93 3d
       0.002787926 -0.21677662 -0.16488488 0.07187093
000050 b3 02 30 bd da 78 c2 3d 34 ed 3d bd f1 ef 16 bf
       -0.042971324 0.09495707 -0.046368793 -0.5895987
000060 1e 98 ad bd af 62 49 be b6 f8 5e bd 60 ba 6f 3c
       -0.0847628 -0.19666551 -0.054436408 0.014631838
000070 ce 98 55 be 24 a5 da bd 14 5d c0 3d c9 08 cb bd
       -0.20859072 -0.10676029 0.09392753 -0.09913785
000080 d4 eb 0e be ba ea 46 bd 01 e4 b9 bb ab e3 2d be
       -0.13957149 -0.048563696 -0.005672932 -0.1698138
000090 8b 93 13 3d ea 1c 15 be 25 e6 5e be 15 5d eb bd
       0.03602938 -0.14561811 -0.2176748 -0.11492363
0000a0 2d bc 55 bb c5 0a 8c 3d d9 c8 fb be df 8b 12 be
       -0.0032613382 0.068379916 -0.49176672 -0.14311169
0000b0 44 c1 04 be ec 5a 43 be 86 43 43 be c9 ee a7 bd
       -0.1296435 -0.19077653 -0.19068727 -0.081998415
0000c0 ee 9c 94 3d bb a8 0f be 06 82 b7 bd e3 a4 93 bd
       0.072564945 -0.1402921 -0.08960347 -0.07209184
0000d0 8c 03 21 be a6 7e 8b bd 5c e2 50 3d d9 cc 3d bd
       -0.1572401 -0.06811266 0.050997123 -0.046337936
0000e0 91 e1 8d be 4d fa 4c be 50 1a 00 bd e1 b6 19 be
       -0.27711156 -0.20017357 -0.031275094 -0.15011169
0000f0 e4 66 2c bd 14 84 07 3e 25 6c 63 be e5 3e e3 3d
       -0.04209031 0.13233978 -0.22209223 0.110959806
000100 62 81 72 3d 5c 58 22 be bc 96 73 bd 43 57 e2 bd
       0.05920542 -0.15854019 -0.059469923 -0.110518
000110 ae fb 7d be 38 cd c4 bd cc 48 a8 bd 6e 77 01 bf
       -0.2480304 -0.09609455 -0.0821701 -0.5057286
000120 2a 1d 10 be b4 e7 80 be 4d a4 57 bd be 06 68 be
       -0.14073625 -0.25176775 -0.052646924 -0.22658822
000130 9c 9e 16 be d1 09 f8 3d 8d 08 0c be 1a 73 ab bd
       -0.14708942 0.12111247 -0.13675137 -0.08371563
000140 05 1e 43 3c 20 44 e7 3c a4 fe 1b be 76 7f 22 3e
       0.011909013 0.028230727 -0.15233856 0.15868935
000150 11 d9 69 be 01 42 bd bd c4 63 73 bc 5a 68 15 3e
       -0.2283671 -0.09241105 -0.014855329 0.14590588
000160 16 5f 05 be 5f 31 35 3e 79 ad 97 bd 09 a9 80 be
       -0.13024554 0.17694615 -0.07406134 -0.25128964
000170 b9 35 4f be 02 4b 11 be 83 50 08 3c 6e 54 5d 3d
       -0.20235337 -0.1418877 0.008319977 0.054035597
000180 fa 98 12 be e4 80 26 bd bc 7a 30 3d d6 cc 23 3d
       -0.14316168 -0.040650263 0.0430858 0.03999027
000190 63 98 09 be fb c3 3e be 95 d2 4f bc 14 b1 91 bd
       -0.13437037 -0.18629448 -0.012684484 -0.07113853
0001a0 b3 83 e6 bd 81 64 73 bc b7 73 8f bd 25 89 e9 bd
       -0.112555884 -0.014855505 -0.07004493 -0.11403111
0001b0 bd a8 57 be a4 07 2e be df 1e 83 bd bc 45 97 bd
       -0.21060462 -0.16995102 -0.064023726 -0.07386348
0001c0 75 23 7c 3d 7b da a5 3d 49 64 38 3c aa c2 80 3d
       0.061557252 0.080983125 0.011254379 0.06287129
0001d0 91 a7 18 3c ec 46 30 be b7 00 05 be 21 a6 93 be
       0.009317295 -0.17214555 -0.12988554 -0.28837684
0001e0 8c 81 a3 3d d5 49 4e be 54 63 c1 bc cb 2d 2f bf
       0.079836935 -0.20145352 -0.023606934 -0.6842925
0001f0 d2 cd aa 3c 98 51 ef bd b1 65 8b 3d ec 18 2d be
       0.020850096 -0.11685485 0.068065055 -0.16904038

layers.0.lstm.weight_ih_l0 f4 [84, 21]
000000 7c 64 fe bd 40 6b e7 bd a3 32 1f 3e 99 7b 0d 3e
       -0.124215096 -0.11299753 0.1554666 0.1381668
000010 e8 f4 32 bc 11 e2 5b bc a2 4c 20 be d8 15 76 bd
       -0.010922648 -0.013420598 -0.15654233 -0.060079426
000020 18 bd 6f bd 30 fc e9 bc 0f 9e a2 3d b5 a0 e6 bd
       -0.058529943 -0.028562635 0.079403035 -0.11261121
000030 63 8e 13 3e e5 7a 8f 3d 87 6b a5 bd b6 54 86 3c
       0.14409785 0.07005862 -0.0807715 0.016397815
000040 82 83 63 3d 51 39 bf 3d 45 53 20 bd 07 77 6f be
       0.055545337 0.09337104 -0.039141912 -0.23385249
000050 61 9c 43 3e 46 83 5e bc 16 6f f7 bd 51 33 78 3d
       0.19102623 -0.013581103 -0.12081735 0.060595814
000060 b7 82 7e bd b9 ba 00 3e 57 63 0f 3e 17 8f b8 bd
       -0.06213638 0.12571229 0.14002739 -0.09011667
000070 24 b6 b7 3c 9f c5 ac 3d 9c 78 d2 bd 31 61 8b bd
       0.022425719 0.08436131 -0.10276911 -0.06805647
000080 98 b2 b7 3d b0 20 ac 3d 5a 13 68 3e 69 af 00 3e
       0.08969611 0.08404672 0.22663632 0.12566914
000090 e9 06 8f bc 8d f0 96 3d 87 b6 82 3e 2c 05 8c 3d
       -0.01745935 0.073701 0.25529882 0.06836924
0000a0 7d 4c 14 bd e8 8b 21 3d 6d 22 b0 3d bc 08 23 3e
       -0.036205757 0.039440066 0.08600316 0.159213
0000b0 2d 06 df bd 3d d8 97 3a 30 7a 9f bd 6e 16 d5 bd
       -0.1088985 0.001158483 -0.07786977 -0.10404669
0000c0 8f 74 3e be fd 41 7d 3d 2f fc 92 be 5c 71 18 3d
       -0.18599151 0.06183051 -0.28708026 0.037217483
0000d0 14 88 52 bd f8 b7 be bd d1 e5 d1 bc 92 ab 16 3e
       -0.051399305 -0.09312433 -0.02562228 0.14713886
0000e0 9c cc 8a bd b2 cd 0e 3d f6 71 5e 3e 80 08 ae 3d
       -0.067773074 0.034864135 0.2172316 0.08497715
0000f0 d7 6f b2 bd 58 78 1f be 1b fb c2 3c 03 5f 5b bd
       -0.08712738 -0.15573251 0.023801377 -0.053557407
000100 76 e3 3b be 54 e2 1d 3e a8 9b 96 be 85 09 3a be
       -0.18348488 0.15418369 -0.2941563 -0.18167694
000110 c6 e1 03 3e 5b bb da bc 4d 28 9a 3d 50 38 43 be
       0.12879094 -0.026700666 0.07527218 -0.1906445
000120 4c d5 79 3d 6f 86 bc 3d 83 41 b5 3d 36 15 0e be
       0.06099443 0.09205329 0.08850386 -0.13875279
000130 69 d2 20 3e 2c dc d1 bc bb 20 f4 bd 6f c0 45 3d
       0.15705265 -0.025617681 -0.11920305 0.048279222
000140 48 7c 2d bd bb a7 2b 3d 51 65 6e 3c d7 1e 4f 3c
       -0.042354852 0.041908007 0.014550523 0.01264163
000150 cf de 32 be fc d3 f9 bd a0 25 85 3d 36 7a 7e 3c
       -0.17467807 -0.12198636 0.06501317 0.015532067
000160 17 24 36 bd d4 ef e4 bd c2 11 15 bd 66 78 6c 3e
       -0.04446801 -0.11178556 -0.03639389 0.23092803
000170 7e 18 b7 3b 11 b9 14 bc 85 9c 53 bc cc 9f ba 3d
       0.0055876365 -0.009077326 -0.012915735 0.0911251
000180 1d 12 fa bd 78 8b a6 3c 3a eb bc 3d 10 de c0 3c
       -0.12210486 0.020330176 0.092245534 0.023543388
000190 4a 45 07 3e 6a f6 19 3e d1 84 e0 3c d7 26 05 be
       0.13210025 0.15035406 0.027407082 -0.13003097
0001a0 6c 06 1c be 18 a2 7f 3e c5 21 30 be 0f 34 32 bd
       -0.15236825 0.24964178 -0.17200382 -0.04350668
0001b0 85 a1 9a 3d b1 ab 18 be fd e6 fe 3d 06 1c 18 be
       0.07550339 -0.14909245 0.12446401 -0.1485444
0001c0 0e 9d 01 be 5c 1a 92 bd ce 10 15 3e e9 1c bc bd
       -0.12657568 -0.07133934 0.14557192 -0.09185202
0001d0 3f 96 9e 3d 07 88 83 bd b5 f8 6e bd 42 ca 4b be
       0.07743501 -0.064224295 -0.058342654 -0.19901374
0001e0 56 47 ae 3e fc 68 83 3d 2c e7 3f 3d 77 33 51 3b
       0.340388 0.064165086 0.046851322 0.0031921545
0001f0 8d bc 98 3c 08 e1 a0 bd e1 ca bc be 95 69 a4 3d
       0.018644596 -0.07855421 -0.36873534 0.08027951
000200 8c c2 d9 3d 56 80 c8 bd 8c 09 11 bd 6e 1b 31 be
       0.1063281 -0.09790103 -0.035409495 -0.1729562
000210 98 f7 4e 3d 2c e1 7e bb 56 3a 2a bd 86 0c 99 bd
       0.050529093 -0.0038891537 -0.04155954 -0.07473092
000220 44 37 18 3e 1e 56 e4 bc 03 be ad 3c 9b 69 41 3e
       0.14864832 -0.027873095 0.021208769 0.18887942
000230 af 07 20 be 3f a4 8a bd de db 1e bc aa 1a 12 3e
       -0.15627931 -0.06769609 -0.009695975 0.14267984
000240 fa ac 91 3b 05 18 4d be 0a 0f 03 3e 2d 47 28 3e
       0.0044456692 -0.20028694 0.12798706 0.16433401
000250 2f ab b0 bd 2d 6e 1f 3e a6 6d 70 be f0 93 69 bd
       -0.08626401 0.15569372 -0.23479328 -0.05702585
000260 9c f4 72 be d1 d7 8a 3e cb 7f 8c bd 30 fd 72 3e
       -0.23726124 0.2711778 -0.06860312 0.23729396
000270 31 58 23 3d c8 af b2 3d e0 8b d2 b9 9f 5b 9a bd
       0.039879028 0.08724934 -0.00040158536 -0.075370066
000280 b9 74 05 3e 1c eb eb bd 24 4b 32 bc 3a b4 68 be
       0.13032807 -0.11519453 -0.010882173 -0.22725001
000290 92 17 ed 3d 5c 5e 8f 3d a8 bc 6d 39 2f 87 2d be
       0.11576761 0.070004195 0.00022672361 -0.169461
0002a0 c0 3d 8c bd 5b fe a6 bd e5 90 88 bd ef 85 88 be
       -0.068477154 -0.08153983 -0.066682614 -0.26664683
0002b0 93 ba f2 3d a3 83 2f be 29 17 12 be fc d7 12 3e
       0.118519925 -0.17140059 -0.14266647 0.14340204
0002c0 32 25 85 3b f8 bb 20 be 02 b7 24 3e 26 41 21 3e
       0.004063272 -0.15696704 0.16085437 0.15747508
0002d0 32 31 26 be 96 a4 5e be dc 5b 2e 3c 78 c7 4d 3e
       -0.16229704 -0.21742472 0.010642018 0.20095623
0002e0 73 5d d2 3d 2a 4d 63 be 81 e8 3a bc 4d 75 f5 3b
       0.1027173 -0.22197405 -0.011407972 0.00749079
0002f0 37 67 d7 bc 65 54 1a be 14 a8 2c 3c 43 6b 39 bd
       -0.026294334 -0.15071256 0.01053812 -0.04526831
000300 a5 47 15 be 93 cf 2a 3d c8 32 ab 3c c2 8a 80 bd
       -0.14578111 0.041701864 0.020898238 -0.06276466
000310 14 1a 29 3e f6 68 f6 bc 99 db 81 be ca 4c ee 3d
       0.16513854 -0.030079346 -0.25362852 0.1163574
000320 e8 b5 43 be 28 d6 7c be 8d 4a 2a be 5f e8 fd bd
       -0.1911236 -0.24691069 -0.16630001 -0.12397837
000330 c3 a7 80 bd e4 c5 16 bb 6c 51 05 be 17 10 fc 3c
       -0.06281998 -0.0023006136 -0.13019341 0.030769391
000340 e5 f3 92 3d 63 c5 46 be 5f 85 2f be 1f 77 87 3c
       0.071754254 -0.19411235 -0.17140721 0.016536294
000350 72 e7 d4 bd 82 f2 e7 bd c9 24 86 3e c1 2b 26 3e
       -0.10395707 -0.113255516 0.2619994 0.16227628
000360 fc 9d 27 be 5b 56 d9 bc f0 a8 28 be 60 0c df bd
       -0.1636886 -0.026530435 -0.16470695 -0.10891032
000370 de 26 06 3e 67 b3 92 3d 3c 89 e5 3d b5 25 fc bc
       0.13100764 0.071631245 0.11207816 -0.030779699
000380 39 b4 07 3e f7 4c 8a 3d 7d b4 8a bd ac 1f 1f 3e
       0.13252343 0.06752961 -0.06772707 0.15539426
000390 b7 eb 1f be 9e 8f e2 3a e8 9d 72 3d 30 3f de 3d
       -0.15617262 0.0017285233 0.059232622 0.10851896
0003a0 39 2d 5f 3b d5 a2 6a bd 22 fc 0a 3d 23 84 90 bd
       0.0034054054 -0.057284195 0.03393186 -0.07056453
0003b0 4b 7a 0e be 0b 7d 0f 3d 56 40 15 3e b5 c4 76 bd
       -0.13913839 0.03503136 0.14575323 -0.06024619
0003c0 10 91 cc 3d 8e 41 ec 3d 1f 48 4a 3e 49 31 64 bd
       0.09988606 0.11535941 0.19754075 -0.055711064
0003d0 93 1e a7 bd 6b 4a 5c bd 1d 76 8b 3d ca f8 00 be
       -0.081601284 -0.053781908 0.06809638 -0.12594905
0003e0 f9 84 8e bd 54 d2 83 be 90 52 85 3e a9 57 03 3d
       -0.06958956 -0.25746405 0.26039553 0.03206602
0003f0 5f 08 3e bd 5d 23 33 3e cc 04 2e be f1 98 4d be
       -0.046394702 0.17493959 -0.16994017 -0.20077874

layers.0.lstm.weight_hh_l0 f4 [84, 21]
000000 e8 16 09 3e 4c 65 ef bc d7 e2 72 bd 27 f8 da bd
       0.13387644 -0.029223107 -0.059298363 -0.106918626
000010 e7 63 9a 3e ef 15 b3 be 12 f3 88 be 6d ca 2c be
       0.30154344 -0.34977672 -0.26747948 -0.16874094
000020 a1 d1 de 3c 93 93 ab be 11 d1 aa bc b6 fb 9a be
       0.027199568 -0.33511028 -0.020851644 -0.30270165
000030 b8 9f be be 3d 20 e3 be 52 5f eb 3e 41 0e 8f be
       -0.3723123 -0.44360533 0.4597116 -0.27940562
000040 4f 10 4a bd d2 9e ed bd 73 da 8e be 25 80 16 be
       -0.04933196 -0.11602558 -0.2790104 -0.14697321
000050 fb 8c 6c be 77 21 c1 bc 1c 19 8f 3d ac 1e 67 be
       -0.23100655 -0.023575528 0.06987211 -0.22570294
000060 ac c9 a4 be 5a 60 34 3e 33 a5 b6 3d 76 7b ab bc
       -0.32185113 0.1761488 0.08918228 -0.020932894
000070 40 fe 86 be 23 24 a2 3e c7 ff bd be 6a 90 bd 3c
       -0.26365852 0.31668195 -0.37109205 0.023140151
000080 22 37 c8 bd 22 08 44 be 99 67 6f be 46 3e f2 3d
       -0.09776141 -0.19143727 -0.23379363 0.11828284
000090 0e ef 3f bd a1 6e 94 bc bd d8 88 bd d7 1b 91 be
       -0.04685884 -0.018119158 -0.066819645 -0.28341553
0000a0 99 eb 41 be a3 22 bd bd 66 6b 7c 3e f1 85 ae bd
       -0.1893753 -0.09235122 0.24650344 -0.08521641
0000b0 d1 9b 7f bd 2e 73 66 3c 78 1e a2 3d 11 0b a8 bd
       -0.062404457 0.014065547 0.07915968 -0.08205236
0000c0 81 3c f8 3d ec 18 7e 3d 3f 1c 5c bd eb c9 93 be
       0.12120915 0.062035486 -0.053737875 -0.2886499
0000d0 61 ef c0 3d 9f 2f e1 3c b3 6d 67 be dc 6f 0d bd
       0.09420658 0.027488528 -0.2260044 -0.034530506
0000e0 ba 24 2d 3d 79 50 73 3c b3 58 03 be 23 62 91 3b
       0.042271353 0.014850729 -0.12826805 0.0044367476
0000f0 3f 1c 87 bd be 0d 97 3b 35 14 71 bd f3 43 45 3f
       -0.065971844 0.0046097925 -0.05885716 0.7705681
000100 3c 43 f4 be 08 10 07 3f 81 7c cd 3e ef 22 8e 3d
       -0.47707546 0.52758837 0.4013405 0.06940257
000110 fd 01 91 bd 87 dc 27 be 72 3b 33 3f 43 bb a1 be
       -0.07080457 -0.16392718 0.7001258 -0.31588182
000120 5e 76 82 be e8 83 19 3e ce 75 07 bf 84 12 00 be
       -0.25480932 0.14991724 -0.5291413 -0.12507063
000130 fa cb 4e be fb d7 6b 3d 69 4a 6d be cb c3 12 bf
       -0.20194998 0.057579022 -0.23172916 -0.57330006
000140 c0 9f 3c bf b1 92 0b 3f bb 63 77 3d 98 a2 ef be
       -0.7368126 0.5452071 0.060397845 -0.46803737
000150 22 3d ab 3d 17 b8 63 bd 0a 8d c1 3e a5 c6 9d be
       0.083612695 -0.055595484 0.37802917 -0.30815616
000160 d0 29 a8 3e 20 cc dc be 9c 6a b3 3d b4 f5 ec bd
       0.328444 -0.43124485 0.087605685 -0.11570302
000170 4d 72 9e 3e b2 52 d8 be b1 5a b3 bd 97 8d b9 be
       0.3094658 -0.42250592 -0.087575324 -0.36240837
000180 5e fa b5 be cb 6c 8a be 9f d1 c5 3d dd 03 ce be
       -0.35542578 -0.27036127 0.09659123 -0.40237322
000190 60 4e 85 bd 0f b8 17 be f3 93 ef bd 64 62 b7 be
       -0.065090895 -0.14816307 -0.11698141 -0.35817254
0001a0 39 a2 f7 bc 2f 64 d5 3d 27 83 a7 3e 42 fe 29 3d
       -0.030228721 0.10419499 0.3271725 0.041502245
0001b0 26 f3 10 3e 51 b7 f8 bd e2 ae b3 3d e7 ff 50 bd
       0.14155254 -0.1214434 0.087735906 -0.051025297
0001c0 e8 c0 00 bd a1 57 76 3e 06 6f 03 3b 33 91 4d 3d
       -0.03143397 0.24056865 0.0020055189 0.0501873
0001d0 54 5e be ba 73 9c 3d 3e 26 e1 93 3e 9b 9d 74 be
       -0.0014523962 0.18516712 0.28882712 -0.23888247
0001e0 55 90 fc bd 42 c5 71 3e e0 ee 04 3e b9 2d 39 3e
       -0.12332217 0.23610404 0.12981749 0.18083848
0001f0 7d 02 9b 3d a8 b0 bf 3d 26 51 54 bd 3a 77 cd be
       0.07568834 0.093598664 -0.0518352 -0.40130025
000200 dc e0 11 3e 91 b0 bd 3d 89 4a 78 3d 19 dd 2d bd
       0.14245933 0.09262193 0.060617957 -0.042447183
000210 c5 ad 9b 3c 0c ef 00 3e e1 7f c7 bc a7 b0 0c be
       0.019003758 0.12591189 -0.02435297 -0.13739263
000220 ae 4c 61 3c ec d8 f8 bd 22 d2 c9 be f8 99 40 3d
       0.013751192 -0.121507496 -0.3941813 0.047021836
000230 7d af 18 3e 70 6d bc be f5 21 c6 be ad 98 c8 be
       0.14910693 -0.36802244 -0.38697782 -0.39178982
000240 02 19 8a bd fd 8c 15 be 65 a0 73 be 0f 58 da 3e
       -0.06743051 -0.14604564 -0.23791654 0.42645308
000250 42 42 b6 be 5c 3f 80 3e 0a 6a 86 3d 90 ab 66 3e
       -0.35597426 0.2504834 0.06563194 0.22526383
000260 ef ec 77 bd 28 df 5d be f6 55 22 3e b5 90 a4 bd
       -0.06052869 -0.21667159 0.15853104 -0.08035413
000270 be bb 2d be d8 6f e3 3d 29 85 93 bd 43 cd 35 be
       -0.16966149 0.11105317 -0.07203133 -0.17754082
000280 e1 1e c9 be eb 53 7f 3e 41 5f e7 be a7 e1 9f be
       -0.3928137 0.24934356 -0.4518986 -0.31226847
000290 a5 cb ff bd 4d f8 80 bb 6c c4 f0 bd 42 b0 8c bd
       -0.12490014 -0.0039358498 -0.117562145 -0.06869556
0002a0 d7 71 6a 3e 6c e9 1c be 22 36 9e 3e a7 bb 9a 3e
       0.22894989 -0.15323418 0.30900675 0.30221292
0002b0 e2 7a c3 3c 5a fc 86 be 2f df 3d be bf 30 42 3e
       0.023862306 -0.26364404 -0.18542169 0.18963908
0002c0 2c 5e 8a bd 65 34 7e bc cb 4c 62 3d 21 54 db bd
       -0.06756243 -0.0155154215 0.055249017 -0.10709406
0002d0 e4 e3 44 be eb 66 b6 be d0 0a e2 bc 43 19 b8 be
       -0.19227558 -0.35625395 -0.027593046 -0.35956773
0002e0 58 fb 9d 3d 4b 36 9d be f4 a4 f1 bd e5 b4 1f be
       0.07713956 -0.30705485 -0.117990404 -0.1559635
0002f0 3c a2 48 3d cf 32 e9 3d 8a 36 6e 3e 4c 9a 28 be
       0.048982844 0.11386644 0.23262993 -0.1646511
000300 45 e8 4e bc 94 72 65 bc 22 98 50 3b 58 b7 a0 bb
       -0.01262862 -0.014004368 0.003182896 -0.004904669
000310 da 40 ff bd b9 6f b3 bc 5c f4 84 bd 6e fb 9c be
       -0.12463541 -0.02190386 -0.0649192 -0.30660576
000320 65 9d a5 3d e9 96 5a 3e 32 f9 6c bd b4 37 79 bd
       0.08086661 0.2134663 -0.05785484 -0.06084414
000330 5c 68 9d bd 25 49 8e ba ff 31 eb 3d 3d be 8d bd
       -0.076859206 -0.0010855539 0.114841454 -0.06921051
000340 99 91 a1 3d b3 fe c2 3d ed 19 d9 bc a9 24 dd bc
       0.07889099 0.09521236 -0.02650162 -0.02699502
000350 2d 0b aa 3d f9 07 23 be 42 40 26 bd c4 d2 fc bd
       0.08302913 -0.1592101 -0.040588625 -0.12344888
000360 64 52 2b be b0 c9 b1 bb 53 2c 9e 3e 26 ed d6 bd
       -0.16730648 -0.0054256544 0.30893192 -0.10494451
000370 2b 93 c2 bd 70 32 98 be 8d 63 a0 be e8 68 70 be
       -0.09500726 -0.2972598 -0.3132595 -0.23477519
000380 9b ab 83 3e b8 8d e1 be bd 1c 1d be ef b5 02 be
       0.25716862 -0.44053435 -0.15342994 -0.12764715
000390 a9 70 82 bd 46 8d 25 bd 26 e3 ce bd e2 32 a0 3d
       -0.063691445 -0.040417932 -0.10101919 0.07822205
0003a0 c7 a6 e1 bc 4e 90 69 bc 3e 20 2a 3d d8 ed 61 3e
       -0.027545346 -0.014255596 0.041534655 0.22063386
0003b0 77 17 bd bd 4f 86 db 3d 81 22 02 be 4e e7 f4 bd
       -0.09232991 0.10718977 -0.12708475 -0.1195818
0003c0 70 a5 21 3c 71 3f bc 3c 1b b5 b4 3e 22 d8 f8 3d
       0.0098661035 0.02297947 0.35294423 0.12150599
0003d0 f0 a9 8b 3e 31 ed 08 be 7a 9b 2a 3e 35 f5 13 be
       0.2727809 -0.13371731 0.16660872 -0.14449008
0003e0 02 65 93 3e c3 f3 5f 3e ac ac 86 3e 6e 02 62 3d
       0.28788 0.21870331 0.26303613 0.0551781
0003f0 a0 bc a7 3e 81 e5 4f be 1e 72 5b 3e 3f f9 a5 3c
       0.32761097 -0.20302393 0.21430251 0.020260451

layers.0.lstm.bias_ih_l0 f4 [84]
000000 aa e8 16 be 62 49 db bc 11 66 91 be 53 26 7e be
       -0.14737192 -0.02676839 -0.28398183 -0.24819307
000010 76 73 d9 be f8 40 aa 3e 6c 50 89 be f4 83 a2 bb
       -0.42470902 0.33252692 -0.2681917 -0.0049595777
000020 29 29 24 be ac fe de 3d f2 d5 b9 be ec dc 30 bd
       -0.16031326 0.108884186 -0.3629604 -0.043179438
000030 e5 72 aa bd 5c c7 5c be 2c 92 c8 3c da 1d a3 3e
       -0.08322696 -0.21560425 0.024483763 0.31858712
000040 28 47 c7 bd b7 41 24 3e 76 66 3e be 47 b3 0d 3e
       -0.09730369 0.16040693 -0.18593773 0.1383792
000050 97 99 16 bd 01 1d 28 3e 30 3c 87 3e 5d 55 15 bd
       -0.03676757 0.16417314 0.26413107 -0.036458362
000060 db ea 1b 3e e0 88 18 be 3c b5 ad 3e b4 35 04 3e
       0.15226309 -0.14895964 0.33927333 0.12911111
000070 8e 36 86 3c a5 74 c0 3e f6 f7 ae 3e 81 85 91 be
       0.016383436 0.37588993 0.34173554 -0.28422168
000080 09 b1 4f 3e 9b 4e cb bb 0e 1a af bb 9f 3c 40 3d
       0.20282377 -0.006204439 -0.005343682 0.046932813
000090 79 46 3a 3e 31 2b 12 be 8a 32 72 3d b6 ba 83 3d
       0.18190946 -0.14274289 0.05913023 0.06432097
0000a0 d1 98 25 bd 34 57 85 bc ea c9 b9 bb c3 50 08 3e
       -0.04042894 -0.016276933 -0.005669822 0.13312058
0000b0 7a 00 83 be 75 0d 09 bd 7b 4c 01 be e0 ff d2 3e
       -0.255863 -0.0334601 -0.12626831 0.41210842
0000c0 dc d4 a1 bd d1 55 a2 bd 6d 78 e3 bd bd a8 c7 3e
       -0.07901928 -0.079265244 -0.11106954 0.38995925
0000d0 f0 c1 7f be 8d c1 b0 3e c5 59 6c 3e c9 cb 3c 3e
       -0.24976325 0.34522668 0.2308112 0.18437113
0000e0 05 f7 a4 be 9c 3e b9 3e 39 20 af 3d c6 10 7b 3e
       -0.3221971 0.3618058 0.08551068 0.24518117
0000f0 b7 d8 72 3e 1d eb 9a 3e 44 1b ac 3e c4 4a 85 be
       0.23715483 0.30257502 0.33614552 -0.26033604
000100 01 f8 d1 3d b0 7e 61 be 95 88 a4 3e 70 98 a6 be
       0.10252381 -0.22020984 0.32135454 -0.32538176
000110 d1 53 58 3e 92 51 f5 3a d5 cc 0b 3e 27 84 1f 3e
       0.21125723 0.0018716326 0.13652356 0.15577756
000120 05 23 04 be aa 99 8c be 6e e3 e0 3d a0 e7 83 3d
       -0.12903984 -0.27460986 0.10980879 0.06440663
000130 16 ca c3 3d 59 73 57 be 38 d3 fd 3d a5 6e a1 be
       0.09560029 -0.21040095 0.123938024 -0.31529728
000140 79 ed 0a 3c 16 5f 54 bd 79 bd 87 3e cf c2 43 3e
       0.008479469 -0.051848494 0.26511744 0.19117282

layers.0.lstm.bias_hh_l0 f4 [84]
000000 57 55 26 be b3 af 84 bd 3e 8a 59 be 0b d2 8a be
       -0.16243492 -0.064788245 -0.21244141 -0.27113375
000010 ac af 43 be 74 89 b7 3d 3c 6c ad be 0e 20 00 be
       -0.19109982 0.08961764 -0.3387164 -0.12512228
000020 e4 f3 1e 3c fe a0 eb 3d c2 ae e1 be 2a 49 ab 3e
       0.009701703 0.11505316 -0.44078642 0.33454257
000030 a8 d5 b4 be e0 e6 0c be a9 7c e5 bd 88 b1 63 bc
       -0.35319257 -0.13759947 -0.11205418 -0.013897307
000040 3d ae 64 be 46 7b cc bd 98 4a 92 3d d1 38 2d be
       -0.22332092 -0.0998445 0.07143134 -0.16916205
000050 4b 6c 36 3e cb 6f 7b 3e 95 b6 16 bd 42 23 0b 3d
       0.17814748 0.24554364 -0.036795218 0.03396917
000060 4f e7 da 3e 1e 11 12 be ae af b8 3e 15 db 7f 3c
       0.427546 -0.14264342 0.36071533 0.015616198
000070 66 c4 6e 3e 41 09 8e 3c 9e 14 81 bd ef b8 e7 3d
       0.23317108 0.017338397 -0.063027605 0.1131457
000080 fe 26 9c 3e f5 65 77 bb be 2a 91 3e dc e5 b1 bd
       0.304985 -0.003774998 0.28352922 -0.0868642
000090 9e 43 66 3d fe 1e 47 bd ab d2 c9 bd e8 43 42 bd
       0.05621683 -0.04861354 -0.09854635 -0.04742804
0000a0 25 b6 af 3e a5 e7 2b 3d 3a 01 8e be 58 db 44 3e
       0.34318653 0.04196896 -0.2773531 0.19224298
0000b0 2c 33 18 be 5a 7d 67 3e 60 ee 4f be 88 27 9a 3e
       -0.1486327 0.22606412 -0.20305777 0.30108285
0000c0 80 b9 04 3e 3f b3 a0 bc 76 c6 47 be 36 42 e6 3e
       0.12961388 -0.019616721 -0.195093 0.4497239
0000d0 4e 24 00 bd 9f f5 a8 3e 6f 91 f7 3d 0e 2f f7 3e
       -0.031284623 0.32999894 0.12088286 0.48278087
0000e0 ca 46 81 be f3 ba c6 3e 4c 06 ae 3e f3 8a 87 3e
       -0.2524932 0.38814506 0.3398918 0.26473197
0000f0 3d f2 6c 3e 54 33 c7 3e b0 51 d2 3e 34 eb 79 be
       0.23139282 0.38906348 0.41077948 -0.24406129
000100 ea c3 8f be 09 2a 69 be 71 92 7f bd 1c 27 8f be
       -0.28079158 -0.22769941 -0.062395517 -0.27959526
000110 c0 a2 e9 3d fb 61 c6 be ab 12 2b be c9 1f 79 3d
       0.11407995 -0.38746628 -0.1670634 0.06082133
000120 7c 11 62 3e f5 18 a3 be d5 df 3d 3e be 3c 80 be
       0.22076982 -0.31854978 0.18542416 -0.25046343
000130 5e ac 67 bc 18 e3 41 3b 63 98 0d 3e b7 9e 5f be
       -0.014140217 0.0029584821 0.13827662 -0.21837889
000140 18 d5 34 be 1c a7 e6 3b bb fb 0b be 34 fd f3 3c
       -0.17659414 0.007038964 -0.13670246 0.029783823

layers.0.fc_self.weight f4 [128, 21]
000000 fe ac ef 3d 1e 8a 07 be 23 66 c0 bd 0d f3 ae bd
       0.117029175 -0.13236281 -0.09394481 -0.08542452
000010 f7 cc b5 bd c4 5a 3d 3e 7a 7a 31 be 7b c1 95 3d
       -0.088769846 0.18491656 -0.17331877 0.07312294
000020 e3 0f a8 3e d3 db 2e 3e 1d 74 e3 bd a7 c6 b6 bd
       0.3282462 0.17076044 -0.11106131 -0.08924609
000030 41 6e 1e bd a7 d6 60 3e 95 1b e6 be 99 64 a4 3e
       -0.038679365 0.21956883 -0.44942918 0.32108
000040 f2 ff 3f be e5 d0 1a 3e 34 d1 57 3d 1c d0 82 3d
       -0.18749979 0.1511875 0.052689746 0.0638735
000050 3b b2 22 be 3f 60 34 3e 27 1a 3a 3e 59 21 2e 3c
       -0.15888302 0.1761484 0.18174039 0.010628068
000060 f5 a3 4c be 24 e1 2c 3e 74 8b 9a 3b 5f a2 1b 3f
       -0.1998442 0.1688276 0.004716331 0.60794634
000070 8b 37 db bd 73 1d 1c bd 94 1f f5 3d 1b 2d 16 3e
       -0.10703953 -0.038114022 0.11968914 0.14665644
000080 27 5d 93 be 8f 6c 5f 3e f1 bc 5f be b0 f4 24 be
       -0.28782007 0.21818756 -0.21849419 -0.16108966
000090 ef 67 d0 ba 3d 57 94 be 4a e2 a5 bd 00 10 9e 3c
       -0.0015900115 -0.28972808 -0.08099802 0.019294739
0000a0 b5 39 3a bd 32 76 e6 bd fa ca 2d 3d a2 0e 87 be
       -0.04546519 -0.11253013 0.0424299 -0.2637835
0000b0 b5 6e 2f 3e 38 d3 62 3e f0 1c 12 3e c9 58 99 3c
       0.17132075 0.22150886 0.14268851 0.018719094
0000c0 7f 48 04 bf 7b 6c ba 3c 2a d1 cf 3c 06 91 de bd
       -0.5167312 0.022756806 0.025368292 -0.10867505
0000d0 c8 63 38 3d 71 e0 3c be 1c 9c 6c 3e a1 23 59 3e
       0.045017034 -0.18444993 0.23106426 0.21204998
0000e0 31 87 d1 bb 0a c1 9e 3e 5c d4 5c be d7 34 7d 3d
       -0.00639429 0.31006652 -0.21565384 0.06181797
0000f0 0a a4 cb 3e 65 8b bc bd 65 72 d2 3d 9e c7 6c 3e
       0.3977359 -0.09206275 0.10275725 0.23123023
000100 e5 1a cb 3c 89 c4 ab 3d 8b c4 33 be 97 60 82 be
       0.024793098 0.083870955 -0.17555444 -0.25464317
000110 a0 4a a8 3c 09 f1 c5 be 38 c8 78 3e 78 0d b9 3c
       0.020543396 -0.38660458 0.24295127 0.02258943
000120 ad 43 d0 3e 3e 83 0a 3e ae 6e d6 bd ff f5 4a be
       0.40676633 0.13526627 -0.10470329 -0.19820403
000130 1c 85 21 3d 72 e2 9e be ac d2 cf bc ce 0c 1d be
       0.039433584 -0.3103214 -0.02536901 -0.15336916
000140 26 aa 2b be 83 88 41 3e 01 ab 9c bd 8e 0f 89 3d
       -0.16764125 0.18899731 -0.07649804 0.0669242
000150 b8 41 c6 3d c3 0a e8 bd 4b 02 df bd 87 d7 cc bc
       0.096805036 -0.11330178 -0.10889109 -0.025005115
000160 93 ee ec 3d c7 83 02 be d2 a8 79 3f ab c0 f4 bc
       0.11568942 -0.12745582 0.97523224 -0.029877027
000170 83 89 16 be 31 c6 db 3d 01 c7 67 bc 77 b6 10 bf
       -0.14700894 0.107311614 -0.014146567 -0.5652842
000180 1a 19 61 bd 3e 6c 15 bd ff 3a cb bd 72 e5 6a bc
       -0.05495558 -0.03648018 -0.09923362 -0.014336931
000190 07 c1 39 be 72 4f e2 3d 36 b2 2a 3e 06 cf 26 be
       -0.1814004 0.11050309 0.16669545 -0.1628991
0001a0 72 23 4e 3d 1f ed f4 bd d1 2e 5b be 48 0d dd 3d
       0.050326772 -0.1195929 -0.21404578 0.10793549
0001b0 3e 29 a4 bd 7e 16 cf be 8d 1f 13 be b2 d8 23 3f
       -0.08015679 -0.40446848 -0.14367504 0.64002526
0001c0 99 3d f1 3b ca 4e 37 be e2 f8 4d be 2c 9f d5 bd
       0.0073620793 -0.1790115 -0.20114473 -0.1043075
0001d0 84 73 f2 bd 81 4d 02 3d 3f a3 41 3e 03 ad a8 be
       -0.11838439 0.031812195 0.1890993 -0.32944497
0001e0 6d 03 0d 3e 43 af e4 3e 56 a8 01 3d 51 c1 af 3d
       0.13770838 0.44664964 0.03165468 0.08581794
0001f0 ab 85 47 3e 46 84 ef 3c 12 dd b7 bb 4c ec 84 3e
       0.19484584 0.029237878 -0.0056110704 0.2596153
000200 45 e2 3d be 1a 4f 76 be e3 5e 63 3e f8 f2 04 bd
       -0.18543346 -0.24053612 0.22204165 -0.032458276
000210 ba a6 c8 be 61 17 81 3e 02 57 a2 3c 1d 5a 87 3e
       -0.39189702 0.2521315 0.01981688 0.26435938
000220 4e 48 b7 bd 5f 5e 78 3d c8 f1 ce bd 24 24 63 bd
       -0.08949338 0.060636874 -0.1010471 -0.05545439
000230 22 82 b8 be f7 0d 70 3e 9e 00 95 3d ac 0e dd 3c
       -0.36036783 0.23442827 0.07275508 0.026984535
000240 0a f7 03 be 7a 41 c8 3d 2e 4c 49 be 58 64 f1 3d
       -0.12887207 0.09778114 -0.19657966 0.11786717
000250 63 99 17 bd 9e 49 97 3c d9 9a c2 be 99 88 77 3e
       -0.037011515 0.01846772 -0.38008764 0.24173202
000260 24 3f 3b be ec a8 65 bc ff 31 91 3d ee 70 f9 bd
       -0.18285805 -0.014017325 0.07089614 -0.12179743
000270 69 33 e6 bd 42 57 cc bd ac 9f fd bc bf ca 05 3e
       -0.112402745 -0.099775806 -0.030959927 0.13065623
000280 dc b4 e6 3e b0 c4 94 3e 93 1c a6 be b3 8a f7 3e
       0.4505986 0.2905631 -0.32443675 0.48348007
000290 d3 72 d3 3e c6 af 88 3e de b1 2d 3d b4 4c 54 bd
       0.4129854 0.26696604 0.042405955 -0.051830962
0002a0 11 76 0e 3e c8 75 4d 3d 8d ff 21 3d 10 0a 7a bd
       0.13912226 0.050161153 0.039550353 -0.061044753
0002b0 5b 54 9d 3e 9c f7 07 3e 56 fa 3a be 10 52 5c 3e
       0.3072842 0.13278049 -0.18259558 0.2151568
0002c0 11 8a 37 bd 72 ca 81 bd 9c 5e e3 3d fe 43 0d bf
       -0.044809405 -0.063374415 0.1110203 -0.5518187
0002d0 b4 f7 af bd e0 a7 df bd 71 7a f9 bb 39 3b 42 bd
       -0.085921675 -0.109206915 -0.007613473 -0.04741976
0002e0 88 1e c8 3d 81 94 a2 be 73 77 a9 3d e4 c5 d6 bd
       0.097714484 -0.31753924 0.08274736 -0.104869634
0002f0 c7 f1 c7 be 8c 87 d2 bd 70 ba 5e be cc cd 59 3d
       -0.3905165 -0.1027976 -0.21750808 0.05317478
000300 27 23 9b be 68 bd 44 be 43 17 21 3e 44 a6 3b be
       -0.30300257 -0.19212878 0.1573153 -0.18325144
000310 45 18 7d 3e e6 8a 23 be 9e 30 a0 3e 6e be a2 3e
       0.2471629 -0.15970954 0.31287092 0.3178591
000320 73 1d c9 bd ba 3d 78 3e 93 0b ae be 03 bf dc 3d
       -0.0982007 0.24242297 -0.33993205 0.1077862
000330 89 f6 cb 3d 91 8b bd bb 83 c5 0a bd 0d 8e e1 bd
       0.09959132 -0.00578446 -0.033879768 -0.11013422
000340 ca c8 fa bd 0d 92 3e 3e 3d dd 1a 3d 54 94 03 3e
       -0.12245329 0.18610401 0.037808646 0.12849551
000350 0a ca 71 3e f9 10 91 be ae c2 55 be 20 5e 8a 3d
       0.23612228 -0.28333262 -0.20875046 0.06756234
000360 d7 08 f9 3d bf c8 3b 3e 90 56 aa 3e df 9a 6f bd
       0.12159889 0.18338297 0.33269167 -0.058497306
000370 17 38 76 3e 15 51 62 3e 5e ac 8a 3e 60 a2 cd 3d
       0.24044834 0.22101243 0.2708463 0.10040736
000380 a6 b3 21 be 28 f3 1d 3d 76 ee 4d bc 50 0b 96 be
       -0.15791187 0.03856197 -0.012569061 -0.29305506
000390 79 3d 94 be ed c6 bf 3e 93 e6 5d be 47 b5 52 3b
       -0.2895315 0.37456456 -0.21669988 0.0032151507
0003a0 b5 97 e3 bd e3 31 aa bd 69 5f 7f 3e 14 08 00 be
       -0.1111292 -0.083102964 0.2493874 -0.12503082
0003b0 60 82 a4 3c 3c 69 0c bf 23 e6 66 3d 85 2a a5 bd
       0.020081699 -0.54848075 0.05637182 -0.080647506
0003c0 78 a2 d9 bc 82 e5 ab bd f7 25 13 3e 94 42 2b be
       -0.026566729 -0.083933845 0.14369951 -0.16724616
0003d0 72 0f ed 3e 66 38 81 3c 64 30 9c 3c df 5f b1 3e
       0.46300846 0.015773963 0.019066043 0.34643456
0003e0 f4 56 94 be 31 06 03 bf 59 5a 6e bb 3b 25 b7 be
       -0.2897259 -0.5118132 -0.003636977 -0.35770592
0003f0 5a 50 a3 3d 6d fa 72 be b0 3e 3a bd ba 4d 41 3e
       0.0797431 -0.23728342 -0.04546994 0.18877307

layers.0.fc_neigh.weight f4 [128, 21]
000000 15 8d 94 3d 00 c4 29 be 56 9e 20 3d 86 7f 0a bd
       0.07253472 -0.16578674 0.0392135 -0.033813022
000010 59 2d a3 3c db 69 fc 3d 8c 4a 0e be 2a fe 1d 3b
       0.019919084 0.12324878 -0.13895625 0.0024107792
000020 41 1d 65 3c 69 a7 55 3e 2b f2 1e be 66 8c 9d bd
       0.013984025 0.20864643 -0.15522067 -0.076927945
000030 5d 82 5a 3e 7c 3f 49 bd 41 a2 9d 3e 3b e1 9b be
       0.21338792 -0.04913281 0.30787852 -0.30445275
000040 3e 44 11 be bb 57 00 3e 40 ac e8 3d 19 b0 7e be
       -0.14186189 0.12533467 0.11360979 -0.24871863
000050 b2 1e 15 3e dc 59 04 3e 97 8a 52 bc 9a b1 5f 3e
       0.1456249 0.12924904 -0.012850425 0.21845093
000060 6b 69 79 bc 8a 3e 0c 3e 56 81 e5 bc 13 18 37 3e
       -0.0152228875 0.13695732 -0.028015774 0.17880277
000070 da dd 3d bd c0 35 18 3d 57 db 91 3d 6a cf fc 3c
       -0.046354152 0.037160635 0.07121914 0.030860621
000080 4b ea a3 be 44 03 46 be 49 09 89 bb c9 0c 90 3e
       -0.3201469 -0.19337183 -0.004182015 0.28134754
000090 23 47 19 be e7 d8 c3 3d 84 05 f0 3c d7 fb d9 3d
       -0.14968543 0.09562855 0.029299505 0.10643738
0000a0 3c f8 a7 bd 17 04 0c 3e ed 93 95 3d 4c bc b1 bd
       -0.08201644 0.13673435 0.07303605 -0.08678493
0000b0 0f f0 ec bd c5 f1 33 be 9a 57 47 be 30 71 8a bd
       -0.11569225 -0.17572697 -0.19467011 -0.0675987
0000c0 06 48 9c bd 63 14 92 bd cb 12 41 3e 2c f0 7c be
       -0.07630925 -0.07132795 0.18854825 -0.24700993
0000d0 9e 6f 38 be d0 64 3e 3d 47 57 e7 bd ba 9f 6f bd
       -0.18011329 0.04648286 -0.11295944 -0.058501936
0000e0 7d 02 7c 3e 96 71 2b 3e cf 75 a6 3d 28 43 e0 3d
       0.24610324 0.16742548 0.08127939 0.10950309
0000f0 29 a5 a9 be 8b 93 8f bd 20 19 1f be 3e 5a 50 bd
       -0.3313382 -0.070105635 -0.15536928 -0.05086731
000100 9c b1 76 be c1 dd d0 bd 96 8c 5e 3e e8 f0 0b 3e
       -0.2409119 -0.10198546 0.21733317 0.13666117
000110 04 97 d7 bd 43 df 96 bd a9 a3 d4 bd f6 57 2f be
       -0.10526851 -0.073668025 -0.10382778 -0.17123398
000120 b0 9f 87 3e 60 d1 74 bc b4 3e d7 bc e8 3d 67 3e
       0.2648902 -0.014942497 -0.026275016 0.22582209
000130 79 ea a1 3d d3 45 56 bd 21 dd 99 bc 57 54 7d 3e
       0.0790605 -0.052312683 -0.0187822 0.24739204
000140 b1 99 44 3e 82 b6 79 be 88 6f 94 3c 6b 8f 26 3e
       0.19199254 -0.24386027 0.018119588 0.16265647
000150 fc d7 0d be 7a a8 cf 3d c6 1b 6e 3e 77 64 6e 3d
       -0.13851923 0.10139556 0.23252782 0.05820128
000160 ae dd dd bd fa 18 da bd 01 6c 4f 3e b3 2a ff bc
       -0.10833298 -0.10649295 0.20256044 -0.03114829
000170 a3 e4 09 be 7b 0b 51 bd c1 ee f3 3d c1 b3 a5 be
       -0.13466124 -0.05103634 0.11910773 -0.32363704
000180 a5 54 14 be 1a 36 92 bd 98 b3 15 be 7a ac b6 bd
       -0.14485414 -0.07139225 -0.14619291 -0.08919616
000190 34 20 f9 39 2c f4 17 3e 24 1b 8f 3e a5 87 4e be
       0.00047516974 0.14839238 0.27950394 -0.20168932
0001a0 e0 f5 ae bd ac a2 bd 3e 6f d0 c8 bd 86 4d 98 3e
       -0.08542991 0.3703817 -0.098053806 0.29746646
0001b0 76 95 85 be bb 0e 31 3d 28 5f b1 be 0a c6 08 be
       -0.26090592 0.04322694 -0.3464291 -0.13356796
0001c0 fd fd d0 bd a2 50 ff 3b ba 88 ad be d2 5d 95 3a
       -0.102046944 0.0077915946 -0.33893377 0.0011395758
0001d0 e1 54 be be 57 6c fd bd 0c fe 42 be f3 0d 8d bb
       -0.37174132 -0.1237418 -0.19042224 -0.0043046414
0001e0 4d 41 ea 3c 8b 40 dc bc 28 73 2c be 88 cf c2 bd
       0.028595591 -0.026886245 -0.16840804 -0.0951224
0001f0 8e 5a 7f be d2 3e ac bd d8 95 04 3e 03 b6 72 be
       -0.24936888 -0.084104195 0.12947786 -0.23702244
000200 f0 4f 01 be 40 76 f2 bd ca 67 21 be 07 84 8c 3e
       -0.1262815 -0.11838961 -0.15762249 0.2744448
000210 58 68 d2 3d d1 fd 09 3e 0b 81 17 be db 4f a5 bd
       0.10273808 0.1347573 -0.1479532 -0.08071872
000220 99 05 9a bd 33 1b 75 be d8 a9 62 3d 32 dc 84 be
       -0.07520599 -0.23936157 0.055337757 -0.25949246
000230 2f 42 b2 bd 43 8c 83 3e 0d 4e a8 3d 32 ba a1 bd
       -0.0870403 0.2569295 0.08218012 -0.07896842
000240 13 21 19 3e aa d7 66 bd 78 7c 23 3e a8 ef be 3d
       0.14954023 -0.056358017 0.1596545 0.093230546
000250 8a 12 94 be 51 55 40 3d 5a e9 e9 bd f1 36 40 bd
       -0.28920394 0.046956364 -0.114214614 -0.046927396
000260 bb f3 97 be 0e bb 56 be 2f a5 e7 bc e4 f5 73 be
       -0.2967814 -0.20969793 -0.028277008 -0.23824269
000270 45 e2 43 3e 15 8b 44 be 2b e3 36 be 68 b4 5c be
       0.19129284 -0.1919368 -0.17860095 -0.21553195
000280 ac 21 3c be 27 b9 7f 3d f0 e3 08 bc 01 b5 ad 3d
       -0.1837222 0.062432434 -0.008355126 0.084817894
000290 06 ea 63 be a1 3c b6 3d dd 64 b1 be 62 e8 9a be
       -0.22257242 0.08898283 -0.34647265 -0.3025542
0002a0 32 c4 4b be a4 0d 5a be 98 39 08 be e6 87 d8 bd
       -0.19899061 -0.21294266 -0.1330322 -0.105727956
0002b0 ca f0 68 3e 83 31 86 be 02 1c c1 3d 53 48 d6 bd
       0.22748104 -0.2620965 0.0942917 -0.104630135
0002c0 64 10 3f 3b 77 94 b2 bd e8 b8 72 3e 00 0d 6e 3d
       0.0029154057 -0.08719724 0.23703349 0.058117867
0002d0 c1 1f a2 3d 3b 9f 71 be c5 63 69 3e a5 bc f1 bc
       0.07916213 -0.23595898 0.22791965 -0.029508898
0002e0 80 da 58 3e ed 60 16 3e cb 45 c0 be 91 a2 d1 be
       0.21177101 0.14685412 -0.37553248 -0.4094434
0002f0 7e 35 04 3e 4f f8 25 3d fd ca 7b 3e 0c cc e2 3b
       0.1291103 0.04052001 0.24589153 0.006921297
000300 d7 94 f1 bd 18 ca b7 bd d1 b8 b1 bc b3 79 3c 3d
       -0.11795967 -0.08974093 -0.021694573 0.0460145
000310 c0 97 fd bd 8a 7f bd be 0f f8 dc bd fe 30 9c bd
       -0.1238246 -0.37011367 -0.10789501 -0.07626532
000320 37 3d 6a be 6f 74 49 be 26 19 da 3c 03 88 3a ba
       -0.22874914 -0.19673322 0.02662332 -0.0007115604
000330 64 d9 34 3e eb 2a 10 be d1 a9 b4 be 27 14 a3 3e
       0.17661053 -0.14078872 -0.3528581 0.31851313
000340 59 06 37 3e 61 ab fc bd 31 6c bb 3e 2f 0e 51 be
       0.17873515 -0.123373754 0.3660598 -0.20415567
000350 da e3 33 bc 15 83 fc 3d ad 9d 1f be 93 cf 86 3d
       -0.010979617 0.123296894 -0.15587492 0.065825604
000360 55 ab df bd 35 a2 11 3e c9 67 6b 3d 49 cf c1 be
       -0.10921351 0.14222033 0.057472024 -0.3785346
000370 fb 91 f6 3d 07 b0 2b 3d d3 b2 75 bd a3 da 06 bd
       0.12039562 0.04191592 -0.059984993 -0.032923352
000380 13 a2 b1 3d 5d cb fe bc 6d e7 62 be f4 dd 0e be
       0.08673491 -0.03110283 -0.22158594 -0.13951856
000390 4d 6c 45 3e 3d dc 9e bd 67 3f 0f 3c 7c 07 53 bd
       0.19279595 -0.07756851 0.008743144 -0.05152081
0003a0 d2 54 1d be 30 8e 39 3d 6a 34 8c be b7 41 fb bb
       -0.15364388 0.045301616 -0.2738374 -0.007667746
0003b0 b5 12 46 bd 6c 95 e2 3d 07 d4 3e be 94 3f f3 bd
       -0.048357684 0.11063656 -0.1863557 -0.11877361
0003c0 ea ae c6 3d da 78 c2 3d 9e 82 0e bb 81 88 fa 3d
       0.09701331 0.09495707 -0.0021745334 0.12233067
0003d0 74 4b c4 bd ac d9 a5 3e f8 e8 4c be 34 a4 82 bd
       -0.09584704 0.32392633 -0.20010746 -0.063789755
0003e0 3d a0 a7 be 36 d4 b0 be 91 c8 9a 3d 9f dd 9b be
       -0.3273944 -0.34536904 0.07557786 -0.3044252
0003f0 da 70 5d be ac a4 7f bc 65 ae 9d be 5c 8d 6e be
       -0.2162508 -0.015603226 -0.30797115 -0.23296112

layers.1.bias f4 [2]
000000 c7 38 ec 3d c7 38 ec bd
       0.11534267 -0.11534267

layers.1.lstm.weight_ih_l0 f4 [512, 128]
000000 74 78 8d bd fc 1f 4d 3d 14 22 a7 bd 9c 2b 80 bd
       -0.0690774 0.05007933 -0.08160797 -0.06258318
000010 4f f3 23 bd 78 93 d0 bd f5 e2 28 be bc 9f 9b bc
       -0.04002696 -0.101843774 -0.16492827 -0.018997066
000020 20 43 77 bc 7e 82 16 be 20 d4 dc bd 57 a8 4c bc
       -0.015091687 -0.14698216 -0.10782647 -0.012491307
000030 39 dc ec bd 37 24 d4 bc c2 de 7b bd 50 65 a4 3c
       -0.11565442 -0.025896175 -0.061491735 0.02006784
000040 48 38 04 be 7d f4 b7 bd 4a d2 07 be 56 53 da bd
       -0.12912095 -0.08982179 -0.13263813 -0.10660426
000050 e8 16 d4 bd 18 30 bf bd 6e 4d 5e bd fd ac ba 3c
       -0.103559315 -0.09335345 -0.05427306 0.022787565
000060 f2 f0 d4 bd 39 55 c9 bd b0 52 73 bd 3e c0 b1 bb
       -0.10397519 -0.09830708 -0.05940503 -0.0054245284
000070 68 77 36 3a 7a 5b 85 bc dd 56 0f be 09 a2 8d bd
       0.0006960542 -0.016278971 -0.1399798 -0.069156714
000080 d4 82 20 bd 19 4e 91 bd e3 9c 16 bd b3 8b 7e bd
       -0.039187267 -0.07094974 -0.036770713 -0.062144946
000090 75 0e 0e be 16 fe 04 be 57 bc 41 3d 23 38 48 bd
       -0.13872702 -0.12987551 0.047298755 -0.04888166
0000a0 07 eb ae bd 46 d5 a6 bd 2a 9b 2a 3d ca 45 4a bd
       -0.08540922 -0.081461474 0.041651882 -0.049382962
0000b0 f1 d0 53 bc 1b 63 03 3d 76 94 e8 3b 03 fb e2 bd
       -0.0129282335 0.032076936 0.007097776 -0.11083033
0000c0 79 31 ab bd 36 bf c7 bd ae 5d ea bd c0 bb c9 bd
       -0.083590455 -0.097532675 -0.11443649 -0.098502636
0000d0 92 39 02 bb 71 86 0c 3d d3 61 e0 bd e3 c0 0d be
       -0.001987074 0.0343079 -0.109561585 -0.13843112
0000e0 f7 33 c4 bc ea 52 63 3c b7 fe 02 be 26 91 1b 3d
       -0.02395056 0.013874749 -0.12792479 0.03798022
0000f0 48 2d 66 bd 73 bf 24 3c e9 5a 3b bd 82 ba 22 be
       -0.056195527 0.010055411 -0.045740996 -0.1589146
000100 e7 6f 1a be 56 e4 0d be 86 e5 41 bd 0e 1d 5a 3c
       -0.1508175 -0.13856634 -0.04733803 0.013312591
000110 ab 91 88 bd bb 98 14 be 3e 10 f1 bd 08 ac 56 bd
       -0.06668409 -0.14511387 -0.11770676 -0.052410156
000120 42 61 67 bd f9 d2 8c bd d3 97 84 3c c5 65 c5 bd
       -0.056489237 -0.06876177 0.016185677 -0.096385516
000130 5e 5a 4e bd 0f f9 7d bd cb e9 9a bb 9e d1 be bd
       -0.05037915 -0.0620051 -0.0047275773 -0.09317325
000140 e4 29 09 be 40 5a 26 be 38 3c e1 bd d8 33 02 bd
       -0.13394886 -0.16245365 -0.10997814 -0.031787723
000150 63 ee fe 3b 7e 10 97 bd 17 df 26 be ea c8 1c bd
       0.0077798828 -0.073761925 -0.1629604 -0.038277544
000160 01 a5 8e bd c9 5d fa bd b9 d7 00 bd 92 3c e4 ba
       -0.06965066 -0.12224919 -0.03145573 -0.0017413071
000170 0c 30 9f bc ac 8c 93 3d ba 4a ab bd 59 11 ee bd
       -0.01943209 0.072045654 -0.08363862 -0.116244026
000180 3e 5b b5 3c f3 c1 10 be 69 ba 47 bc 59 fe 61 bd
       0.022138234 -0.14136486 -0.01219044 -0.055174205
000190 bc 5c f8 bc c5 09 91 bd f9 a5 cf bd 8b 01 92 bd
       -0.030317657 -0.070819415 -0.10139079 -0.071292005
0001a0 00 25 88 bc 10 6a 82 bc fd f6 70 3c e9 2d c3 bd
       -0.016619205 -0.015919715 0.014707324 -0.09530241
0001b0 ae 4f b6 bd bc d3 0a be be 88 ea bd 7a ef 05 be
       -0.089019164 -0.13557333 -0.11451863 -0.13079634
0001c0 cd 37 54 bd 82 c3 53 bd 72 ec 93 bd 25 3d c6 bd
       -0.05181103 -0.051700123 -0.07222833 -0.09679631
0001d0 69 70 b6 bd 9f 4b 3e bd b5 d1 35 bd 7b af 6f bd
       -0.08908159 -0.046458837 -0.044389445 -0.05851696
0001e0 58 fe f5 bd 74 3b 24 3c 2a 9e 5d bd 42 f5 86 bc
       -0.12011403 0.01002394 -0.054105915 -0.01647437
0001f0 59 4e d7 bc b6 04 24 bd 64 ae 1d be e8 cc 16 bd
       -0.026282476 -0.040043555 -0.15398556 -0.036816508
000200 58 c5 89 bd 42 b4 a0 bd 42 45 e5 3d 7b e3 0b be
       -0.067270935 -0.078468814 0.111948505 -0.13660996
000210 73 9f 69 3d 40 11 a7 3d 95 94 80 bd 18 a1 ff bc
       0.05703683 0.08157587 -0.0627834 -0.031204745
000220 59 68 66 bd df 05 9d 3a ab 1f ee bd ec 7f 2f 3d
       -0.056251857 0.0011979899 -0.11627134 0.042846605
000230 7b 69 35 bd 21 cc f3 bc d2 2b 2f bd a5 93 7b 3d
       -0.044290047 -0.029760422 -0.0427664 0.0614201
000240 fd 0e dd bd 4a 9a bb 3d a3 aa 14 be fc 1a 1d bd
       -0.107938744 0.09160288 -0.14518218 -0.038355812
000250 bc e8 91 bd 71 62 87 bd f1 a2 8a bb 29 12 f5 bd
       -0.07124469 -0.06610573 -0.00423085 -0.119663544
000260 dc da 47 bd 42 41 01 be 9f 82 80 bd c2 c4 b1 bd
       -0.048792705 -0.1262255 -0.06274914 -0.08680107
000270 5e 5a fd ba cc 5b 67 bd e5 11 c9 bc 9e 6b 28 3c
       -0.00193293 -0.05648403 -0.024544666 0.010279564
000280 a1 ac 3d 3d 7b 96 ea 3c b2 e9 a5 bd 1c 8e 9a bd
       0.04630721 0.028636208 -0.081012145 -0.075466365
000290 73 71 b6 bc bb 67 9d bd 00 e3 b6 3c 47 8e 0c 3c
       -0.022270894 -0.07685801 0.022325039 0.008578843
0002a0 4c c4 1a 3c 3f 48 22 be ea 25 1b bd cf 52 a3 3d
       0.009446215 -0.15847872 -0.037877955 0.07974779
0002b0 66 fb 7f bd c1 e5 d6 bd 45 ad 3b bd 91 12 f3 bc
       -0.06249561 -0.10493041 -0.04581954 -0.02967194
0002c0 60 ff 5b bb 86 87 ee bb 71 fb 6a bd 12 76 95 3b
       -0.0033568963 -0.0072793392 -0.0573687 0.004561194
0002d0 14 24 01 bd 7a f6 b1 bd bd 62 b1 bd c1 e3 8c bd
       -0.031528547 -0.0868959 -0.08661411 -0.06879378
0002e0 91 56 97 bd 92 6d 33 bd a3 5c 46 3d df 3e 0d 3d
       -0.07389558 -0.043805666 0.04842819 0.034483787
0002f0 d0 a8 2f 3d fc 72 a3 bd ec 6f b1 bd 20 b5 32 bd
       0.0428856 -0.07980916 -0.086639255 -0.043629766
000300 45 ba 78 bd 45 f1 36 3d 6b 62 d9 bd 8c 29 98 3c
       -0.060724515 0.044663686 -0.10614475 0.018574499
000310 47 d1 ee 3c 8c 16 2e 3d 24 eb 74 bd 39 74 6f bd
       0.029152526 0.04250197 -0.05979456 -0.058460448
000320 5f e3 3a bd c6 5f a5 3c 07 c4 28 bd 55 f5 1c 3b
       -0.045626994 0.02018727 -0.04120257 0.002394994
000330 9a cd d9 3c c9 0b e1 bc c0 9e 85 bd 09 e1 76 bd
       0.026587296 -0.02747144 -0.0652442 -0.060273204
000340 72 f7 4f bd 95 5f f8 bc 50 d0 de bc 2a ec a7 bd
       -0.05077309 -0.030319015 -0.02719894 -0.081993416
000350 cf 86 68 3d 81 1c 9e bd 7a 6d 35 bc 49 f5 44 bd
       0.05676919 -0.077202804 -0.0110734645 -0.048085485
000360 2e 0a e0 bd ff 7c df bd 28 17 f1 bb 01 fe 0c 3d
       -0.109394416 -0.10912513 -0.007357497 0.034421925
000370 86 d7 90 3d a4 3d b7 ba 15 46 b4 bb 55 d3 f8 3c
       0.07072358 -0.0013980162 -0.0055015185 0.030374208
000380 42 d1 aa 3d da c5 33 bc 81 bb 7c 3c 06 40 7a bd
       0.08340694 -0.010972464 0.015425564 -0.061096214
000390 9e 6e bb bc a2 ef 8a bc b7 13 17 bd b6 f7 06 3e
       -0.022879895 -0.016959969 -0.036884036 0.13180432
0003a0 34 08 45 bd 98 6a 4d 3c c6 c3 3d 3d 79 56 a7 3d
       -0.048103526 0.012537621 0.046329282 0.0817079
0003b0 6b c1 ce bd c2 b9 43 3c 03 13 11 be ef 6a 29 3a
       -0.10095485 0.011946144 -0.14167409 0.0006462773
0003c0 46 9d b7 bc 8e 8e 85 bd be c1 ac bd 61 c5 18 bd
       -0.022413861 -0.06521331 -0.08435391 -0.03729761
0003d0 0e 27 13 bd c3 ee 24 3d 13 50 92 ba 64 d5 68 3d
       -0.035925917 0.040266763 -0.001116278 0.05684413
0003e0 06 8a 73 bd d5 61 77 3c db 97 e7 3c 59 7a ba bc
       -0.0594578 0.015099009 0.028270653 -0.022763418
0003f0 02 fc 83 bd 2a b3 52 3c 11 d2 a9 bd b2 67 36 3d
       -0.06444551 0.012860099 -0.0829202 0.044532485
