airline/model.pt (torch, 13651 bytes, 10 tensors)

layers.0.bias f4 [24]
00000000: 7be3 42be 06e5 f73f 47f3 463f 42a0 fa3f
00000010: 15a3 35be 3a66 28bd c4b1 0940 2647 d23f
00000020: 9e13 5bbd 9a7e e7bf 0ba9 8e3e 237b 23be
00000030: b3c3 24be 876f 9fbd ecf7 20be 0000 0000
00000040: d4dd efbf 169b 0040 8714 4fbe 3815 1ac0
00000050: 9fb3 0c3d 451b f93e f0a5 b6bf ef13 073f
-0.1903209 1.9366767 0.7771496 1.9580157 -0.17737992 -0.041113116 2.151475 1.6427963
-0.053485505 -1.8085511 0.27863345 -0.15964942 -0.16090278 -0.07784944 -0.15719575 0.0
-1.8739572 2.0094657 -0.20222674 -2.407545 0.034350988 0.48653618 -1.426939 0.5276479

layers.0.fc_pool.weight f4 [24, 24]
00000000: 9655 853e 7120 203d c644 853d 7aeb 29be
00000010: f988 bbbd dad1 79be ed45 cfbd 8867 80bd
00000020: 9549 9ebe 0cfa c3be 0f36 253d 9f0a 84be
00000030: 7df7 373e dc8a f23c 42ef 033e 7f68 a2be
00000040: 192d e03b 7a05 c03d e1d5 a7bd bc73 9c3e
00000050: ecfe 3fbf 2a1a fbbd 3970 dfbd 03bf 263d
00000060: cc90 81be 7904 84be 912b 0abe 67f6 96bc
00000070: dc07 d6bc de91 88bd 25a8 22be 32e7 743d
00000080: c55c d5bd 6d22 88bd 5742 d03c 0d94 0dbe
00000090: f490 50bd 2393 8fbd d70d e73c ed48 d0bd
000000a0: 9b5e c0bd c5a1 2dbe 9449 c13e 51bf d33e
000000b0: c07e 813f 0528 693e a688 8d3f 1324 813f
000000c0: eb14 15be d347 b1be 75db 02bf 9fbe 88be
000000d0: 1b18 a93e 3622 97be a25b a7bb 2cf9 2fbe
000000e0: c616 a1be 8576 1cbf b1b1 0abf 0014 903e
000000f0: fa4a 1f3e 3a71 0bbf 6029 01be dec7 d5be
00000100: fdb7 04be e07d 0fbe ed0b 08bf e490 c9bc
00000110: 439b d73e 8e7b 01bf fc87 25bd 5c7a 513d
00000120: d780 d8bc f87e 1dbe d34c 0ebf dc83 3f3e
00000130: 0177 80bd 42a1 ff3b 8a9d 5a3d f230 04be
00000140: 1a71 5e3d 7350 00bf ad3b e1be 6c94 cebe
00000150: 570b 0cbf 1d98 03bd 1f92 e7be 438e 213e
00000160: 0265 e9be 3274 d9be 1481 30bd 9cb0 35bd
00000170: 932b 3e3e f32c 273e ed1c 783e a60e 8a3e
00000180: c658 46be 86e0 c8be a758 c0be 8cdc 913d
00000190: 8300 5cbe c503 56be e565 903e e10f 1fbd
000001a0: 5550 8b3c 20d9 d7be fc82 70be 7b6f 9bbc
000001b0: b365 f3bd 072f 3a3e d4b0 42be 406e b4be
000001c0: d99f 8abe 9bfb a0be 26cd f1be 7f92 e6be
000001d0: a0e9 efbe b71e a5be 5e4e 91bd a764 683d
000001e0: 1921 eebe 8846 9fbe a75e bcbd 99bf 193e
000001f0: b44b 563e ff8b b8be 5052 e9bd 23d6 8fbd
00000200: 94c7 f3be d302 01bf abc0 d1be d201 f8ba
00000210: 09df f4bd 3c16 c6bd e9e0 61bd e024 98be
00000220: b399 723e 2437 e0bd 7f48 1ebd 427a cb3d
00000230: f617 6a3d 431b 3fbe f24d 85be 4bfe b43a
00000240: d705 893e 0505 9fbd 3bab a13e daa2 ca3d
00000250: 1905 92be 2d9c 11bf f077 e4be 9e48 afbe
00000260: 2ebf 00bf c4a8 ac3d 1392 94be 5137 89be
00000270: e8e8 9ebe 0390 7e3d 7bc4 03bf 5da8 f5bb
00000280: 12c5 fb3d b7f9 03bc 15a3 d1bd 8651 01bf
00000290: 33b6 e8be cae3 08bf 72f7 05bf e7a8 77be
000002a0: dea6 eebe 8186 3ebe e9b3 76be 9d5f 32be
000002b0: ecc5 77be bacf a43e 05d7 64be c0cc bf3d
000002c0: 9e43 923d 5949 67be ad0c c3be 090c 0dbf
000002d0: 6fc8 f1bd 3553 16bc 1806 73be 86cb 0d3e
000002e0: 98ee 9dbe 0658 5ebe ec8c b2bd d88a 9cbe
000002f0: 4bd3 edbd b215 c2bd 95f8 843e d641 293d
00000300: e888 41be 91d5 c73e 4e49 38be 00f3 af3e
00000310: e3d2 d3be d6f6 eebe 881c c6be 526f e13d
00000320: 655b 80be fbac b2be 0be0 84be 93cf b53e
00000330: d52b c1be c2c4 21be d406 fdbe e563 30be
00000340: 10b1 21bd 263d e5be b32e 83be 138d 353e
00000350: 44a3 ccbd 68a3 d13d 3014 403e ed09 81bd
00000360: d032 8ebe e0b6 06be 11be 22bc 4b29 e73d
00000370: 2c4c c3be 1ade a93d 1e08 89be d8d1 fabe
00000380: 8b77 83be bfb0 5f3c 800f 813d 7404 babe
00000390: c95b ef3b f9cb 45be 97a4 54be 0207 99bd
000003a0: 5530 16be 67b5 5a3e aeda ebbd 3d29 163e
000003b0: 70d4 f93e 6827 ffbe 9ea3 b73d 1d13 983e
000003c0: 1aea e0be 033a c93e 6151 56be cc3b 1c3e
000003d0: 8aeb dabe 8cd5 5abe 43dd 54bd 5ad3 71be
000003e0: 48d3 6bbe 9a85 e8bd 0729 75bd 3085 6e3d
000003f0: d3e8 bbbe b5d4 8abd eafc 8ebe bddb 85bd
0.2604186 0.03909344 0.06507258 -0.16593733 -0.09156985 -0.24396458 -0.10120759 -0.06269747
-0.30915514 -0.38276708 0.040334757 -0.25789353 0.17965503 0.029607229 0.12884238 -0.3172035
0.0068413136 0.093760446 -0.08195091 0.30557048 -0.74998355 -0.1226085 -0.10910077 0.040709507
-0.25305784 -0.25784662 -0.13493182 -0.01842804 -0.026126795 -0.06668447 -0.15884455 0.059790798
-0.10418085 -0.06647191 0.025422258 -0.13826008 -0.050919488 -0.07010486 0.028204842 -0.101701595
-0.093930446 -0.16956241 0.37751448 0.413569 1.0116806 0.22769172 1.1057327 1.0089134
-0.14558761 -0.3462511 -0.51116115 -0.26707932 0.33026204 -0.29518288 -0.005107359 -0.17184895
-0.31462687 -0.61118346 -0.54177386 0.2814026 0.15555945 -0.54469645 -0.1261344 -0.4175405
-0.12960811 -0.14012861 -0.531432 -0.024605222 0.42110643 -0.50579154 -0.040412888 0.05114208
-0.026428623 -0.15380466 -0.55585974 0.18702644 -0.06272698 0.007801206 0.053372897 -0.12909296
0.05430708 -0.50122756 -0.43990842 -0.40347612 -0.54704803 -0.03212749 -0.4522867 0.15776925
-0.45584875 -0.42471462 -0.04309185 -0.04435788 0.1857131 0.1632574 0.24229784 0.269643
-0.19369802 -0.39233798 -0.37567636 0.07122144 -0.2148457 -0.20899875 0.2820274 -0.038833503
0.017006079 -0.4215784 -0.23487467 -0.018974056 -0.11884632 0.18182002 -0.19012767 -0.35240364
-0.2707508 -0.3144196 -0.47226828 -0.45033643 -0.4685793 -0.32249996 -0.070950255 0.056736615
-0.46509627 -0.311085 -0.09197741 0.15014495 0.20927316 -0.3604431 -0.11392653 -0.07023265
-0.47613204 -0.50394934 -0.40967306 -0.0018921441 -0.11956603 -0.096722096 -0.05514613 -0.29715633
0.23691444 -0.10948017 -0.038643356 0.09935428 0.057151757 -0.18662743 -0.2603603 0.0013808695
0.26762268 -0.07764629 0.3157595 0.09894343 -0.28519514 -0.5687893 -0.44622755 -0.3423509
-0.5029172 0.08430627 -0.29017696 -0.26800016 -0.31037068 0.06214906 -0.5147168 -0.007496877
0.122934476 -0.008055142 -0.102361836 -0.5051502 -0.45451507 -0.5347258 -0.52330697 -0.24185525
-0.46611685 -0.18605997 -0.24092068 -0.17419286 -0.24196595 0.32189733 -0.22347648 0.09365225
0.07141803 -0.22586574 -0.38095608 -0.5509649 -0.11805808 -0.009175112 -0.23732793 0.1384717
-0.30846095 -0.21713266 -0.08718285 -0.3057468 -0.116125666 -0.09476794 0.25970903 0.04132255
-0.18899882 0.39030126 -0.17996714 0.34365082 -0.4137183 -0.46672696 -0.38693643 0.11007561
-0.25069728 -0.348976 -0.2595218 0.3550993 -0.37728754 -0.15797713 -0.49419272 -0.17225607
-0.0394755 -0.44773215 -0.25621566 0.17729597 -0.09992078 0.102362454 0.18757701 -0.06300721
-0.27773142 -0.13155699 -0.009933011 0.11287173 -0.38144052 0.08294316 -0.26764005 -0.48988223
-0.25677142 0.013652979 0.063017845 -0.36331522 0.007304643 -0.1931609 -0.20765911 -0.0747204
-0.14666875 0.21358262 -0.11516319 0.14664169 0.4879489 -0.49834752 0.089667544 0.29702082
-0.43928605 0.39302072 -0.20929481 0.15257186 -0.42757827 -0.21370524 -0.051968824 -0.2361578
-0.23029816 -0.113536075 -0.05985358 0.058232486 -0.36701068 -0.06778852 -0.27927333 -0.065360524

layers.0.fc_pool.bias f4 [24]
00000000: 9cc8 4e3e cfbc 8c3f cdb4 8abe 68e2 263d
00000010: cbb8 83be 3e38 50bc 0611 10bd b98c ad3d
00000020: 1b2a 3bbe 52bc cdbc ce89 6ebe c8fc d03d
00000030: 0d18 8c3f 5791 a23d 80c1 4f3f 62d3 b6be
00000040: c6a0 c8bd a761 66be d9cf e1bd 55ec 4a3d
00000050: 64dc 203f 6733 e2bc 35e8 0040 ec6f aabd
0.20193714 1.099512 -0.27091065 0.04074326 -0.25726923 -0.012708722 -0.035172485 0.08474106
-0.1827778 -0.025114212 -0.23294756 0.10204464 1.094484 0.079378776 0.8115463 -0.35708147
-0.0979629 -0.22498189 -0.11025972 0.04954179 0.6283629 -0.027612401 2.0141728 -0.08322129

layers.0.fc_self.weight f4 [24, 24]
00000000: 02ef 16bf b3c5 743e 1769 bcbe f1ae 9c3e
00000010: 2dc3 6abe ba7e c13e 0d3f 17bf 1630 a0be
00000020: ed75 86be 2e2a 403d 8b46 a2be 26e9 eebe
00000030: 8ee5 333d 7203 9d3e 0f3d 25be b3a2 c2bb
00000040: 378f d73d 6fe7 39bb 2d6c 00be 1ae9 a13e
00000050: 6a6b 1dbe 70f8 eebc 7c3c a73e d2db 03bf
00000060: 6f23 f33c 695f 65bf c3ce 41bf fd88 85bf
00000070: 9333 d83d 9c7e f5bd b295 48bd 6bf9 e5bd
00000080: e9d7 4fbe 61dd 073d 9c78 9e3d 7fa8 9a3e
00000090: 6016 3fbe ecfb bb3d 36c7 d93d 74ba 3fbe
000000a0: ba75 1a3e fb0b a03e bb8f bfbf a55c 0b40
000000b0: f486 0f3f 9ce2 47c0 85fa 173f ceed 9d3e
000000c0: dfe2 25be 1146 e73e 00ab 353e 1c98 f6bf
000000d0: 3671 3c3c 2b16 3e3c b219 ea3f 2b33 1c3c
000000e0: dded 5bbd ff42 a43d 270c dfbc e746 fe3c
000000f0: 749c 31be 26a1 98bd a81e eb3c 3a24 653e
00000100: 6ddd cc3c 5bf6 c3be 3772 3a3e 9f86 d2c0
00000110: c132 17bf 3e56 73bd 29fd 9bbe b8c7 91be
00000120: 8551 8ebe 5d85 89bf a991 543d e5a7 edbf
00000130: 093b f13e be38 e23e a79f 133f 6fe5 3abe
00000140: 0827 cebb 45e5 623d fc62 a83d 26b3 0dbe
00000150: 527a d83a 10c6 56bd 5f63 723d 9851 503e
00000160: adf3 d43c c279 0abf 8453 55bf c547 0440
00000170: 3a54 0840 f8e7 0dbf 8af0 b73d 7b88 1b3d
00000180: deb2 143e 844d 5cbf 1ae3 dbbe 4b95 733d
00000190: efc6 ccbe 2bf1 c5be 01f4 00bf 3dad 97be
000001a0: fb13 1fbf 990b eabe 9e27 2abf e0b0 9abd
000001b0: 2700 173e 0f04 26bf c467 1b3d d0aa 703e
000001c0: d849 5e3e 3404 2a3e 3a2e a0bd eb73 843d
000001d0: 5988 4f3f f1dd 40bf f535 86bf d69e 973e
000001e0: ff81 32be 0cee 7ebe 023d c93c c40f bbbe
000001f0: f0d6 073e 4377 8a3d bb3f bd3d e4bf c6be
00000200: 5d9a ba3e 15ae 66bc a54c d6be 44de fcbd
00000210: 55c2 853e 20c9 533e b767 f0be b8c9 a5be
00000220: b330 aebd 6f65 f9be ed86 ed3e cfaa 8a3e
00000230: 23e4 acbd c807 88be 1829 e8be 5d5b c9be
00000240: 5c67 8cbe 632f 15bf 694b 5bbe 2077 353f
00000250: 5995 553e b218 983e 4133 c93d e26f 46bd
00000260: 7ced 0ebf f268 22bf 648d ae3e 1cfb ab3e
00000270: 0683 483e 2dd7 05be 1a94 eb3b ec2a 3abf
00000280: 07b1 9abe 2b9c 983e 970f ec3d 948d a1bf
00000290: 5817 08bf b94c 76bf 0f67 a7be 53e3 843e
000002a0: 6049 933e d30c ee3e af19 c9bd f72e ae3d
000002b0: e90f a2bd b31e 82bd fd89 7cbe a683 14be
000002c0: 4a95 d43c 7582 43be 0758 70bd f836 3f3e
000002d0: f8c3 5cbe b56f 9ebe b277 73be b8c6 0cbe
000002e0: b654 a1be a771 183f 94c6 573f 0895 503f
000002f0: f5ec 1340 afc2 993e 02e5 44be 62f6 c038
00000300: c90f 63be 6970 bc3e f14a 3bbe 65d6 95be
00000310: caa4 2abf c82a 57bd 88c8 4e3e 5abb febc
00000320: 003d 153d 04d0 10bf 7436 0dbf bee5 b6be
00000330: 4884 98be 7432 573e 8ac3 cebe 2f32 f2be
00000340: fe06 8fbd c779 dc3e 5f5d 9bbe 3417 99be
00000350: a0f4 e5be 79d8 e0be 3868 4fbd 2429 00be
00000360: 34ca da3e b4b8 a93d a719 e8bd 9b05 aa3f
00000370: e41f 3e3e 7980 a8bd d222 793e 019b 27bd
00000380: 51bf 463f 94a4 d63c b91e e83d 27a6 0dbe
00000390: 632d 76be 1c42 c3bf d566 733e 77d0 153e
000003a0: 170e 69bd cb17 0dbf 3758 cbbe 3134 90bf
000003b0: 7b40 90bf 121c 3ebe 743b 7cbe f3bf 453c
000003c0: 4a64 2fbe e130 713d 4da5 01bd 189f 6ac1
000003d0: b53c 1b3f fa42 a3c0 1f72 a83f 3cf9 d6be
000003e0: bb5a b6be ee13 c93e fb4f 9dbe 9a02 3b3e
000003f0: e6e9 bfbe 8044 50bf e385 e93e 5313 45be
-0.58958447 0.23903541 -0.36798927 0.3060222 -0.22926016 0.37791997 -0.5908058 -0.31286687
-0.26261845 0.046915226 -0.31694445 -0.46662253 0.043920092 0.3066669 -0.16136573 -0.0059398054
0.10525363 -0.0028366705 -0.12541266 0.31623155 -0.15373006 -0.029171199 0.32663333 -0.51507294
0.029679982 -0.8959871 -0.7570612 -1.043243 0.10556712 -0.119870394 -0.048970886 -0.11229213
-0.20297207 0.033170108 0.07737848 0.30206677 -0.18660879 0.0917891 0.106336996 -0.1872347
0.15083972 0.3125914 -1.4965738 2.1775296 0.560653 -3.1232061 0.5936664 0.30845493
-0.16199826 0.45170644 0.17741013 -1.926517 0.011501601 0.011601965 1.8289092 0.009533684
-0.05369364 0.08020591 -0.027227474 0.031039668 -0.17344838 -0.074526116 0.028701141 0.223771
0.025007928 -0.38273892 0.18207632 -6.5789332 -0.5906182 -0.05940842 -0.30466583 -0.28472686
-0.2779657 -1.0743824 0.051896725 -1.8566862 0.47115353 0.44183916 0.57665485 -0.18251584
-0.006291274 0.05539443 0.08222005 -0.13837871 0.0016515946 -0.05243498 0.0591768 0.20343626
0.0259951 -0.5409204 -0.8333056 2.0668805 2.1301408 -0.5543208 0.08981426 0.037971955
0.14521357 -0.8605578 -0.42946702 0.05946855 -0.39995524 -0.3866056 -0.5037232 -0.29624358
-0.6213986 -0.45711973 -0.664667 -0.075532675 0.14746152 -0.6484994 0.037940755 0.2350266
0.21707857 0.16603166 -0.07821317 0.06467422 0.81067425 -0.75338656 -1.0485216 0.2961337
-0.17432402 -0.24895495 0.024565224 -0.36535466 0.13265586 0.067610286 0.09240671 -0.38818276
0.36445895 -0.01407959 -0.4185535 -0.12347081 0.26124826 0.20682192 -0.46954128 -0.32380462
-0.085053824 -0.487102 0.46392003 0.27083442 -0.08441951 -0.26568437 -0.45343852 -0.39327517
-0.27422607 -0.5827543 -0.21415485 0.70884895 0.20857753 0.2970634 0.09824229 -0.048446544
-0.5583112 -0.63441384 0.34092247 0.3359002 0.19581231 -0.13070364 0.007189286 -0.72721744
-0.30213186 0.29806647 0.11526411 -1.2621331 -0.5316062 -0.9621082 -0.32695815 0.25954685
0.28766918 0.4649416 -0.09819352 0.085050516 -0.07913191 -0.06353512 -0.24662013 -0.14503345
0.025950093 -0.19092734 -0.0586777 0.18673313 -0.21559131 -0.309446 -0.23776129 -0.1374768
-0.31509942 0.5954842 0.8428738 0.81477404 2.3113377 0.30031344 -0.19227985 9.201166e-05
-0.2217399 0.36804512 -0.18290307 -0.29265133 -0.666577 -0.052531034 0.20193684 -0.031095196
0.036435127 -0.56567407 -0.55161214 -0.35722154 -0.29788423 0.2101534 -0.4038356 -0.47303912
-0.069837555 0.4306166 -0.30344674 -0.29900515 -0.44913197 -0.43915156 -0.0506365 -0.12515694
0.42732394 0.082871825 -0.11333018 1.3282961 0.18566853 -0.08227629 0.24329689 -0.040919308
0.77635676 0.026201524 0.11333985 -0.13832913 -0.24040751 -1.525455 0.23769696 0.14630304
-0.056898203 -0.5511443 -0.3971574 -1.1265928 -1.1269678 -0.18565395 -0.24632055 0.01206969
-0.17128101 0.058884505 -0.031651784 -14.663841 0.60639507 -5.101926 1.3159827 -0.41987026
-0.35616097 0.39273018 -0.30725083 0.18262711 -0.37483138 -0.8135452 0.4560996 -0.19245653

layers.0.fc_neigh.weight f4 [24, 24]
00000000: 1412 4bbe 0a90 fcbe 356d d8be f15c 04bf
00000010: 7e61 8ebe 5dcb 143e 9ad8 213e cb60 aebd
00000020: 6b6e 5a3e cccb 21bf 2023 733e bbe2 743e
00000030: 03ff 913e d0f5 f6be 3674 49be 2de4 b0be
00000040: 308b e53c 8c86 c0be 71c1 84be f322 e9bd
00000050: 2ce5 e7be ef8e 523e 546a fc3d 0fd7 cbbe
00000060: b57e 08be 9f27 8c3e 8f1b dc3d 0a5f 29bc
00000070: 1414 333e 7079 52be c2ff 2e3e d75f c13e
00000080: 173a a6be 682c b0bc 0cd7 d6be 8d5f 023f
00000090: 92c7 133e e264 d6bd 8520 c5bb 1726 6f3e
000000a0: 0e8b 673d cd7a 6d3e 05bb 333e bb0d 46be
000000b0: 9160 773e 767c 73be c304 433f 7a50 4f3e
000000c0: 0d91 58be 8327 d1bd 70e0 1f3f 6131 01be
000000d0: 9de1 a73e 554e d5be 925d 9ebe 6077 193d
000000e0: c189 8e3e ed38 aa3e 91e5 563e 463b 583e
000000f0: 82e7 0cbe 85f8 4abd 2423 77bd d2d2 e33e
00000100: ac26 9cbe 9492 de3d aeda 0b3e c0e0 80be
00000110: c953 b5bd b387 9b3e 81ad 31be b206 8b3e
00000120: 36ea 863d 3582 d53d b43f 6cbe a3a9 923d
00000130: 189c e93e 81c6 d53e 1465 c4be d7b4 0fbd
00000140: 5c7d 813c dffc a73d 8b1b 8fbe 382f 12bd
00000150: 4645 663e 7953 c6bd 0511 883d 2210 5abe
00000160: 3d30 8a3e 3a21 95be b20f 21be f241 0c3d
00000170: b6af 843c 5c8e 2a3e c051 eb3e 00b3 0b3e
00000180: 7cc4 0cbf ab56 d33d 55a8 cf3e 11b5 003f
00000190: 89d7 edbe 7b9c 2d3e 37d8 f83d 94f4 95bc
000001a0: c23f 5ebe 5c85 5abd 8a4c 88be 48f0 04be
000001b0: 5d92 9cbe 6912 debe e455 2a3d e2a5 953e
000001c0: 5b94 07be 48e6 843d 697f b8bd 5959 07be
000001d0: 8bc9 8cbe 6650 3abd 887a 6abc 5358 893d
000001e0: 7e23 b5be cf9a 04be a765 a43e eed3 273e
000001f0: ee5f 95be ace0 843e ddeb c6be 943c 993e
00000200: 00b7 5c3c abe0 eabd 5a21 e83e f455 f2be
00000210: 050b 5fbd 3922 af3e a891 72be f121 703e
00000220: 3af2 693e 9a00 c0be a56d 833d d39f 883e
00000230: ee07 2bbe 86c8 af3e 6235 9ebe f60a fabc
00000240: b552 f2be 8042 b53c 47df 133e a471 3b3e
00000250: 49ff e9be 6e09 b13e 2184 7d3e 8179 c33e
00000260: 3c3a a5bd 03a0 e83b 858a 413e 5ff2 d9be
00000270: 1339 4b3e dd17 98bd 13dc 083e 475a b73d
00000280: 444c c0be c959 b13d ce45 8abd 6920 9d3d
00000290: 2bef 863d feb7 c7be b6f5 d73e 419d f53e
000002a0: 234f 41bd 0e14 0ebe 7479 1a3e addc a43e
000002b0: ebd1 69be a917 2e3e 7f07 c2be 73a8 cc3e
000002c0: 8929 4dbe 13ef 58be 3db6 d9bd f250 963d
000002d0: fc00 efbd 8fb9 063e 8b40 e53c 002b 823d
000002e0: a000 cbbd 6088 80be f180 22be 589c 8ebd
000002f0: f53c 273d e795 a23e 1cf7 f83d 8f60 b53e
00000300: a975 04bf ed42 0a3e 5200 863e 7fd6 cf3e
00000310: 4a56 d83e af07 e93d 9bdc 8e3e 782a db3e
00000320: 3864 e33e b488 c2bc 5b1c b63b 1fec 5abe
00000330: 9b2e 563e 97fc 4b3d 7efa 09be 6fe5 56be
00000340: cd17 b73e b13c 513e 3df6 86be e2e1 7abe
00000350: 468b 093e 7587 863e 69b4 57bd 360b 9d3e
00000360: 9170 043e b369 b1bd 1c83 813d 0037 1a3e
00000370: 3c7a 10be bfd2 483d f5f3 fdbe 25d0 783e
00000380: d1c5 d5be f900 5a3e 1200 e53e 8926 b6be
00000390: b286 9fbd 519d 603b 5b76 05bd dc1c 1cbe
000003a0: 8af0 e6bd 03e3 a3bd ec43 0f3e cc1a 4bbd
000003b0: ab6d 4ebe 081a 33be 833b 3dbe ee1a 643e
000003c0: 9865 79be e435 9d3e 4151 fe3c bf62 97bd
000003d0: 7305 9b3e ceaf aabd 9ebb 633e 984e 8bbd
000003e0: 4620 92be c979 6d3e 3b2e acbe 4364 243d
000003f0: b48e ae3e 0b25 a33e 97c0 5c3e 4b23 f13e
-0.19831115 -0.49328643 -0.42270818 -0.5170432 -0.27808756 0.14530702 0.15805283 -0.085145555
0.21331184 -0.63201594 0.23743868 0.23914616 0.2851487 -0.48234415 -0.19673237 -0.34549084
0.028020471 -0.3760265 -0.25928834 -0.11383619 -0.45292032 0.20562337 0.12324968 -0.39812514
-0.13329585 0.27373978 0.10747444 -0.0103376005 0.17488128 -0.20554137 0.17089751 0.37768432
-0.32466194 -0.02150555 -0.41960943 0.5092705 0.14431599 -0.104684606 -0.0060158395 0.23354374
0.056529097 0.23191376 0.17551811 -0.19341175 0.24157931 -0.23777947 0.7617914 0.20245543
-0.21149082 -0.102126144 0.6245184 -0.12616493 0.32789317 -0.41661325 -0.30930763 0.03746736
0.27839473 0.33246556 0.2098601 0.21116361 -0.13760188 -0.049553413 -0.060336247 0.4449678
-0.30498254 0.10867801 0.13657638 -0.2517147 -0.088538714 0.30376968 -0.17351343 0.27153546
0.06587641 0.10425226 -0.23071176 0.07161262 0.45626903 0.4175301 -0.38358366 -0.03508457
0.015806846 0.08202528 -0.279507 -0.035689563 0.22487363 -0.0968389 0.06643871 -0.21295217
0.26989928 -0.29126912 -0.15728644 0.034242578 0.016197067 0.16655868 0.45960808 0.13642502
-0.5498731 0.10319265 0.40558115 0.50276285 -0.46453503 0.16954224 0.12150615 -0.0183051
-0.21704009 -0.053349838 -0.26620895 -0.12982285 -0.30580416 -0.4337342 0.041585818 0.2922812
-0.13240187 0.06489235 -0.090086766 -0.13217677 -0.27497515 -0.04548683 -0.01431144 0.067063
-0.3537864 -0.1294968 0.32108805 0.16389439 -0.2917475 0.2595266 -0.38851824 0.2992903
0.013471365 -0.11468633 0.45337945 -0.47331202 -0.05445387 0.34205797 -0.23688376 0.23450448
0.22846308 -0.3750046 0.064173974 0.26684436 -0.16702244 0.34332675 -0.30900103 -0.030522805
-0.47328725 0.022126436 0.14440642 0.18305069 -0.4570258 0.34577507 0.24757434 0.38178638
-0.08067748 0.007099153 0.18900497 -0.42567727 0.19845991 -0.074264266 0.13365202 0.08952766
-0.37558186 0.08659703 -0.067515954 0.07672197 0.065885864 -0.39007562 0.4217965 0.47971538
-0.04719461 -0.13874838 0.15085393 0.32199612 -0.22833984 0.17001213 -0.37896344 0.39972267
-0.20035376 -0.2118495 -0.10630462 0.07339658 -0.1167011 0.13156722 0.027984878 0.06355858
-0.099122286 -0.25104046 -0.158695 -0.06963414 0.040829618 0.3175499 0.121565074 0.3542523
-0.51742035 0.13502093 0.2617212 0.40593335 0.42253333 0.11378419 0.27902684 0.4280584
0.44412398 -0.023746826 0.0055575795 -0.21379136 0.20916216 0.049801435 -0.13474461 -0.2098596
0.35760346 0.20433308 -0.2635974 -0.2450023 0.13432035 0.2627522 -0.052662287 0.30672616
0.12933566 -0.08662739 0.06323835 0.15060043 -0.14109129 0.049029108 -0.49600187 0.24298151
-0.41752484 0.21289434 0.44726616 -0.35576275 -0.07789363 0.0034273455 -0.032583576 -0.15245384
-0.11276348 -0.080022834 0.13990754 -0.049586102 -0.20159023 -0.17490399 -0.18479733 0.22275898
-0.24355161 0.30705178 0.031044604 -0.07391881 0.30277595 -0.08334313 0.22239539 -0.068021
-0.28540248 0.23190989 -0.3362902 0.04013468 0.3409325 0.318642 0.21557842 0.4709724

layers.1.bias f4 [2]
00000000: bd62 9bbe f962 9b3e
-0.3034877 0.30348948

layers.1.fc_pool.weight f4 [24, 24]
00000000: 9ede a7bd 5435 113e d4a9 e0be b5a0 333c
00000010: ac17 b73d 6bc6 02bf 9aba 93be 73ad 4dbf
00000020: 476a 35be b3e3 e5be 86b7 183e aa0c 2ebe
00000030: 88f1 483e 2150 4a3e 330a ad3e 40df 893d
00000040: eec3 9ebe b731 32bf d813 8a3e 3dcf 043f
00000050: 219f 0f3e c7b8 b83e 1583 4fbe e09a fe3d
00000060: f10b a0bd d41f fabe b069 d4be dfdc b33e
00000070: 1ed9 523e 1a42 77be ffed e2bd f7f9 043f
00000080: e200 05bf f286 b3bf 40f9 e73b 71f3 c1be
00000090: 5da5 523e bf1a 99be fa71 3fbe a0da 49be
000000a0: 5cee 5bbe 7d04 c23d be13 8cbe 7ddc d2bf
000000b0: e58b f5bd a5db 05bf b393 1e3f a6a5 b13e
000000c0: 85eb e03d 8e09 afbe 12c9 89bc 60df fa3d
000000d0: c80b e1be d0d9 98bb 0796 d4bd bc17 03be
000000e0: eb74 d0be 9064 2dbf 2969 313d c91e 63bd
000000f0: 05cc b7be b598 2ebd ba29 3cbe 2e8b a03e
00000100: 0022 37be 7fdd 0b3d 1b82 c93e ce74 9bbe
00000110: 6145 f9be 2bf6 8ebe 9d96 703d c64c 8ebe
00000120: d8db ea3e 523d 6b3e 038d a6be a31f b6be
00000130: b405 f5be de07 c23e 3ec7 7dbf 4c80 dfbe
00000140: 893c 7fbe a7d3 7fbe 2326 c93e d97e a1be
00000150: 614f d23d 496c db3e 79b0 9c3e 6cd5 e53e
00000160: 0d51 2dbc 2ca6 65bd 6f93 d13e 432e f63d
00000170: 6bc1 343e 5586 fe3e a1e6 1cbe f6b9 f33b
00000180: 5022 753e a0ff 79be b200 c0bd ee2f 843e
00000190: d5d5 c93e 74da 8c3e 6ed0 a43d 6437 14be
000001a0: dd6b 03be 11b6 733e 21a0 80bd bd41 6abe
000001b0: a8b8 40be 15fa 053e 81bb 533e fc83 723e
000001c0: a043 36be 7805 ed3c 6a53 413d 32d5 803e
000001d0: 4d84 023e e535 c8bc bcbe e9bd 3610 983e
000001e0: 499c 853e c968 c3be 1bd8 4a3d 5944 8cbe
000001f0: 036b 2dbe 0de4 64be aab4 97bc 388b c3bd
00000200: 0ce6 273e f12a 16bf 2c66 1ebd ac6d e3be
00000210: ec8b 693d 08fc 87be 53a0 5ebe 246e fa3e
00000220: afe7 473d 2722 13bf c1d0 60be 7316 7cbe
00000230: 085a 9f3d 009f 9b3e e1fc 8fbe 1f6a 673e
00000240: a89d 0f3d 6177 5fbe e2e6 37bf 957b a73e
00000250: 77b3 d13e efc1 f03e 646d cfbe 1c79 4fbd
00000260: 84a6 abbd 68ff 6d3c 9ac6 523d c840 56bd
00000270: 4a34 803e 99af 723e 3df4 373d 00f2 173d
00000280: 0dbd 273e 21bb cbbe 52ed 8d3e 99d6 0a3e
00000290: bcf8 ccbe bf63 49bf b1e7 cbbd 0772 b3be
000002a0: e681 bd3e 38c6 38be 30af c0be 7dc0 abbe
000002b0: aea9 913e 7b07 2abe 18d8 27be 1a18 be3d
000002c0: d0d3 cfbe 04ba 263e 5460 463e 38eb c4be
000002d0: 6211 6ebd 3a0f babe dd25 02bf d82e be3d
000002e0: 755c a43d 1683 27bf 297a c0bd 2e8b 27be
000002f0: 9227 123e 6f5c 873e 5104 21bf cc44 8c3e
00000300: e0d8 07bf 1977 f0bd 4e17 c6bd 736c 293f
00000310: 3167 14bf d3f7 e4be 7510 c13e d642 d03d
00000320: 6bfd 10bf c137 6dbf 7292 e4bd 4b88 c0be
00000330: 6335 d73e 0324 e03e c19d 11be beca 8fbe
00000340: 7520 2e3f b7a4 363f eed7 2cbe 7fc3 b0bf
00000350: 6250 1cbf 3702 d93e c117 ec3e 1a95 e53c
00000360: f58e 6c3e 959f 0dbe 7224 96bf bb13 233e
00000370: 00d3 6bbe c36a a63e e36b 1ebf 8831 1fbe
00000380: 716a f83d cad7 38be 50a9 59be 2147 ff3e
00000390: 8a7d 6fbe 574d b93e ca13 433e e05f 9cbd
000003a0: 6414 aebe 1c34 2ebe fd46 56bd 15d3 eabe
000003b0: beb2 8abe 845c 82be 8da8 453e 8a0a b6bd
000003c0: 1485 003e 22f2 5e3f 0b2c 51bc d826 f23d
000003d0: 171a fd3e f847 16be 32fd 4dbf 2390 b1bf
000003e0: 1f63 a83e 844b 053f 02fa 45bf 6edb da3e
000003f0: 1c61 e3be d37e bf3e 5f28 7fbe 9436 bdbe
-0.08196758 0.141805 -0.4387957 0.0109636085 0.08940062 -0.5108401 -0.28853303 -0.8034279
-0.17716323 -0.44900283 0.14913759 -0.16997018 0.19623387 0.19757129 0.33796844 0.06732035
-0.31008857 -0.6960711 0.26968265 0.5187872 0.14025547 0.36078474 -0.20264848 0.12431884
-0.07814778 -0.48852408 -0.41486883 0.3512945 0.20590636 -0.2414631 -0.110805504 0.51943916
-0.5195447 -1.4025557 0.0070792735 -0.37881044 0.20570894 -0.29903218 -0.18695822 -0.19712305
-0.21477646 0.09473512 -0.27358812 -1.6473538 -0.119895734 -0.52288276 0.6194412 0.34696692
0.10982422 -0.34186977 -0.01681951 0.12249637 -0.439543 -0.004664637 -0.10380178 -0.12802023
-0.407142 -0.6773157 0.04331318 -0.05544928 -0.35897842 -0.0426261 -0.18375292 0.31356186
-0.17884064 0.034146782 0.39357075 -0.30362552 -0.48685744 -0.27922186 0.058737386 -0.27792948
0.45870852 0.2297261 -0.32529458 -0.35571012 -0.47855914 0.37896627 -0.99132144 -0.4365257
-0.24925436 -0.24983083 0.39286909 -0.3154209 0.102690466 0.42856053 0.30603388 0.4488939
-0.010578406 -0.056066677 0.40932795 0.120205425 0.17651908 0.49711862 -0.15322353 0.0074379398
0.2393887 -0.2441392 -0.093751326 0.25817817 0.39420953 0.27510417 0.08047567 -0.14474255
-0.12834115 0.23799922 -0.06280542 -0.2287664 -0.18820441 0.1308368 0.20676996 0.2368316
-0.17799234 0.028933272 0.04719869 0.25162655 0.12745781 -0.024439761 -0.11413333 0.29699868
0.260958 -0.38165882 0.0495225 -0.27395895 -0.16935353 -0.2235262 -0.018518765 -0.09548038
0.1639635 -0.58659273 -0.038671657 -0.4441961 0.057018206 -0.26559472 -0.21740846 0.48912156
0.048804935 -0.5747399 -0.21954633 -0.24617939 0.07780844 0.30394745 -0.2812262 0.22599076
0.035062462 -0.21822883 -0.71836674 0.32711473 0.40957233 0.4702296 -0.40513146 -0.05065261
-0.0838137 0.014526226 0.051458932 -0.052307874 0.25039893 0.23699798 0.04491066 0.037096024
0.16380711 -0.39791206 0.27720124 0.13558425 -0.4003352 -0.78667825 -0.09956301 -0.35047933
0.37013167 -0.18044364 -0.37633657 -0.33545294 0.28449768 -0.16604416 -0.16391027 0.09281941
-0.40591288 0.16281897 0.19372684 -0.38460708 -0.058122046 -0.36339742 -0.50839025 0.092862785
0.08025447 -0.65434396 -0.093983 -0.16361687 0.14272907 0.2643771 -0.6289721 0.27396238
-0.530653 -0.11741466 -0.09672414 0.66181105 -0.5796996 -0.44720325 0.37707868 0.10168998
-0.56636685 -0.926632 -0.11160745 -0.37603983 0.42032918 0.43777475 -0.14220335 -0.28084368
0.68018275 0.71345085 -0.16879246 -1.3809661 -0.61060154 0.42384502 0.46111873 0.028025199
0.23101409 -0.13830407 -1.1729872 0.15925495 -0.23029709 0.32503328 -0.6188337 -0.15546238
0.12129677 -0.18051067 -0.21255994 0.49858955 -0.23387733 0.36191818 0.19050518 -0.07635474
-0.33999932 -0.17012066 -0.052313793 -0.45864168 -0.27089494 -0.2546121 0.19302578 -0.08888729
0.12550765 0.87088215 -0.012766848 0.11823815 0.49433967 -0.14675891 -0.8046447 -1.3872112
0.32888123 0.5206835 -0.77334607 0.42745537 -0.44410026 0.37401447 -0.24917744 -0.36955702

layers.1.fc_pool.bias f4 [24]
00000000: 6b29 0ebf 1e90 b7be 5278 16be fc2d ebbe
00000010: 3d13 edbe f318 bebe e197 c7be 1a1f dbbe
00000020: 73f0 5c3d 88e6 94be 916d cabe dc6d 75be
00000030: 949c 68be ba57 87be 04f2 1dbf 8516 dabe
00000040: 85d4 8dbe cb1e dabe ee70 c5be 6932 bdbe
00000050: 1830 0bbf c4fa c0be c88c 8cbe fc3d b7be
-0.5553195 -0.3585214 -0.14694336 -0.4593352 -0.4630374 -0.3712841 -0.38983062 -0.42797166
0.053940248 -0.2908213 -0.39536718 -0.2396769 -0.2271598 -0.26434118 -0.6169741 -0.42595306
-0.27701202 -0.42601618 -0.3856272 -0.36952522 -0.5437026 -0.3769132 -0.27451158 -0.35789478

layers.1.fc_self.weight f4 [2, 24]
00000000: 407d 473f 5c24 5040 0fc2 7540 ec29 f23f
00000010: 1fa9 40be 604d 0f3e 9531 ce3e b440 2640
00000020: 913b d3be 6e97 d2bf 0f35 2ec0 f763 f73e
00000030: 7967 ca3e 4e91 99be 9fe6 d2be 0e58 18bf
00000040: 5eff 25c0 848d 6b3f 4d6c 73bd 470a 8ec0
00000050: 09a9 a0c0 aa60 4b40 068d 3dc0 fbeb aac0
00000060: f3e3 1abd 60a4 2fc0 8fd2 3fc0 8754 01c0
00000070: a837 44bf f4d4 cd3e 387f 8dbf 296e 2ac0
00000080: 815c dabc 0255 df3f 35ee 5140 9ef1 ab3e
00000090: 9253 d03d 785b d03e d613 2bbf a86e 36be
000000a0: b773 3a40 d2a8 c7bf 7dfb 043e 2373 5a40
000000b0: d856 9040 e68f 89c0 f571 3940 a926 a640
0.7792549 3.2522192 3.8399694 1.8919044 -0.18814515 0.1399436 0.40272203 2.5976992
-0.41256383 -1.6452463 -2.7219884 0.48318455 0.39532068 -0.2999367 -0.41191575 -0.5950936
-2.5937114 0.9201281 -0.059429456 -4.4387546 -5.020634 3.177775 -2.9617324 -5.341306
-0.037815046 -2.7444077 -2.9972265 -2.0207841 -0.76647425 0.40201533 -1.1054449 -2.6629736
-0.026655437 1.7447817 3.280164 0.33582777 0.1017219 0.40694785 -0.6682714 -0.1781565
2.9133127 -1.5598395 0.1298656 3.4132774 4.510601 -4.2988157 2.8975804 5.1922193

layers.1.fc_neigh.weight f4 [2, 24]
00000000: c470 c63e c996 283e 929e 633d c19b b53e
00000010: 7f2d 0d3e f8b5 70be 3815 d3bc 8fdd a2be
00000020: 567a 02bf 6444 09be 0744 f63e 799d 543e
00000030: eaf4 d2bc 0f5a 04bf b8ff 703e 5805 e7be
00000040: 73bc 893e 9f57 c33e e355 d5be 03c2 cebe
00000050: 267f a13e beb2 c1bd 44f4 9d3e 95b7 8b3e
00000060: c0e3 c23e a8de 023f fbce 3e3d 57b2 483e
00000070: caa2 283e 9a0b 99be d9e4 503d 409a 1dbe
00000080: 95c3 a13e 12c5 37be 0285 a93e 0fde 053e
00000090: 4258 05bf a59f dbbe e352 e2bd 3228 d4be
000000a0: d331 11bd e202 d83e fff4 adbd 2845 c9be
000000b0: f3e8 5b3e 9a8e 233e 6088 b93e 9d82 143f
0.38757908 0.1646377 0.055571146 0.35470393 0.13786887 -0.23506916 -0.025766954 -0.3180966
-0.5096792 -0.13404995 0.48098776 0.20763196 -0.02575155 -0.5169992 0.23535049 -0.45121264
0.26901588 0.38152787 -0.4166709 -0.40382394 0.3154232 -0.094579205 0.30850422 0.272885
0.38064384 0.51120996 0.04658411 0.19599281 0.16468349 -0.29891664 0.050999496 -0.15390873
0.3159453 -0.1794627 0.3310929 0.1307299 -0.52087796 -0.42895237 -0.11050966 -0.41436917
-0.035447907 0.421897 -0.08493995 -0.39310575 0.21475582 0.15972367 0.36236858 0.580118
