airline/model.pt (torch, 572219 bytes, 14 tensors)

layers.0.bias f4 [128]
00000000: 47b7 87ba 9d6e e2bd 95ac c53d bb4a 0cbe
00000010: 856a 0ebe 12f4 dabd c710 0b3d e0d4 c7bd
00000020: 6dc7 69bd b6e7 d63c 1848 13bd f15d 9bbd
00000030: 27cf e4be 1001 71be 8947 bcbd 07cd 6bbd
00000040: eb09 fabd 50e7 fabd 79df 963d c181 18bc
00000050: 9051 4cbe d449 343d 51ce 47bd b05b 07bd
00000060: 0978 58bb f3e4 bd3c daf9 20be 46fb b2ba
00000070: 05ed d8bc 14bc e8bd e567 dabd 4fad 87be
00000080: 73a2 523d 3817 76be 9204 7cbc 45f9 cebc
00000090: 903e 0fbe b63f b6bd f8e5 b3bd 01c2 99bd
000000a0: 87b5 09bd 43d1 8d3d ac25 7ebd dc66 28bd
000000b0: e765 95bd 42e9 6bbc eb3d 72be ea1d 24be
000000c0: bab8 7ebd 317c 633d 60d7 28be 619e 21bc
000000d0: 67cb 0dbd 2375 19be 5766 853d 3e10 703d
000000e0: 648f 4bbe 1869 783d e284 6ebd aca4 c9bc
000000f0: 27ed 4d3d 7483 15be 7f86 1ebd 49b7 a6bd
00000100: cd6c a7bd 3c4a 9fbd da98 b8bd 65bb 82be
00000110: 66c6 cbbd 6ccd 37bd b25b 583c 79d8 adbd
00000120: b81f e2bd 9bc1 16be 01e0 d0bd ee34 ccbc
00000130: 07bd 12bd 0dc6 0bbd 35de 1cbe 55e7 50be
00000140: c57d fcbd 2e65 cb3c b8b6 29be ebaf 73be
00000150: f57d 673d 3e18 14be 2840 13bd b236 40bd
00000160: 825f 3e3d 6b62 2abd 6a12 89be 133e dbbe
00000170: 2e23 42bd 90fa fa3d eb0e 45be 8d8f 0bbe
00000180: d1cd 19be 893c 12be d37a 31be a04b 07be
00000190: e31f 72be a048 9236 8184 edbd a6f2 ff3a
000001a0: a5cc fcbd ab15 fcbe 59d0 eb3a 5ecf 5fbd
000001b0: 1bbe e4bd 4583 4d3c 9a2b 47bc 9486 c23d
000001c0: 2102 1fbe b9f7 93bd 96b2 eabd a596 7ebc
000001d0: 85e9 7fbe 3597 3cbe 9fa5 f63c a703 1bbe
000001e0: e572 45bc 2702 34be e69c f0bd 2263 00be
000001f0: 8ab1 ef3c dc97 15bd 7ace f0bd b838 b93d
-0.0010354304 -0.11056254 0.09652058 -0.13700382 -0.13907821 -0.10691084 0.033951547 -0.097573996
-0.057074953 0.026233535 -0.035957426 -0.07586277 -0.44689295 -0.23535562 -0.09193332 -0.057568576
-0.12208923 -0.122511506 0.07366843 -0.0093082795 -0.19952989 0.04401572 -0.048780743 -0.033046424
-0.003303053 0.02318046 -0.15720311 -0.0013655208 -0.026480207 -0.11363998 -0.106643476 -0.2649941
0.051424455 -0.24032295 -0.015381949 -0.025265345 -0.1398871 -0.08898871 -0.087840974 -0.075077064
-0.033620384 0.06924679 -0.062047645 -0.04111372 -0.07294827 -0.014398875 -0.23656432 -0.16027036
-0.062187888 0.05553836 -0.16488409 -0.009864421 -0.034617808 -0.1498609 0.065136604 0.05860924
-0.19878918 0.0606471 -0.058232196 -0.024614654 0.050274994 -0.14600927 -0.038702484 -0.081404276
-0.08175049 -0.07777831 -0.09013529 -0.25533596 -0.09949951 -0.04487364 0.013205456 -0.084885545
-0.11041206 -0.14722292 -0.10198975 -0.024927583 -0.0358248 -0.034124423 -0.1531914 -0.20400746
-0.12328676 0.02482852 -0.16573608 -0.23797576 0.056516606 -0.14462373 -0.035949856 -0.04692716
0.046477802 -0.041597765 -0.2677186 -0.42820796 -0.04739683 0.12254822 -0.19243972 -0.13628979
-0.15019919 -0.14280905 -0.1733201 -0.13212442 -0.23644976 4.3595937e-06 -0.11597539 0.0019527271
-0.1234372 -0.4923528 0.001799117 -0.05464112 -0.11169072 0.012543504 -0.0121563915 0.09498325
-0.15528156 -0.07224984 -0.11459844 -0.015538846 -0.24991424 -0.18417056 0.030108271 -0.15138112
-0.012051319 -0.17578946 -0.11748676 -0.12537816 0.029259462 -0.036521778 -0.11758132 0.09044021

layers.0.lstm.weight_ih_l0 f4 [84, 21]
00000000: d7e3 dabb 2148 e13d c2b5 1c3c 457e 54bd
00000010: c15c 4b3d 33db bbbd f512 113e 16dd 213d
00000020: 7de8 aabd 8db4 493d 09d7 45be e718 ffbd
00000030: d5e5 993d 5622 303e e182 90bd 185f 34be
00000040: 9eb8 463e 52cc 85bd 4810 21bd 6579 f1bd
00000050: 8913 69be 2bbd 693d 39e6 fa3d 4f02 fbbc
00000060: d291 4fbe a92e 99be cbce dbbd 58ac 9dbd
00000070: 1482 d8bd ea63 2bbe 6757 6cbe 19b0 81bc
00000080: 824b 19bd e23b 99bd 6e33 b93d 68c1 db3d
00000090: 7562 fdbd 01a0 053e f991 123d 350b 50be
000000a0: 58c6 523d 61a3 97bc 3614 123c 2243 393e
000000b0: 1f42 12bd 6cf7 403e 05ff 4ebe b222 283e
000000c0: acee c33d 3357 063e 64e4 973c 2d83 203e
000000d0: 7e20 033e cc99 49bd d993 0cbc 7fe6 1bbd
000000e0: d798 02bd 49b4 bcbd 4701 41bd 267b 11be
000000f0: 6429 b63d 50d5 4fbc c2a3 a13c 965b 5ebd
00000100: aa84 29bd 234c cd3d 9741 fc3d 16df 613e
00000110: c90d b0bb ed81 91bd 1cf1 3e3e 892e 17be
00000120: 46fe b3bd ca41 aebd ec49 cb3b 1fcc 46bd
00000130: 7908 163d 7c1c 12bd 6809 c43d 5f53 a13d
00000140: de06 f23c 85ff ee3d eebe e83d 9a76 a8bd
00000150: 50a3 d03b edca 62be f80c b53e 44cf 41bd
00000160: b5c2 203e aeb9 e23c 4053 3e3e 0388 92be
00000170: 6434 4b3d 38f2 70be c27f f33c c600 f93d
00000180: f1b4 073e 3590 babc 0829 57be 5b83 243e
00000190: 74d3 b9bd b1de d3bc a5ee 3d3e 1cab 3ebc
000001a0: 9311 113d 4824 f2bd abf6 a8bd f31a 1ebd
000001b0: 8c09 04be f9d0 b43d 6fa4 cebd 8543 953d
000001c0: 0e83 3cbe 4a94 e2bd 7a86 283d 3560 56be
000001d0: b089 543e 0167 8abd d6b4 9ebc 5744 1fbe
000001e0: 5e5d 0abe 7db9 b23d 2342 943c e540 e63d
000001f0: 58e4 45be 9ad2 a8be 4422 73bd eaa0 f6bc
00000200: c0aa 46be 620b 4a3e e30c 77be 8fb9 1ebe
00000210: 8b7c 9ebc 4358 fbbd 1a16 07be b0f8 9b3d
00000220: 4ae0 313c 7000 62bd f4c5 0fbe 3768 3f3e
00000230: 9e5e 0d3d 5d09 a23e 710e f63d 1c12 00be
00000240: 94fc 0c3e 1472 4dbe d477 c3bd 4bfb 09be
00000250: 83ae a93d ecc6 6c3c 681f 5ebe 78f7 123c
00000260: 37af 2b3e 75ae 7cbc ce6d 01bb fff4 54be
00000270: d794 1d3e 72a4 763c f7f1 243e 5f59 86bd
00000280: 5fcc 46be 29bb 46be 5cef afbc 1248 133d
00000290: be37 0bbe a322 1e3e 8b02 5dbd 2ae7 8abc
000002a0: c002 4e38 41ed 25be 453b 8dbd a2c8 723e
000002b0: 3175 663e f6c7 b43d 24c0 4a3d 211e 1ebd
000002c0: 8005 54bd 49e1 c4bd be92 b43d a9f8 44bd
000002d0: d1a0 f7bd 4f48 653b 161e d63b 6938 f3bd
000002e0: 1f3e 95bc 53cf 043e 56e4 c43d 5aec de3d
000002f0: 451f 9f3c bc5c 25bd b378 0f3c 6dbf 58be
00000300: 5c21 7c3c 3558 50be 544b 46be 08a1 dc3b
00000310: 70af fc3d 14f6 1fbd 5132 7dbe fe90 103e
00000320: df6e ed3d 4e8a babd 4efa 14be 65d1 0b3e
00000330: 453d dcbd 7e3e 5fbe 69b8 093e 43ff 683e
00000340: 1a11 c93d d908 fb3d 4f43 dabd 84fc 49be
00000350: ce9a 24bd ee9d e7bc b6c6 1abe 4751 803d
00000360: 9e5c c1bc b3b2 1abe a9de 85bc 3dcb 5abe
00000370: 1771 43be fea4 853e e5d7 333e 20bf da3b
00000380: b9cf 0cbe 14f4 1c3e 7d62 25bc 8c1d aebd
00000390: 8578 553d ae83 523e 6905 76bd d241 69be
000003a0: f3a9 24be 0aef 6e3d acd5 a7bd 4bc8 273e
000003b0: 1d4f 773d a726 ed3d e36c 4c3e 0fb3 b03d
000003c0: 035c debd eee2 4fbe 1c43 85bd d634 86be
000003d0: f7ff e53d 1a54 893d 5f3d 0abe 918d 4bbc
000003e0: 87f2 06bd 8e00 e33d 8071 5ebb 2469 b1bd
000003f0: 09fd c2bd e189 453e 9c8a 323e c55b 3ebe
-0.0066799927 0.110000856 0.009564819 -0.051878233 0.049649004 -0.09172668 0.14167388 0.039517485
-0.08345125 0.049244452 -0.1932031 -0.124559216 0.0751454 0.17200598 -0.07056213 -0.176144
0.19406363 -0.06533112 -0.039322168 -0.11790732 -0.22761358 0.05706517 0.12250943 -0.03064075
-0.2027047 -0.2991841 -0.10732802 -0.076988876 -0.105716854 -0.16737333 -0.23080216 -0.01583104
-0.037425525 -0.07482125 0.090430126 0.10730249 -0.12372295 0.13049318 0.03578374 -0.20316775
0.051458687 -0.018510522 0.0089159515 0.18092015 -0.03570759 0.18844384 -0.2021447 0.16419485
0.095670074 0.13119201 0.018541522 0.1567504 0.12805364 -0.049218938 -0.0085801715 -0.038061615
-0.03188404 -0.09214074 -0.04712036 -0.14207134 0.088946134 -0.012685135 0.019731406 -0.054286562
-0.041386284 0.100242876 0.12317198 0.22057757 -0.005372737 -0.071048595 0.18646663 -0.14763846
-0.08788733 -0.08508642 0.0062038805 -0.04853451 0.036629174 -0.035671696 0.095721066 0.0787723
0.02954429 0.1166983 0.11364542 -0.082257465 0.0063671246 -0.22147723 0.35361457 -0.047316805
0.15699275 0.02767643 0.18586445 -0.28619394 0.04961051 -0.23529899 0.029724006 0.12158351
0.13252617 -0.022773841 -0.21011746 0.16065733 -0.090735346 -0.025863023 0.18548067 -0.011637475
0.03541715 -0.11823326 -0.08250173 -0.03859992 -0.12894267 0.08828921 -0.10089957 0.07288269
-0.18409368 -0.1106344 0.04114387 -0.20935138 0.20755649 -0.06757928 -0.019373339 -0.15553413
-0.1351218 0.08726785 0.018097943 0.112428464 -0.19325387 -0.32973176 -0.05935885 -0.030106027
-0.19401073 0.19730905 -0.2412601 -0.15500472 -0.019346496 -0.12272694 -0.13192025 0.07615793
0.010856697 -0.0551762 -0.14040357 0.18692099 0.034514062 0.3164777 0.12014473 -0.12506908
0.13768226 -0.20063049 -0.0954434 -0.13474767 0.082852386 0.014451724 -0.21691668 0.008970134
0.16766058 -0.015422453 -0.0019749287 -0.20796584 0.15388809 0.015053855 0.16107927 -0.06560015
-0.19413899 -0.19407333 -0.02147644 0.035957403 -0.13595483 0.154429 -0.053957503 -0.01695593
4.911679e-05 -0.16203786 -0.068960704 0.23709348 0.22505642 0.08827202 0.049499646 -0.038602952
-0.051763058 -0.09613282 0.08817051 -0.048088703 -0.1209122 0.0034985726 0.0065343482 -0.11875994
-0.018218098 0.12969713 0.09613864 0.10884924 0.01942409 -0.04037164 0.008756804 -0.21166773
0.015388813 -0.20346148 -0.19364673 0.0067330636 0.123381495 -0.039053038 -0.24726225 0.1411781
0.115934126 -0.09108411 -0.14548609 0.13654096 -0.10753874 -0.21801183 0.13449253 0.22753625
0.09817715 0.12257547 -0.10657369 -0.19725233 -0.040186696 -0.028273549 -0.15114865 0.062655024
-0.023603734 -0.15107231 -0.016341524 -0.21366592 -0.19086109 0.26102442 0.17562826 0.006675616
-0.13751115 0.15327483 -0.010094282 -0.08501729 0.05211689 0.20558044 -0.060063753 -0.22779015
-0.16080455 0.058333434 -0.081950516 0.16385 0.060378183 0.11579638 0.19963412 0.08627903
-0.108573936 -0.2030141 -0.06506941 -0.26212186 0.11230462 0.06705494 -0.13499974 -0.012423889
-0.032946136 0.1108409 -0.0033942163 -0.08662632 -0.09520919 0.19290878 0.17435688 -0.18589695

layers.0.lstm.weight_hh_l0 f4 [84, 21]
00000000: 7973 8b3e 27d6 30bc 39e4 93be d3f2 fabd
00000010: 657e 93bd df96 bd3c 0d1e fd3d 3e5d 84be
00000020: 022a 99bd ff77 01bc 231c 933d a82d ad3d
00000030: e1fa ecbc 7f64 b4be 57a8 adbd 73bc a8bd
00000040: a408 84be ae08 7fbe b090 dbbc d3c1 02be
00000050: e363 4bbe 5c5e 05be 8f1d 74bd 18b2 5f3e
00000060: 3d09 fabd 61aa 453e 96f9 9ebe 4daa 73be
00000070: c1b4 8d3d 1cd5 02bd a39e 8b3d d994 fbbd
00000080: a1d8 d43e 43fe 78bd 0493 ec3d 4ce2 b4bd
00000090: cac3 9d3d 68af 84be 2c8b 8639 845a 24bd
000000a0: 61e1 29be 6d07 adbe 13ec b83e ba8a e83d
000000b0: b42b 8fbe 927b 7e3e 4723 b5be 0b39 903e
000000c0: a1b5 a33c f0cd 98be f75d 8c3e 9d16 a93e
000000d0: 4b09 1abe 3e5d 3f3e c7c1 c83d 2b32 cfbe
000000e0: 992b 333d f6b0 7bbc 7ade 42be 25fb 9ebe
000000f0: ccd5 acbb caa8 ab3c 1d20 cb3d 5b05 80be
00000100: 9501 0dbe 2139 fa3d 9ebe d73d 8046 9e3e
00000110: 15fc 74be 80b5 69bd c395 b43e 0ba5 23be
00000120: f2d8 073c 304e c5bd de87 103d f517 653d
00000130: 5579 8e3e 2b08 103e cdaf ba3e 123c 3e3e
00000140: 0f6d 953e d578 923e 5327 d23e 62ba 653e
00000150: c4f8 f6bd d84d c3bd 9a46 d8bd 7c0a b13e
00000160: a5d5 773a 6157 94be 89b7 40be 4d02 cc3e
00000170: fd89 08bd 5464 09be d77b 983e 46e5 09be
00000180: f88b 0abf d464 d43d bca6 703e 7a87 63bd
00000190: c72c 53be a72e b53d d4ec 9e3e 0106 653e
000001a0: 3c25 0ebe 9735 56bd f014 863e a7c1 1f3d
000001b0: 21a9 3fbd 574e be3c e8e5 4f3e 5961 003e
000001c0: de7c 0ebe e6df 13bd eb4f 833e 39a0 9d3e
000001d0: 2922 c53c 79dc 7dbc 892a aebd 0aaa e1bc
000001e0: f0e6 21be 723a 7c3d dfff cf3d db12 243d
000001f0: 8302 05be bd57 5b3e c957 04bd 1a4e a4bd
00000200: fc76 493d 81f8 863d 44fc 253e 4a2c 24bc
00000210: bf75 ac3d d0a2 143e b1bb 82bb 4e6b 46be
00000220: 2894 63be cb3a 77bd e6e4 f83d cb7c 3fbe
00000230: b4da df3d 2ad7 dc3d 46bd 7b3e 1fa1 6a3d
00000240: 3a35 babd 864a be3d 88c9 743e 9f11 a3bc
00000250: 0b4a ee3c c72d 353c 43dd abbc 966b f73c
00000260: 4f82 10be 209e dabd aebd 113e 8d97 ff3d
00000270: 1c77 803d f854 29bd d1ed 503e 64df 933e
00000280: 6a81 3d3e 075e 7ebc ad98 4e3d b639 96bd
00000290: f81e 73be 01b6 003d 1124 223e 9c50 de3d
000002a0: eff5 653e aa7a 29bd edca 39be 5f53 423e
000002b0: 08a0 01bd f037 b63c 2c7d 8e3e e5f9 963b
000002c0: 2ea1 723e cacd 273e e182 0a3c ab8b 0ebe
000002d0: b94d 733e 6605 bbbe d6d8 0bbe 09a7 d4be
000002e0: bd42 91bd 6b46 d53d 03ab 35bb 8d6d 6c3d
000002f0: c000 b6bd 9b5c b8be a725 9cbd 6535 553e
00000300: d990 493d 9e28 8e3d 53bf b0be ddad 66be
00000310: 8345 863d f2fe a8be e014 09bd 5ca5 ae3d
00000320: 94ed 04be 9763 b9be 1e66 cd3e a59c ce3d
00000330: 6b5b 063f 337c 9e3d 95fe 17bd 709a b4bb
00000340: 5d36 cd3e 0fc3 c0bc 0c2e 36bd 6679 1cbe
00000350: 4cef d23e b958 bfbd 0853 2d3e a480 b2be
00000360: c6d8 4abe 19d8 913e 2958 a3be 057f 3ebe
00000370: 78a7 a33d 8704 5b3e 1761 7d3d 9095 e33d
00000380: 444a 613d 4f07 683e 349f 893d 413d 75bd
00000390: a5dd 9f3e 0f70 d83e 2f8a 513e 0ef9 d9be
000003a0: 7562 9dbe d341 c23e 9bec 073e 3008 2a3e
000003b0: 8cea 49be 67b7 7abe cd66 8a3d 05b9 20be
000003c0: b0df 7ebe 876a 4c3c f8b9 b9bd 34ca 4d3c
000003d0: c764 6d3e 4243 ec3d ccde c13d abeb e73e
000003e0: 9aca 7a3e a9c5 b33e 868c 9bbc ae0e 003e
000003f0: 066f acbd f48e 5ebe bcb3 aa3e 7361 93be
0.27236536 -0.010793245 -0.28885058 -0.12253346 -0.07201842 0.02314323 0.12359247 -0.25852388
-0.074787155 -0.007902144 0.07183101 0.08455974 -0.028928222 -0.35232922 -0.08479374 -0.08239069
-0.25787842 -0.24905655 -0.02680239 -0.1276925 -0.19862323 -0.13024276 -0.0595985 0.21845281
-0.12208793 0.19303276 -0.31049794 -0.23795433 0.06919242 -0.03194152 0.06817367 -0.1228425
0.41571525 -0.060789358 0.115514785 -0.08832225 0.077033594 -0.25915074 0.00025662163 -0.040125385
-0.16589881 -0.33794728 0.3611761 0.11354585 -0.2796303 0.24851826 -0.35378477 0.2816852
0.019984068 -0.29844618 0.2741544 0.33025065 -0.15042607 0.18687913 0.09802585 -0.40467963
0.04374275 -0.015362015 -0.1903018 -0.31050983 -0.00527451 0.020954508 0.099182345 -0.25004086
-0.13770135 0.12217928 0.10534404 0.30913162 -0.23924287 -0.057057858 0.3527051 -0.15980928
0.00829147 -0.09634054 0.035285823 0.05593105 0.27826944 0.14065616 0.3646225 0.18577603
0.29184768 0.28607813 0.41045627 0.2243438 -0.12059167 -0.09536332 -0.10560341 0.3457831
0.0009454138 -0.28972915 -0.18820013 0.39845505 -0.03333472 -0.13417178 0.29781982 -0.13466367
-0.54119825 0.10370794 0.23501104 -0.055549122 -0.2062255 0.08846789 0.3104006 0.22365572
-0.13881391 -0.0522972 0.2618785 0.03900304 -0.046792153 0.023230715 0.20302546 0.12537135
-0.1391482 -0.036102198 0.2564691 0.30786303 0.02406414 -0.015494459 -0.08504207 -0.027546901
-0.15810752 0.061579175 0.101562254 0.040057044 -0.1298924 0.21420188 -0.03231028 -0.08022709
0.049185738 0.06590367 0.16209513 -0.010020325 0.08420896 0.14515233 -0.0039896597 -0.19376871
-0.22224486 -0.060358804 0.12153034 -0.18699948 0.10930386 0.10783227 0.24583921 0.057282563
-0.090921834 0.09291558 0.23905003 -0.019905863 0.02908804 0.011058277 -0.02097953 0.030202668
-0.14112209 -0.10674691 0.14232513 0.12480078 0.06272718 -0.0413408 0.2040322 0.2888137
0.18506399 -0.015525348 0.05043857 -0.07335226 -0.23742282 0.031423572 0.1583407 0.10855219
0.22457097 -0.041376747 -0.18143816 0.18977116 -0.03164676 0.02224347 0.27829874 0.0046074265
0.23694298 0.16387096 0.0084540555 -0.13920467 0.23760118 -0.36527556 -0.13656935 -0.41533688
-0.070928074 0.10413822 -0.002772034 0.057721663 -0.08886862 -0.36008152 -0.07624369 0.2082115
0.049210403 0.06941341 -0.3452097 -0.22527261 0.06556227 -0.33007008 -0.033467174 0.085276335
-0.12981254 -0.36208794 0.40116972 0.10088471 0.5248324 0.07738533 -0.037108023 -0.0055115744
0.40080538 -0.023530511 -0.044477507 -0.15280685 0.41198194 -0.093430944 0.16926205 -0.3486377
-0.19809255 0.28485182 -0.31903198 -0.18603142 0.079909265 0.21388446 0.06186017 0.11112511
0.055002466 0.22659038 0.06719819 -0.05987287 0.3122379 0.42272994 0.20462869 -0.42572826
-0.3073918 0.37940845 0.13273852 0.16604686 -0.19718379 -0.24484025 0.06757889 -0.1569558
-0.24890018 0.01247657 -0.09068674 0.012560416 0.23182975 0.11536266 0.09466323 0.45296988
0.24491349 0.3511174 -0.018987905 0.125056 -0.084196135 -0.2173422 0.3334025 -0.28785285

layers.0.lstm.bias_ih_l0 f4 [84]
00000000: cb26 cb3e b564 cebb ce50 503e 7a05 96be
00000010: 7a05 77bc 7235 2a3e 6cf0 0cbd ca51 dbbd
00000020: f201 003e bcc1 85be e0d8 c1bd 1e83 64bd
00000030: df64 70be ad33 753e d3e7 603e 3949 c23e
00000040: 0cb4 52be ffb2 243d 8b58 c5bc 41c0 c53a
00000050: df2c 88be a123 163c 86bf 9f3e a69d b83e
00000060: e73a 3cbe 9b2a 7d3e 975f 4c3d 0c7f 2dbc
00000070: b0ed e33d ec98 043f c768 943d 926a 39be
00000080: d537 8ebd 19de 12be 00a7 6f3e d9a6 f13e
00000090: 1dfa 873e 8ac0 1cbe 2c0f 8dbd 6868 043e
000000a0: 4c1a 713e 9195 563c 17af e73e a301 863e
000000b0: adb4 11bf bce1 21bd 832a 48be d88f cc3e
000000c0: cc23 9b3e 5d95 9dbe c8ec 033f 9bc0 503d
000000d0: 7512 063e bfbe 6b3e eb4f eebd 21d1 f3be
000000e0: 84f9 373b c746 abbe 0f62 16bd dade 79be
000000f0: c10b 68be 2232 0ebe f901 763d 0bfb 343d
00000100: f9d7 65be 0aa8 d93e 5e19 eabe 6c95 e0bd
00000110: dbb3 ddbd 496b 58be c8fd 083d 3c9e 343e
00000120: 1a36 03be d686 77be 7c5d e2bd f4b0 88be
00000130: 3c20 a13e 3f55 2a3e 4a3c 9d3d 1c13 70bc
00000140: 67ba 473d fdb1 dc3c 4834 363e 7043 0ebd
0.39678034 -0.0062986263 0.20343325 -0.29301053 -0.015076989 0.1662195 -0.03440897 -0.107089594
0.12500742 -0.2612437 -0.09465194 -0.055789106 -0.2347598 0.23945494 0.21963434 0.3794649
-0.20576495 0.040209766 -0.024090072 0.0015087203 -0.26596734 0.009163768 0.31200808 0.36057776
-0.18381844 0.24723284 0.04989585 -0.010589372 0.1112932 0.5179584 0.07246547 -0.1810706
-0.06944243 -0.14342536 0.23403549 0.47197607 0.2655801 -0.15307823 -0.068876594 0.12930453
0.23545188 0.013097183 0.4525077 0.26173124 -0.56916314 -0.039521918 -0.19547467 0.39953494
0.30300748 -0.30778018 0.51533175 0.050964933 0.13092978 0.23021983 -0.11636337 -0.4762049
0.0028072307 -0.33452436 -0.03671461 -0.24401417 -0.22660734 -0.13886312 0.060060475 0.044184726
-0.22445668 0.42511016 -0.4572248 -0.10966 -0.1082532 -0.21134676 0.03344515 0.17638487
-0.12813607 -0.2417253 -0.11052987 -0.26697505 0.31469905 0.16634081 0.07677515 -0.0146529935
0.04876175 0.02694034 0.17793381 -0.034732282

layers.0.lstm.bias_hh_l0 f4 [84]
00000000: 924d 4b3e 60d2 0b3e 2120 ec3d e1f3 5abe
00000010: a8b8 dbbd c997 573e 7ba0 5d3e 84bf 9dbd
00000020: 2b32 7f3e ee7d babe 408b e1bd 981d 06be
00000030: 0e81 b3be 3201 1a3e 6422 e6bd 32a4 7c3e
00000040: d416 3ebe c014 f23c b3cc f23d 624c 28bd
00000050: e6cd dcbd 75b5 843e e296 f7bc bc68 d73e
00000060: fe5d 40be ca4e caba fa82 b13e e9b1 553e
00000070: ec60 debd c718 143e ee09 993c 1738 373e
00000080: d432 06bd f935 0e3e c59a 6fbc 7fa2 4c3e
00000090: d8b6 ff3d 604f 28bd 02a6 953e 6347 a23d
000000a0: e608 543e 5f14 aabd e149 9a3e b12f 1d3e
000000b0: 282d 72be bcdb 9d3e 3d8f 5abe 2766 cf3e
000000c0: 8633 393e 4de2 bbbe b8f1 023f adfb 0d3e
000000d0: be9e 1abe 48e6 e9bd f6b2 263e dfd2 c2be
000000e0: ac0f 6e3d 8658 b1be 272e 40be bef0 7ebe
000000f0: 3a19 00be ca01 aebe 69d3 06be d35f 8e3e
00000100: cfa8 13be cb5d 683e ea90 68bd 54c0 abbd
00000110: 3d2f 9bbd 40a5 ac3c 4d35 403e 6aad a03e
00000120: 6586 ddbe 956e 00be 4295 aabe 1375 84bd
00000130: 6e33 d9b9 a88a 5d3e bf31 a83e d008 82be
00000140: cf22 963d 3f62 5ebb 6107 0e3e dad6 4ebd
0.1985381 0.1365447 0.115295656 -0.21382095 -0.1072858 0.21053995 0.2164325 -0.07702544
0.24921481 -0.36424202 -0.11012888 -0.13097227 -0.35059398 0.15039518 -0.11237028 0.2467201
-0.18563396 0.02955091 0.118554495 -0.04108847 -0.107814595 0.2591969 -0.030223314 0.42072093
-0.18785855 -0.0015434858 0.3467024 0.20868649 -0.1085833 0.14462577 0.018681493 0.1789249
-0.032763317 0.13887776 -0.014624302 0.19983862 0.124860466 -0.041091323 0.29228216 0.07923772
0.2070652 -0.08304667 0.3013449 0.15350224 -0.23650038 0.30831707 -0.21343704 0.40507624
0.18086061 -0.3669609 0.51150084 0.13865538 -0.15099618 -0.11420876 0.16279206 -0.38051507
0.058120415 -0.3463785 -0.18767606 -0.24896523 -0.12509623 -0.3398574 -0.13166584 0.27807483
-0.14419864 0.22692029 -0.056778826 -0.08386293 -0.07577369 0.021074891 0.18770333 0.31382304
-0.43266597 -0.12542184 -0.33317 -0.06467643 -0.00041427783 0.21634924 0.32850453 -0.25397348
0.07330858 -0.003393307 0.13870002 -0.050497867

layers.0.fc_self.weight f4 [128, 21]
00000000: dc15 93bd fcc8 00bf 10ad c8bd 975d bbbe
00000010: 2d64 423f f5d3 0abd 820f e4be 87c5 df3e
00000020: e9ca 723e ad67 503e f6f0 a3bd b1d1 a8bb
00000030: 2171 56bd 2cec d6bd 6729 0a3e 0cfa adbd
00000040: 76e9 30be cbf4 3ebd 9ecc 293d 2255 b13c
00000050: 855c ba3b 8ac0 eebd a413 0abc ee00 a9be
00000060: 2a78 cbbd 1549 74bc 195d 6c3e 30de 9b3b
00000070: d8b6 9dbd a58d 5f3e 2242 99bd f3a5 b73e
00000080: 917f 053f 2a9e 833d 80fb 90be 1237 da3e
00000090: 142b d73c dafe b73d 2107 05be 44b0 153e
000000a0: 4462 b4bd 0add f23d 80fc ccbd dac7 4f3e
000000b0: 8757 0bbd f0ce 59be 0689 68bd 9851 c6be
000000c0: f46c 20be 2375 2c3e c5ba a6be 9f5f b33d
000000d0: 7508 1b3e 5fc9 2cbe 7351 923c 6b67 e5be
000000e0: 0281 b33d ca40 623e 12c7 f93d 7b07 7ebd
000000f0: aab4 f73d b55c c53e d39c b03d 9129 4ebd
00000100: 6d58 56bd f31b c03d a1c8 c5bd 9271 103e
00000110: 8f0c 88bd a5b5 bf3e 89c2 86be 4e6b 363e
00000120: f3cb 783e dcb2 a3bc b356 653e 0682 85be
00000130: 599b 5dbe 6a64 cf3e 3379 713d fce3 603d
00000140: aeb6 533e 8a22 8cbe 0590 783e 0e32 603e
00000150: 5425 4e3e 1be5 b7bd 9aa2 95be 88fd 1cbd
00000160: 1c76 273e 80f9 00be fb82 1b3e 872a 243e
00000170: 13e5 48be d172 2ebd e821 693e 8420 e4bd
00000180: fc4a 5fbe 5e35 f03e e738 a33e a55c 09bf
00000190: bfa0 dc3e 4db3 e83c 4785 903e 424f e9bd
000001a0: 88d5 a8bd 7d71 103e 1fc4 96be 0f82 003f
000001b0: 55f3 6dbe 0be4 503d 4fb5 8abe a5f1 dcbd
000001c0: 4a9f 3b3e 767f 10bd b2a6 e0bd 898f c0bd
000001d0: 5d9c f1bb 116f 643e 8fc7 a2be b713 f3bd
000001e0: 76d1 763d e982 6abe 6a6b ab3c 4d21 4f3e
000001f0: e392 9a3e 22b0 813d 67cf 0b3e 683b 9a3e
00000200: d8a1 cfbd c718 ab3e 968a d9bc 2452 023e
00000210: a650 8fbc 06e6 42bd cce8 363c 8e55 f13c
00000220: be58 903e 7995 7dbe f235 b6bd c48f 06bd
00000230: 4838 06be 27f8 f53d 6acb b2bd 44b2 93bc
00000240: 4b48 85bd 3544 b33e f977 183e 88ad cf3d
00000250: 7b85 df3d 6720 50bd f434 af3c a133 923c
00000260: 5ed4 3a3e 0f0f e53e f915 c7bd 2f70 93be
00000270: b4a0 033e 6d96 bfbc bd47 cabe 393f 843e
00000280: 53b0 e4bd cfaa 49be e96e 50be 1934 bfbe
00000290: 6059 963e 5e41 c53e 6f24 543e 7fcc 8dbd
000002a0: 0c4b 1abe 9baf d8be cc92 043e 3796 ad3e
000002b0: f4c0 253e 079c c3bd 0b38 523e ab20 85be
000002c0: d407 95bd 5903 0cbe c779 1d3e 8e10 173e
000002d0: 16b7 27be aec6 a9be 6ac9 d939 dfe1 63be
000002e0: e43d 513e a95b 56be 0a8e e73d 1936 8fbe
000002f0: c273 483e e4cf d2bd a8bc d7be ad98 38be
00000300: 62a5 ad3e acd8 26be 007c d03d 0e0f bebd
00000310: adf3 8abd d999 193e 207d ae3d 2df3 0c3e
00000320: b5d4 ac3c d90f 80be 3bfc 5d3c cab5 11bd
00000330: 5034 86be f6cf 353e 8189 60be 825e 193d
00000340: c909 0dbe 6b93 213e a562 993d 5c6e 413e
00000350: ed72 16be 9091 ccbc 47f9 933e 2323 93be
00000360: c444 4abe 2d50 3a3e 4d5d d6bd be7e df3c
00000370: c35e 0dbe d3de ff3d da19 a93c 99a7 053e
00000380: 09e4 593e 6b73 c93d cf9a 253f 669f 893c
00000390: 00fc a53d fa49 4fbe 25c2 09be 0030 263e
000003a0: 69d8 a53d d759 49be b5af 59bd 03f8 4bbd
000003b0: e4f7 2f3d 69d2 053f ae4e 0cbe 8f61 553e
000003c0: 9b76 8ebd 6a90 c4bd f5f1 153f f110 59be
000003d0: 3b8e 21bd 2ee6 8e3e 47c0 a6be 52a6 5fbe
000003e0: 0da6 b4bc 3d6b 11be 6da2 193e 1106 52be
000003f0: ec66 79bc 7b40 d33d b347 deba d2fa e1bd
-0.07181904 -0.5030668 -0.09798634 -0.3659484 0.75934106 -0.033893544 -0.44543082 0.4370539
0.23710217 0.20352049 -0.08004944 -0.0051519503 -0.052353982 -0.10494265 0.13492356 -0.08494958
-0.17276558 -0.04662017 0.041454904 0.02164704 0.0056872987 -0.11657818 -0.008427534 -0.33008522
-0.09935029 -0.014910002 0.23082389 0.0047567114 -0.0770089 0.21831377 -0.07483317 0.35868797
0.52147776 0.06426652 -0.2831688 0.4262014 0.026265658 0.08984156 -0.12991 0.14618021
-0.08807805 0.11858566 -0.10009098 0.20291081 -0.03401902 -0.21270347 -0.0567713 -0.38734126
-0.15666562 0.16841559 -0.3256437 0.08758473 0.15139945 -0.16873692 0.017861104 -0.44805464
0.08764841 0.22095028 0.12196173 -0.062018853 0.12095006 0.38547292 0.08623662 -0.05033261
-0.052330423 0.09380331 -0.096574076 0.14105824 -0.0664302 0.3744327 -0.26320294 0.17814371
0.2429655 -0.019982748 0.22396354 -0.26075763 -0.21641292 0.40506297 0.058953475 0.054904923
0.20675156 -0.273701 0.24273689 0.21894094 0.20131427 -0.08979245 -0.29225618 -0.038327724
0.16353649 -0.12595177 0.15186684 0.16031848 -0.19618635 -0.042589966 0.2276684 -0.11139014
-0.21805948 0.46915716 0.3187935 -0.5365699 0.4309139 0.02840581 0.28226683 -0.1139207
-0.08243853 0.14105792 -0.29446504 0.50198454 -0.23237355 0.05099873 -0.27091452 -0.107882775
0.18322483 -0.035277806 -0.109692946 -0.09402377 -0.0073733763 0.22307993 -0.31792876 -0.11868995
0.06025835 -0.22901501 0.020925242 0.20227547 0.3019019 0.06332423 0.13653336 0.30123448
-0.10138291 0.3341734 -0.02655534 0.12726647 -0.01749451 -0.04758265 0.011163902 0.029459741
0.28192705 -0.2476405 -0.08897008 -0.03285195 -0.13107407 0.12010222 -0.087302044 -0.01802934
-0.065079294 0.35012975 0.14889516 0.1014052 0.10914131 -0.05081215 0.021387555 0.017846884
0.18245074 0.4473805 -0.09720988 -0.28796527 0.12854272 -0.023387158 -0.39507857 0.25829485
-0.11166444 -0.19694065 -0.20354809 -0.37344435 0.29365063 0.38526434 0.20717023 -0.0692377
-0.1506769 -0.42321476 0.12946624 0.33903667 0.16186887 -0.09551244 0.20529191 -0.26001486
-0.07276884 -0.13673152 0.15378486 0.14752409 -0.16378435 -0.33159393 0.0004153953 -0.22254132
0.20433766 -0.20933403 0.11306389 -0.2797096 0.19575408 -0.10293558 -0.4213612 -0.18026991
0.3391524 -0.16293591 0.10179901 -0.09280215 -0.06784759 0.15000094 0.085199594 0.13764639
0.02109752 -0.2501209 0.013548906 -0.03557376 -0.26211786 0.17755112 -0.21927454 0.037443645
-0.13773264 0.15778892 0.07489518 0.18889755 -0.14692278 -0.024971753 0.2890112 -0.28737745
-0.19752795 0.18194647 -0.104670145 0.027282115 -0.1380568 0.12493672 0.02064221 0.13052215
0.21278395 0.09836467 0.64689344 0.01679964 0.08104706 -0.20243064 -0.13452967 0.16229248
0.080979176 -0.19663177 -0.053146083 -0.04979707 0.042961016 0.52274185 -0.13701889 0.20837997
-0.06956216 -0.09597857 0.5857232 -0.21197869 -0.039442282 0.27909988 -0.3256857 -0.2184079
-0.022051835 -0.14201064 0.15003367 -0.20510127 -0.015222292 0.10315033 -0.0016958624 -0.11034168

layers.0.fc_neigh.weight f4 [128, 21]
00000000: 1ec2 03be 020e 83be 627a ae3e 08b8 283e
00000010: 6118 4fbe 32dd 93bd 07a1 40be fb3c e3bd
00000020: ad00 38be 4b0e 473e 482f d63d 1cf2 1d3e
00000030: b388 e4bd 9201 943e 4103 e33d e370 7c3e
00000040: f754 5d3d 938e c03d bf72 53bc ecac 03bd
00000050: 63e4 63be b2be 9e3c 002a 01be c02e 19be
00000060: 32b8 c73d dde2 553e 99b3 6abe 0c9a 61be
00000070: cddb 183d 9a05 93bd 09bf 3a3e fc83 f0bd
00000080: 30ec d83b f9f9 72be c407 21bc 3bf7 373e
00000090: 6813 97ba 4d03 5bbe db9a ff3d ab58 05bd
000000a0: 55ea a13d 773a 023e 630d 2c3d 7c45 303e
000000b0: 2980 3d3e c604 14be 8201 af3c 5f44 7fba
000000c0: c22f 5bbe 2ab3 0d3e eba8 10bd d783 553d
000000d0: b315 8bbe 79d7 f8bd 1fbe 66be c50e 68be
000000e0: c488 9b3d 4672 09be c0f9 4d3d 26e4 0bbb
000000f0: e3d9 03be fa2c 81be f8c0 4f3e 98a4 cfbc
00000100: 8188 41bd f142 333e 5300 62bd 47ed 54be
00000110: 195b 42bd 27c0 6abe 1164 30be 683e 543e
00000120: c6a6 96bd b2c4 173e 63b4 1f3e f2bf 10be
00000130: 91ec 59be 4126 7ebd ebc3 973e d339 57be
00000140: 83d6 1a3e e86f b03c b1f1 223e 7c15 0f3e
00000150: a1b4 ba3d e35c a3be 3357 4b3e 8ff8 1c3e
00000160: dd91 ed3d 604e 91be b20d 5fbe 1be2 0a3e
00000170: b1c0 1c3a f8dc d2bd 1a6a edbc ea77 06be
00000180: 0448 79be 2c53 9e3e 943b 95be b980 ee3b
00000190: 488a 9d3e 888f 33be 9e4d 1d3e 2750 bd3d
000001a0: ab54 79be f731 cabe 57f4 e9bd 5183 9d3e
000001b0: 9a7c 543e 1eeb 433e c937 543d 568f b0be
000001c0: 185d 7b3d ffdb acbd 3c0c 3d3e 22f0 37be
000001d0: 4e60 bcbd 94dd c63c 5b5e 983a cc42 14be
000001e0: d3a5 aa3c f459 5dbd cd39 2d3e 4f66 9c3e
000001f0: a095 92bd 4b00 cd3d 798b ee3b c2da 45be
00000200: 76ce c7bc e196 51be 83ad 1e3e 986c f9bc
00000210: 3433 21bd 9c4a 8c3d 4977 583e b526 99be
00000220: 7701 873e 103e 97be 6cab 57be c0bd 083d
00000230: 281b d03e 656d 883d 9920 7e3e d15a 043f
00000240: 4133 53bd de31 1b3e a65d a63e c2f2 29be
00000250: 7c16 353e 1662 3cbe f1a4 a63d da6e b4bd
00000260: 1df9 0cbd e87d fabd 2ce9 1bbe 5909 23be
00000270: 8120 223e 9968 ddbc 85f3 533d ecf2 9d3e
00000280: bc99 503d efc6 7f3e fff5 15bc 8e46 b4bd
00000290: 01f3 9b3e 3c08 53bd 95a8 853e 61de 51be
000002a0: 6694 83be 8285 8bbe f224 363d 4811 4c3e
000002b0: f477 37be 191d 0f3e d7e3 273e bccf 31bd
000002c0: 4c01 aabe 3897 6f3e b2d4 fc3d 4985 e9bc
000002d0: 2ebe 2abd 5a31 14bd 4296 e7ba def2 673c
000002e0: 64e7 0d3e 54cc 423d 37f3 00be 1a32 423e
000002f0: 7b03 81be 21f3 493e 13bc f4bc 5fe6 f4bd
00000300: 5dea 7bbe 0a2b 7b3e 991d 2f3d 5762 05be
00000310: 46e6 83bc f1d3 233e e080 19be 7974 4b3b
00000320: d596 94bd 94e9 463d 96e3 8b3e b9fa 8cbe
00000330: fb85 efbd 82ee 68be 7b4f 1e3e d69d 4c3d
00000340: 7b75 853d 0c0e 20bd 9e0e aabc 6eeb 543e
00000350: 2749 843e 197b e0bd e56b d03d 0396 7d3d
00000360: 4d14 56be 1950 733e 8639 b7bd ac52 b63d
00000370: a27b f43c 5889 dcbd 8202 7ebe 9081 8c3e
00000380: 81c5 633d 6e6a aa3e d066 8c3e e8d9 67be
00000390: b08a cebc 0391 46bd c675 003e e6ac 43be
000003a0: 6144 663e 3c39 893e 100f 45bd 16a6 1f3c
000003b0: 9c66 c8bd 9859 5c3e a55d e1bd ba60 bcbb
000003c0: 8a95 c83d fe14 fe3d ceb3 7dbe a040 133e
000003d0: 40fd 6a3e c91c 28bd 0b4c 313e 887b 383e
000003e0: 8218 c7bc 33d4 24be ba39 6dbe 73f5 493e
000003f0: ec42 e9be d8f2 903d 1871 fb3e df49 6ebe
-0.12867019 -0.25596625 0.34077746 0.16476452 -0.20224144 -0.07219924 -0.18811427 -0.110956155
-0.17969008 0.19439046 0.10458237 0.15424389 -0.11158886 0.28907448 0.11084605 0.24652438
0.054036107 0.09402194 -0.012905776 -0.032147333 -0.22255091 0.01937804 -0.12613678 -0.1495924
0.09751929 0.20887323 -0.22920074 -0.2203142 0.037318993 -0.07178803 0.18236937 -0.11743924
0.0066199526 -0.2372817 -0.009828512 0.17965405 -0.0011526169 -0.21387978 0.12480708 -0.032555263
0.079060234 0.12717615 0.042004954 0.17214006 0.1850592 -0.14454946 0.021363024 -0.0009737666
-0.21404937 0.13837877 -0.035317343 0.052127685 -0.27164993 -0.12150473 -0.22533463 -0.22661884
0.07594445 -0.13422498 0.05028701 -0.0021345704 -0.12876086 -0.25229627 0.20288455 -0.02534704
-0.04724932 0.17506005 -0.05517609 -0.20793639 -0.04745016 -0.22924863 -0.17225672 0.20726931
-0.07356028 0.14821127 0.15596156 -0.14135721 -0.21281649 -0.0620482 0.2964166 -0.21018152
0.15120892 0.021537736 0.1591251 0.1397304 0.091164835 -0.31906804 0.19857483 0.15329193
0.11600087 -0.28380108 -0.21782568 0.13562815 0.0005979641 -0.10296053 -0.028981257 -0.13131681
-0.24343878 0.3092283 -0.29147017 0.0072785285 0.30769563 -0.17535222 0.1536164 0.092438035
-0.24348705 -0.39491245 -0.11423557 0.3076425 0.20750657 0.19132659 0.051811013 -0.34484357
0.061368078 -0.084403984 0.18461698 -0.17962697 -0.09198056 0.024275579 0.00116248 -0.14478606
0.020831024 -0.054040864 0.1691658 0.30546805 -0.07157445 0.100098215 0.00727981 -0.1932173
-0.02439044 -0.20467712 0.15495877 -0.03044729 -0.03935547 0.06850168 0.21139254 -0.29912344
0.26368305 -0.29539537 -0.21061486 0.033384085 0.4064572 0.0666149 0.24817123 0.51701075
-0.05156255 0.15155742 0.32493323 -0.16596511 0.17684358 -0.18396792 0.08136929 -0.08810206
-0.03441726 -0.12231046 -0.15225667 -0.15921535 0.15832712 -0.027027415 0.05174591 0.30849397
0.050927863 0.24978231 -0.009152888 -0.0880252 0.30458835 -0.051521525 0.2610518 -0.20494987
-0.25699157 -0.27250296 0.044468828 0.19928467 -0.17916852 0.13975944 0.16395508 -0.043411
-0.33204114 0.23397529 0.12345256 -0.028505938 -0.041685276 -0.036179878 -0.0017668682 0.014157025
0.138578 0.047558144 -0.12592779 0.18964425 -0.25197968 0.19721653 -0.029874837 -0.11958002
-0.24601121 0.24528137 0.042752836 -0.13025795 -0.016101014 0.15998818 -0.14990568 0.0031044765
-0.072553314 0.0485626 0.27322072 -0.27535036 -0.116954766 -0.22747234 0.15460007 0.04995521
0.06516548 -0.039075896 -0.020758923 0.20792934 0.2583706 -0.10960979 0.10176829 0.06191064
-0.20906182 0.23761024 -0.089465186 0.08902487 0.029844109 -0.10768384 -0.24805644 0.27442598
0.055608276 0.33284324 0.2742219 -0.22641718 -0.025212616 -0.048478138 0.12544927 -0.19108924
0.22487022 0.2680148 -0.048110068 0.009744188 -0.09785196 0.21518552 -0.110041894 -0.0057488354
0.09794147 0.12406348 -0.24775621 0.14380121 0.2294817 -0.041043077 0.17314164 0.18015873
-0.024303678 -0.16096573 -0.23166552 0.19722538 -0.4555887 0.07077569 0.4910972 -0.23270367

layers.1.bias f4 [2]
00000000: 3655 ef3d 3655 efbd
0.116861746 -0.116861746

layers.1.lstm.weight_ih_l0 f4 [512, 128]
00000000: d119 19b9 bc19 c6bd 8279 7fbd 25ce d0bc
00000010: 8648 29bd d2ba a0bd 2bfe a8bd 3ea8 bfbd
00000020: 9921 9bbd 8769 f5bd f991 aebd d26a aa39
00000030: dbea d0bc 4a20 f4bc 4a47 cb3c e112 afbc
00000040: 4f28 53bb 356a e8bd 3d70 83bc cfe6 c33c
00000050: 177e adbd f244 c5bd 3d0d 613c 4484 a6bb
00000060: fc8b e1bd 6e94 45bd 56f9 1bbe 8213 45bc
00000070: d9a0 8abd 1e8a 02be 5fe0 4c3d 8f92 c8bc
00000080: 2902 06bc e79e a7bd 496b abbc 5e99 bdbd
00000090: d429 513d 2c67 69bd 04a2 ecbd b840 84bd
000000a0: 855f 5bbd 3b16 64bb da9c 2fbe 20f7 31be
000000b0: e72a 70bd 2427 0ebe 4aa6 bcbd 3db8 983b
000000c0: e683 d9bd 3aaf 31bd f160 2c3c 6263 ffbd
000000d0: eb5b dfbd 4d66 9fbc 4ea1 b4bd a29d 69bd
000000e0: acb9 4cbd be2d ee3c 1b2a 4abc fcfa 8bbd
000000f0: 5337 d5bd 7c12 9cbd c861 bcbc b9ee 4f3c
00000100: acaa 493d 5202 7abd c14b f3bd 8d94 813c
00000110: a55a 13be 3fce 86bd 3152 bcbd 4d0d 113d
00000120: 8433 3fbd b01f bcbd 9d5f ea3b 7916 e6bd
00000130: d0c3 7b3c dd50 0abc 4f49 83bb d791 e2bd
00000140: 946c 1ebc ee75 8abd 35b6 6d3d a138 5dbd
00000150: 785f 19be 733b 3d3d f44a 4f3d d4bb bfbd
00000160: f026 31bd e91b 86bd dd4e 98bd 5a16 f3bd
00000170: 5237 4abd f13d 233d 47be a3bd 20de 84bd
00000180: d0ef 0bbe 8bab 0ebc 1208 1a3d 2964 a3bd
00000190: 425f 94bd 3012 25bc c5d4 a6bc bbe1 99bd
000001a0: bf4b 3b3d cfb7 ccbd 79ac ecbc 205f 1f3b
000001b0: bb8b 093d b764 03be aa46 063c 1fc5 b5bd
000001c0: af1e 1e3d 0cf4 1bbc ed77 473c bcbd 87bd
000001d0: b1f7 d1bc 493b 0ebc 6056 06bb d162 9fbd
000001e0: c013 94bd 485d 38be c13e 2f3d 1938 f5bd
000001f0: 2157 13be 30be 00be 6ba4 f1bd 2c14 b4bd
00000200: 4673 b9bd b4b8 f6bd db65 9ebd 64fd 22bd
00000210: 659d fdbd b430 17be 0d96 443c 682b fdbb
00000220: 97b5 1abe 5a5b 2cba 6c06 b9bd ed1f 4abb
00000230: ebf1 2f3b a047 2dbd 34dd 6dbd c208 41bd
00000240: dd0e 99bd 1097 2bbd b4cb b039 a51b 82bd
00000250: 3bfe c3bd ef2f 28bd c2ae 85bb 4cf7 853b
00000260: 7aee d2bd c247 a7bd c2b5 d9bd 99ba 57bc
00000270: 2a5f efbd b5e5 b2bd 165c 17be 733d b3bd
00000280: 3d4f 9ebd 7829 9cbd 6583 b9bd 6331 c3bd
00000290: 98e6 03be 917f 35bd 2ddd cd3c cbbe b9bc
000002a0: d0dd 5abe c279 1bbd 3eb5 08bd 8385 93bd
000002b0: a9f9 95bd bf53 97bd 1cb1 453b 9a60 0bbe
000002c0: 3950 c2bd 27bd 213b 8803 8bbd 5bbc a1bd
000002d0: e748 d2bd 6869 e23b f30e 323d bff5 b5bd
000002e0: b370 013c 64a6 1a3d ccc0 9cbd d95d 02be
000002f0: 599c 2bbd 0ddd 19be 8fef fcbc b0b3 19bd
00000300: eb37 83bd ffb2 fcbc 65f7 2ebd 54d2 323d
00000310: b58c 3ebe 6b6a 17be f078 01be bc85 95bb
00000320: f3cf 12be b54a f6bc 2211 18bc 6b1b 4f3c
00000330: a0f0 dcbd 3760 81bd efd5 55bd fed0 5abd
00000340: c9da 22bc bf79 e0bd 7b0c b5bd cde6 98bd
00000350: 2d75 d1bd a011 49bd 21cb 43bc cb92 afbd
00000360: ab2f e5bd c8e3 5ebb d558 bdbc e3f5 c2bd
00000370: 1a2c 263d f812 0bbe f6f0 dfbd d09b acbb
00000380: 0793 a2bd 25e1 0ebe 7ff3 b83b b08c a2bd
00000390: fab9 b1bd 2811 b0bd 6d48 a0bd a21b 15be
000003a0: ac15 c03c 4450 cabd ba4f e7bc c99d e0bd
000003b0: 1811 8fbc 6ca8 07bd a42b 84bd 1490 f8bc
000003c0: fa8f 11be 10ce ebbd df6c 27be ac32 e3bd
000003d0: 76ef 6fb9 4fe7 a3bd c23b 05be 02d2 003b
000003e0: bbda 59bd f844 54bd 40a9 f4bd 298b bebc
000003f0: 7427 d23b e1d1 eebc 38e3 5e38 d994 16be
-0.00014600834 -0.09672877 -0.06237174 -0.025488922 -0.04132893 -0.07848133 -0.08251604 -0.093582615
-0.075747676 -0.11983018 -0.08523936 0.00032504514 -0.025502613 -0.029800553 0.024814267 -0.021371307
-0.003222007 -0.113483824 -0.01604473 0.023913769 -0.08471315 -0.09632291 0.013736066 -0.0050816853
-0.11013028 -0.048237257 -0.15231833 -0.012028577 -0.067689605 -0.12748 0.050018664 -0.024483947
-0.008179226 -0.08184605 -0.020925181 -0.09257768 0.05106528 -0.056983158 -0.115543395 -0.064576566
-0.05355789 -0.003480329 -0.17149678 -0.17379427 -0.058634665 -0.13882118 -0.092114046 0.004660635
-0.10620861 -0.04338 0.0105211595 -0.12470128 -0.10906204 -0.01945796 -0.08819829 -0.057035096
-0.049981758 0.029074546 -0.01233914 -0.06834981 -0.10410943 -0.07620713 -0.022995844 0.012691193
0.04923503 -0.06103737 -0.11879683 0.015817905 -0.14390047 -0.06582307 -0.09195364 0.035413075
-0.04667999 -0.091857314 0.0071525113 -0.11234755 0.01536651 -0.008442131 -0.004006542 -0.11062973
-0.009669442 -0.067607746 0.058035094 -0.054009084 -0.14977825 0.046199273 0.05060859 -0.09361997
-0.043250024 -0.06548292 -0.07436917 -0.118694976 -0.049369164 0.039853994 -0.07995277 -0.064876795
-0.136657 -0.008707891 0.037605353 -0.079780884 -0.072447315 -0.010075137 -0.020365128 -0.07513758
0.045726534 -0.09995996 -0.028890835 0.0024318174 0.033580523 -0.12831388 0.008195559 -0.088754885
0.03860348 -0.0095186345 0.012174589 -0.06627986 -0.025630804 -0.008681127 -0.002049826 -0.077825196
-0.072303295 -0.18004334 0.042784456 -0.119735904 -0.14388706 -0.12572551 -0.11798938 -0.0879291
-0.0905519 -0.12046948 -0.07734271 -0.039792433 -0.12383536 -0.14764673 0.0119986655 -0.0077261217
-0.15108334 -0.0006574892 -0.09034428 -0.0030841783 0.0026847075 -0.042304635 -0.058072284 -0.047127493
-0.07473538 -0.04189211 0.00033721107 -0.06352929 -0.09569975 -0.041061338 -0.0040796706 0.004088318
-0.10299392 -0.081679836 -0.10630371 -0.013167047 -0.11688073 -0.087352194 -0.14781222 -0.08751955
-0.07729957 -0.07625097 -0.09058265 -0.09530904 -0.12880933 -0.04431111 0.025129879 -0.022673985
-0.21373677 -0.037957914 -0.03337597 -0.072032 -0.073230095 -0.0738902 0.003016538 -0.1361107
-0.094879575 0.0024679394 -0.06787783 -0.07897254 -0.10267811 0.006909538 0.043471288 -0.08884763
0.007900405 0.03775634 -0.076539606 -0.12731113 -0.04189715 -0.1502573 -0.03087595 -0.03752488
-0.0640715 -0.03084707 -0.042716403 0.043657616 -0.18608363 -0.14786689 -0.1264379 -0.0045630615
-0.14337139 -0.03006492 -0.0092814285 0.012640814 -0.10788083 -0.0631718 -0.052205976 -0.053421967
-0.009939858 -0.10960721 -0.08840271 -0.07465897 -0.10227428 -0.049089074 -0.011950285 -0.085729204
-0.111907326 -0.003401028 -0.023113647 -0.095195554 0.040569402 -0.13581455 -0.109346315 -0.0052675977
-0.079381995 -0.13953073 0.0056442614 -0.0793699 -0.0867805 -0.08597022 -0.07826314 -0.14561322
0.023447834 -0.09878591 -0.028236259 -0.10967595 -0.017464206 -0.033119604 -0.06453636 -0.03034214
-0.14215079 -0.11513913 -0.16350125 -0.11093649 -0.00022882022 -0.08003103 -0.13011077 0.0019656424
-0.053187113 -0.051823586 -0.119463444 -0.023259716 0.0064133946 -0.029152812 5.314054e-05 -0.14705218

layers.1.lstm.weight_hh_l0 f4 [512, 128]
00000000: 8b9f aa3d de74 b53c 9dde 3ebe 1e00 cc3c
00000010: e1bf a13d 4b0c 3abd 0500 7d3d 9d12 92bc
00000020: d099 10bc a4ca 473d 217b 73bc f0fe c93b
00000030: 72b8 55bd 91c2 c2bd 8691 0ebd 1cfb 3abc
00000040: 03a8 3e3d eaa1 be3d 5483 23bd 53eb 6a3d
00000050: 7d34 f0bd 80dd 9fbd 1f39 39bd b36c d43d
00000060: 8275 f53c 23a5 1e3d 7833 0ebd 09b4 12bd
00000070: f5dc 96bd 5779 90bd 90e1 b23d ec71 c53d
00000080: 2fc0 21be 859e 2dbd c8b4 0c3d 2065 d63d
00000090: 4bc1 9d3d 93d8 f3bd b7e3 bd3c 9368 fcbd
000000a0: 6103 ea3c a41b 423e edf5 083e be40 733e
000000b0: 48ce b9bd 8b72 96bc 5cd2 513d d182 caba
000000c0: 765f db3c 5dfd ce3c e6e4 83bd aa95 953d
000000d0: 7f3a e93b aa94 88bd c6fd 4f3b ab5b c4bd
000000e0: 178b d2bd d649 653d 2061 79bd 7e16 8bbd
000000f0: 7ca6 123e 65da 4dbc 436b a83d 4555 eb3d
00000100: 3f53 433d 2c33 63bd 0d68 70bd 531c 3dbe
00000110: 0e93 a7bd 0e0e adbd f1a3 3fbd 1116 84bd
00000120: ac35 36bd 9712 3ebd 1d75 e33b 91d2 5f3d
00000130: 0ead 903d c287 1dbd f1b6 a73c 0917 18be
00000140: d5cd 4cbb 3a7f acbc c760 113d 909a 093d
00000150: 3b6a 72bc dfa7 80bd 070d cf3d 06c0 77bd
00000160: ca76 04be 5a8e 4dbd f2c1 253e ba69 673d
00000170: 691a 5d3d 09a0 6b3d 00dd 1a3d ac81 8a3c
00000180: fdb7 093e 5a78 2a3d f79f d73d a50a bfbd
00000190: e451 c53d 989a babc 0ec0 93bd bd22 85bc
000001a0: ea35 61bd 22cb 653d 7a56 90bb def3 a33d
000001b0: 5bde c53d 7c4a e2bc 3592 8d3c 9bc2 be3d
000001c0: b492 183e 4e35 22be edff 4ebd fc17 eb3d
000001d0: cea8 e2bd e6be 873c 2786 1cbd 68c3 f0bb
000001e0: aeb4 54bd 5948 993d ba2f 5a3d 014f 22be
000001f0: 6d3a f1bd f885 133e 4c09 c4bd 3f3d c2bd
00000200: 685b 993d 5791 00bd a059 25bd dca2 e1bc
00000210: 9813 fdbc 9635 a0bd 6077 143e 0656 48bd
00000220: eee6 93bc 3487 aabc 625b 5ebd a87a 5cba
00000230: 70e8 e5bd 31a1 bfbd 391c c6bc 9a1e 6f3d
00000240: 5382 60bd a775 2f3d 6635 65bc 1df6 f93c
00000250: 6d35 25bd a437 9b3c 75a1 d9bd 4fec 2f3d
00000260: d63f 863d 42e5 da3c a5d9 c0bd 7890 e7bd
00000270: 7ab7 fcbd b38b eabd b6b0 d93d 0b75 e43d
00000280: a7f2 84bd 9269 c7bd 61dc b33c 101c 433d
00000290: 013f 9a3d 1c15 01be 1056 f63c 2239 a33c
000002a0: bc99 a7bd ce17 3c3e 4acd ee3d e9bf c63d
000002b0: 7ef5 f03b c18f 5cbd 2285 5a3d 6639 b9bc
000002c0: ead1 00bd c750 5c3d 6d21 053d ea96 123d
000002d0: f33d 1b3e aff0 0d3c 7627 983d c41d c1bd
000002e0: eb7b 21be 9993 173e cc9f e4bd 7bc2 c4bd
000002f0: 6945 793d a3b4 ec3d 42f4 7ebd 853d cf3d
00000300: 8236 0d3b 47db cabd 9324 27bd 7f61 0bbe
00000310: 0a4d 1bbd 76f4 89bd 2628 0dbe a384 fdbd
00000320: e981 3ebe 68db 02bd d946 ac3c 5385 9cbc
00000330: e5bc aebc 0447 2cbd 3348 47bd 8241 d8bd
00000340: 31d1 a9bc c9ae a73c 5891 fe3d 75ab c93d
00000350: 49f7 c8bd 1b9c 5fbd 9e36 ba3d e1d0 3dbe
00000360: 5ee5 74bc 0afa 31be cbcc 103e 9f7c a93d
00000370: 2e6c c1bd 9ea3 81bd d91c 1d3d 4099 79bd
00000380: 5da0 193e e453 4bbd 578b 463e 7f1e d0bc
00000390: 455e 00bd 77d2 7abd 050a 193c 8376 cabd
000003a0: ba27 23be 6fd1 323e d332 4cbd 4b09 f83c
000003b0: b0ed 373c 0571 d3bd 07ae e9bb 19d8 0c3d
000003c0: 38bb 023e aecd 81bd 7d50 04be 54e7 813d
000003d0: 1f56 47bd 7b34 523d 0f9d 3bbe b51a 6e3c
000003e0: bf7a 3cbe db33 413d e606 08bc ab33 0dbe
000003f0: 9be6 b3bd 42c5 dd3d bfde 9ebd e958 8ebd
0.08331212 0.022150453 -0.18639608 0.0249024 0.07897926 -0.04542188 0.061767597 -0.017831141
-0.008825734 0.048777238 -0.014860899 0.006164424 -0.052177854 -0.09509767 -0.03480675 -0.011412408
0.046546947 0.093082264 -0.039920166 0.05735333 -0.11728761 -0.0780592 -0.04522049 0.10372295
0.029963259 0.038731705 -0.034717053 -0.035816226 -0.07366363 -0.07054394 0.08734429 0.096408695
-0.15795968 -0.042387504 0.034352094 0.10468507 0.07702883 -0.11906543 0.023179872 -0.123246334
0.028566064 0.18955857 0.13375063 0.23755166 -0.09072548 -0.018365165 0.051226005 -0.0015450363
0.026778918 0.025267297 -0.06440143 0.07303937 0.007117569 -0.066689804 0.0031736954 -0.09587797
-0.102804355 0.05597862 -0.06088364 -0.067913994 0.14321321 -0.012564276 0.082235835 0.11490873
0.04768681 -0.055468723 -0.05869298 -0.18467836 -0.08182345 -0.08449946 -0.046787206 -0.06449521
-0.04448478 -0.046404447 0.006941451 0.05464417 0.070642576 -0.038459547 0.020472975 -0.14852537
-0.0031250615 -0.02105676 0.035492685 0.033594668 -0.014795835 -0.06282019 0.10109907 -0.060485862
-0.1293594 -0.050184585 0.16187266 0.056497313 0.053980265 0.05752567 0.03780842 0.016907535
0.13449092 0.041618682 0.10528558 -0.09328202 0.0963476 -0.022778794 -0.07214366 -0.016251916
-0.054983057 0.056101926 -0.00440484 0.08005498 0.096615516 -0.027623408 0.017281631 0.09314462
0.14899713 -0.15840647 -0.05053704 0.11479184 -0.11067353 0.01657052 -0.038213875 -0.007347513
-0.051930122 0.07484502 0.05326817 -0.1585045 -0.11778722 0.14406574 -0.09572086 -0.09484338
0.074881375 -0.031388607 -0.040368676 -0.027543478 -0.030893132 -0.07822721 0.14498663 -0.048910163
-0.018054452 -0.020816423 -0.05428637 -0.0008410611 -0.112259746 -0.09356917 -0.02418338 0.058378793
-0.054811787 0.04283681 -0.013989782 0.030512864 -0.040334154 0.01894743 -0.106264986 0.04294997
0.065551445 0.026720647 -0.094165124 -0.11306852 -0.12339683 -0.11452427 0.10629408 0.11155137
-0.06491595 -0.09736933 0.02195567 0.047634184 0.07531548 -0.12605709 0.030070335 0.019924704
-0.081836194 0.18368456 0.116602495 0.09704573 0.0073534837 -0.053848032 0.05334962 -0.022610378
-0.03145019 0.053787973 0.03250258 0.035788454 0.1516035 0.0086633405 0.074294016 -0.094295055
-0.15769927 0.14802398 -0.11163291 -0.09607407 0.06085721 0.11557891 -0.06224466 0.10119156
0.0021547382 -0.09905105 -0.040806364 -0.1361141 -0.037915267 -0.0673608 -0.13784847 -0.12378814
-0.18604244 -0.031947523 0.021029877 -0.019106543 -0.021330306 -0.042059913 -0.04865284 -0.105593696
-0.020729633 0.020469086 0.12430066 0.09847156 -0.09812791 -0.054592233 0.09092449 -0.18536712
-0.0149472635 -0.17380539 0.14140622 0.08275723 -0.09444462 -0.063300356 0.03835759 -0.060937166
0.1500258 -0.04964055 0.19389091 -0.025405167 -0.031339902 -0.06123587 0.009340768 -0.098858856
-0.15933123 0.17462705 -0.049853157 0.030277869 0.011226103 -0.10324291 -0.0071313414 0.034385774
0.12766731 -0.063380584 -0.12921329 0.063429505 -0.048666116 0.05131958 -0.18321632 0.014532735
-0.18406199 0.047168594 -0.008302426 -0.13789241 -0.08784219 0.108286396 -0.07757329 -0.06950552
